model.pth (torch, 207958 bytes, 23 tensors)

cnn.0.weight f4 [16, 10, 3]
000000 ae b3 16 3d 61 b3 18 3e 22 ce f5 3d ce 9d 32 bd
       0.03679245 0.14912178 0.12002207 -0.043607526
000010 a8 c2 ac 3d 7a f3 d2 3d aa a5 b1 3d a7 09 89 bd
       0.08435565 0.10300346 0.08674176 -0.06691294
000020 c7 cd 1a 3e 7e 1e 02 be 77 03 44 3b a0 4f 04 3e
       0.1511756 -0.12706944 0.0029909292 0.12921
000030 f3 8a 7c 3d a6 1c ac bb 8d b4 41 3d 84 f0 b3 3d
       0.06165595 -0.0052524386 0.047291327 0.08786109
000040 83 dd dc 3b e8 49 9a bd 1c 93 91 3d 1b 3d 33 be
       0.0067402734 -0.07533628 0.07108137 -0.17503779
000050 fb d8 f1 3d d1 08 32 bd 6b 96 82 bb 12 ad 3d 3e
       0.11808964 -0.04346544 -0.0039852164 0.18523052
000060 8e 43 0c 3e 92 36 36 3d 98 cc ae 3d fe 9a 09 3e
       0.13697645 0.044485636 0.08535117 0.13438031
000070 f4 6c 9b 3d 1f 2d 33 bd e3 d1 3c 3d d8 61 bd 3d
       0.075891405 -0.043744203 0.0460986 0.09247178
000080 d3 a2 7d bd 04 b5 de bd 21 59 02 bd a9 4a 44 bd
       -0.06192286 -0.1087437 -0.03182328 -0.047922764
000090 e9 39 27 bd a4 4b 5b be 44 0c a8 bd 44 c7 78 3d
       -0.04082671 -0.21415573 -0.082054645 0.06073691
0000a0 30 12 a0 bc e1 c5 ac 3d 2c 06 89 be dd 76 45 be
       -0.019539922 0.0843618 -0.2676252 -0.19283624
0000b0 c5 32 6a be 3e eb d9 bd 8c c0 db bd 3c c9 73 3c
       -0.2287093 -0.10640572 -0.10730085 0.014879521
0000c0 38 40 ec 3d f1 34 1e 3e 46 e1 d9 3c 83 2b 22 3d
       0.11535686 0.15449883 0.026596677 0.039592277
0000d0 77 c2 ca bd d7 ef 95 bd 85 d7 56 bd 78 06 ba bc
       -0.099003725 -0.073211364 -0.05245163 -0.022708163
0000e0 0e 48 12 3e 18 69 91 3d 1c 61 a4 bd 82 29 01 3d
       0.14285299 0.07100123 -0.08026335 0.031533726
0000f0 41 f8 33 be ba a3 72 bc 4e 81 d5 3c a1 7d 2e be
       -0.1757517 -0.014809543 0.026062634 -0.17040111
000100 bf 7d 9e 3d 43 4a fb 3c c9 c9 0c be 4f 79 79 bc
       0.07738828 0.03067506 -0.1374885 -0.015226676
000110 db 33 cb 3d 30 5b d3 3d b4 4c 00 3e 01 7a ec bd
       0.09922 0.10320127 0.1252926 -0.11546708
000120 9c f7 d7 3d db 8c 8f 3b e7 e7 aa bd b7 4a 16 bc
       0.105452746 0.004380805 -0.08345013 -0.009173087
000130 29 00 bb bd a9 22 d7 bd be b6 ff 3d ca 35 55 3e
       -0.0913089 -0.10504658 0.12486027 0.208213
000140 fc c8 07 3e d5 44 3e 3d 76 0e a2 3c 95 f8 a8 3d
       0.13260263 0.046452362 0.019782286 0.08250538
000150 6a eb 36 be 9f 5a 3d 3e ed 26 13 bd e5 50 b1 bd
       -0.17863241 0.184916 -0.035925794 -0.086580075
000160 41 7b 05 3e d5 46 3c bd 54 b8 81 bd c0 13 42 bd
       0.13035299 -0.04596599 -0.06333986 -0.047382116
000170 67 4d 1a bc 8a be 1b 3e 8b 09 18 bd ea 94 78 3c
       -0.009417868 0.15209404 -0.037118476 0.015172223
000180 32 11 a8 bd 12 bc f6 bd c6 8e 6a bc 8d 45 6d 3d
       -0.08206405 -0.1204759 -0.014316266 0.057927657
000190 ab b0 45 3d 72 3b ed bd c4 63 2e be b8 07 08 3e
       0.048264187 -0.11583604 -0.17030245 0.13284194
0001a0 40 1b fe 3c 27 92 c9 bd 6a 1b 24 be 29 fb 23 3e
       0.031018853 -0.098423295 -0.16026083 0.16013779
0001b0 07 79 a4 3d b6 51 01 be 86 40 30 be e7 f0 06 bd
       0.08030897 -0.12628826 -0.17212114 -0.032944586
0001c0 1e 2b 04 be 2d eb 1b be 79 6e c1 bd 3e 8a 50 bc
       -0.12907073 -0.15226431 -0.09444899 -0.012728272
0001d0 df 09 c4 3d 73 8b c4 3d a2 73 c7 bb cf 14 ba bd
       0.09572195 0.0959691 -0.0060867826 -0.09086
0001e0 94 6b cf bd c1 53 08 be ae 98 10 be 79 09 40 3e
       -0.10127941 -0.133132 -0.14120743 0.18753614
0001f0 83 46 40 3d a9 c9 36 bd 2c 49 8b bd a5 85 31 3c
       0.046942245 -0.04462591 -0.06801066 0.010835086
000200 75 01 04 3e 65 9f 06 3e d3 fe c8 bd 08 df 3f 3e
       0.12891181 0.13146742 -0.09814229 0.18737423
000210 d6 30 02 be e5 3a dc 3d 72 93 9e 3d a3 63 40 3d
       -0.12713942 0.10753421 0.07742967 0.04697002
000220 a3 a2 fb 3d cb 4f f6 3d 86 9a 06 3e 95 dc 6b 3d
       0.1228688 0.12026938 0.13144884 0.05758341
000230 61 9c 20 3d 3e 0b 24 bd bd 5b 16 be fa ad d9 3d
       0.039211635 -0.040049784 -0.14683433 0.106288865
000240 cb a6 0f bd 48 be e8 3d 12 dc 51 3d 76 2d a4 bd
       -0.035071176 0.11364418 0.051235266 -0.080164835
000250 1e a1 0b bd 89 a6 63 be 3d af 2c bd 3a 2c 69 be
       -0.0340892 -0.22231497 -0.042159308 -0.22770777
000260 bc 66 00 3e 6d e6 8d bd 25 f2 eb bd 9c 73 32 bd
       0.1253919 -0.06928716 -0.11520795 -0.043567285
000270 15 8d 3e 3c 97 c6 17 bc 71 a8 58 bd b9 3f d6 3c
       0.011630316 -0.009263656 -0.052895013 0.026153432
000280 00 9c e8 bd 83 91 18 be 00 49 0b be 31 44 8c 3c
       -0.1135788 -0.14899258 -0.13602066 0.01712236
000290 f5 76 2c 3d a1 bc fc 3d 75 6b 04 be dd dc 89 3d
       0.042105634 0.123406656 -0.12931617 0.067315795
0002a0 4a 73 c0 3d 76 93 2b bd bf b9 53 3d 44 a9 06 3e
       0.0939699 -0.041888677 0.051690813 0.13150507
0002b0 71 db f5 bd d7 fb 65 be 1a 5c 17 bd e3 d4 82 bd
       -0.12004746 -0.2245935 -0.03695307 -0.06388261
0002c0 3c 65 db 3d 5d 26 28 be 0c 3f f3 bd df 5c 61 3d
       0.10712668 -0.16420884 -0.118772596 0.05502021
0002d0 3b b7 2b 3e 49 bc b0 3d 26 fb 28 bd 33 a4 88 bd
       0.16769116 0.086296625 -0.04125514 -0.066719435
0002e0 34 b5 81 bd 9a 31 04 3e de 6f 76 bd d2 f3 c6 bc
       -0.0633339 0.12909546 -0.06016528 -0.024286184
0002f0 09 16 97 3d 0b f5 13 bc 07 38 aa bd 9f 66 55 3e
       0.0737725 -0.009030591 -0.083114676 0.20839928
000300 3d 8b 0c be 46 b5 41 bd d5 03 cf ba be b9 0a 3e
       -0.1372499 -0.047292016 -0.0015793989 0.13547418
000310 8f e2 2d be 4f a4 c1 bd 16 53 83 bd b7 46 d0 3d
       -0.16980956 -0.094551675 -0.06412332 0.10169738
000320 eb 29 75 3e c4 b6 d0 bd 9c a3 0d 3e d8 18 9d 3d
       0.23941772 -0.1019111 0.13831943 0.07670754
000330 aa ed 53 3c cd 6d 2c bd f6 8b 87 3d b3 79 c7 3d
       0.0129350815 -0.0420969 0.06618492 0.09740009
000340 c8 01 90 3d f2 b2 2d 3e 8c 44 fe bc 2a 71 00 3e
       0.0703159 0.16962793 -0.031038545 0.12543169
000350 35 92 1a 3e bb 06 db 3c 4f 02 04 3e 22 ee dd 3d
       0.15094836 0.026736608 0.12891506 0.10836436
000360 c3 3c f5 bd 82 f2 08 be a4 de 23 3e 21 93 ed bc
       -0.1197448 -0.1337376 0.160029 -0.02900082
000370 00 85 33 3e b2 2e b8 3e a1 b1 da 3c 58 57 c6 bd
       0.17531204 0.35973126 0.026696028 -0.09684628
000380 d6 c7 39 3e d0 c9 3a 3e a6 47 b1 bd f8 cf 01 3e
       0.18142638 0.18241048 -0.08656244 0.1267699
000390 10 9c 2d bc 72 0a e5 3d 74 c9 15 be 5f 16 25 bd
       -0.01059629 0.11183633 -0.1462763 -0.040304538
0003a0 93 fe a0 3d af 53 12 3e 6c 70 32 3d db 67 99 bd
       0.07861056 0.14289735 0.043564245 -0.07490512
0003b0 5c dc 16 3d 73 5d 41 3d 23 73 93 bd ca 17 c2 3d
       0.036831245 0.04720826 -0.07199695 0.09477194
0003c0 66 83 8c 3d ba 10 12 3e 2a c8 3a 3d ea 46 6a bd
       0.06861 0.14264193 0.045601048 -0.057196535
0003d0 c7 55 38 bc 77 39 9d 3d bd 37 dd 3b 6e 88 c3 3d
       -0.01125092 0.07676976 0.0067510293 0.09547506
0003e0 b5 b6 1b bd 9c f9 be bd ca b3 36 3e 54 09 37 3d
       -0.03801604 -0.09324953 0.17842022 0.04468663
0003f0 45 32 e0 3c 31 f6 92 bd 26 08 96 3d 21 0e cf 3d
       0.02736772 -0.071758635 0.07325773 0.10110117

cnn.0.bias f4 [16]
000000 77 5b 8f 38 d4 e1 e3 b8 5d 60 a9 b8 c9 9a 16 ba
       6.835808e-05 -0.00010866267 -8.076497e-05 -0.00057451107
000010 93 bb 19 39 42 ae 84 38 1e a8 58 b8 38 06 8c b9
       0.00014661094 6.3267085e-05 -5.1654984e-05 -0.00026707514
000020 59 77 1e b9 9b f3 3a 3a e7 70 84 39 c7 eb 1a b9
       -0.00015112515 0.0007131637 0.0002526112 -0.00014774418
000030 1b ff b5 b8 d6 d4 c9 b9 ae ed f5 38 1c c8 45 ba
       -8.67827e-05 -0.00038496283 0.00011726782 -0.0007544772

cnn.1.weight f4 [16]
000000 8a e6 6c 3f 10 7c 65 3f e2 88 6d 3f 64 7a 74 3f
       0.92539275 0.8964243 0.9278699 0.95499253
000010 85 e9 7f 3f 25 af 6a 3f 53 0e 64 3f 9b 0a 7e 3f
       0.999657 0.916735 0.8908436 0.9923493
000020 da 7c 65 3f 33 7b 69 3f f9 9e 7e 3f 1e dc 78 3f
       0.89643633 0.9120361 0.99461323 0.9721087
000030 ee 80 67 3f 90 b7 6a 3f a9 85 6d 3f a1 f0 82 3f
       0.90431106 0.91686344 0.92782074 1.0229684

cnn.1.bias f4 [16]
000000 29 88 08 bd d4 3b 96 bd 25 cb 3e bd 8c 35 13 bc
       -0.033332977 -0.0733563 -0.046580452 -0.008984935
000010 8a fa dc bc eb 9b d9 bc 1c ff 55 bd 7e cf b2 3c
       -0.026974935 -0.026563605 -0.052245244 0.021827456
000020 9b 0e 52 bd 8d 5f a7 bc 27 d5 2e bd ce e4 49 bc
       -0.05128346 -0.020431304 -0.042683747 -0.012322618
000030 84 37 ce bc 8f e9 1b bd 90 21 5a bb fa ab f7 bb
       -0.025172956 -0.038064536 -0.0033284165 -0.007558343

cnn.1.running_mean f4 [16]
000000 7d d8 98 3e 41 37 17 be cf 14 97 3e a5 60 c3 be
       0.29852667 -0.14767171 0.29508063 -0.3815967
000010 f8 e6 e4 3d 9b 8e 5c be b9 36 93 3e e7 3b 97 3e
       0.11176866 -0.21538775 0.28752688 0.2953789
000020 4f 08 a7 be 9c f5 39 be 8b f3 3a 3e 67 48 5b 3e
       -0.32623526 -0.18160099 0.18256967 0.21414338
000030 e3 38 b4 be 66 8f b8 be e3 ae bd bd 0d c1 ef bd
       -0.3519965 -0.36046904 -0.092618726 -0.117067434

cnn.1.running_var f4 [16]
000000 83 62 95 3b ed 9a 95 3b c7 da 24 3c ad 67 9b 3b
       0.0045588627 0.0045655877 0.010061926 0.0047425837
000010 b9 10 35 3b 14 d8 c0 3a f7 6e e2 3b 0a 21 a0 3b
       0.0027628376 0.0014712834 0.0069102007 0.004886751
000020 f4 ae 27 3c 3b 53 b2 3a 6b 46 6b 3b b7 91 c5 3b
       0.010234583 0.0013605127 0.0035900127 0.0060293335
000030 c4 c3 00 3c 6d eb c1 3b d8 be 15 3b 7f fc 29 3a
       0.007859174 0.0059179575 0.0022849347 0.0006484463

cnn.4.weight f4 [32, 16, 3]
000000 6b 62 02 3d b4 af d6 3d 66 7d be 3d 49 49 df 3d
       0.03183214 0.104827315 0.093012616 0.1090265
000010 a5 eb bb 3d a8 43 b4 bd 86 87 d3 bb 8f 23 19 3e
       0.09175805 -0.08801967 -0.0064553646 0.14954971
000020 a5 4d c5 3d 48 19 a7 3c 94 70 89 bd 5c 8a 1a 3d
       0.0963395 0.020397797 -0.06710926 0.037729606
000030 87 ec c0 bc 6a 79 4f 3e f9 3e 34 3e 71 cc 0c bc
       -0.023550285 0.2026116 0.17602147 -0.0085936645
000040 62 6b ce 3d 74 e0 85 bd 07 dd 08 3e 4a b3 23 ba
       0.100790754 -0.06536952 0.13365565 -0.00062446727
000050 e0 53 0c 3e 37 34 0d bd 85 4a 92 bd b8 37 8e 3c
       0.13703871 -0.034473624 -0.0714312 0.017360553
000060 b9 93 79 bd 32 fb 97 bc 19 c0 a3 3d f6 66 95 3d
       -0.060931895 -0.018552396 0.07995624 0.07295029
000070 f9 ff 8a bd 85 16 c7 3d 7e 96 e7 3d 67 79 62 bd
       -0.06787104 0.09721092 0.11308001 -0.05529156
000080 df 0f f4 3d c7 4b b0 bb 8f 14 35 bc 10 88 d2 3d
       0.1191709 -0.005380127 -0.011052265 0.10279858
000090 d1 83 1d bd 3b e1 93 bd c8 ae 59 3b 59 7f b9 bd
       -0.038455788 -0.07220694 0.003321575 -0.09057493
0000a0 d8 9b 0e be be a1 c1 3d 84 f0 54 bd 99 a4 eb 3d
       -0.13926637 0.09454678 -0.051987186 0.11506004
0000b0 ff 69 ad bd 1d 58 d4 bd 6f 82 d7 bc b1 ec fa bd
       -0.08467483 -0.10368369 -0.026307313 -0.122521766
0000c0 bf 32 2b bd c5 be 57 3c 47 2a 06 3d 25 3b 18 3e
       -0.041796442 0.013168042 0.032755163 0.14866312
0000d0 c2 98 a0 3d 37 8b 83 bd f0 6c fc 3c d1 7d 63 3c
       0.07841636 -0.064230375 0.030813664 0.013884977
0000e0 7d 6f 7d bd f0 de 05 be 24 be 96 bd 61 13 83 3d
       -0.0618739 -0.13073325 -0.07360485 0.064001806
0000f0 74 10 cf 3d ac ca 4c bc 61 99 ed 3d 2c ad 4d ba
       0.1011056 -0.012499493 0.1160152 -0.0007845934
000100 66 52 ac 3d 5e ba b7 bd 95 0e 0f 3e 85 fc 25 bd
       0.08414154 -0.089710936 0.13970406 -0.040524025
000110 2b 9d ff 3d a4 41 c6 3c aa 85 b3 3b 60 2d 97 3d
       0.12481149 0.024201222 0.0054785805 0.073817015
000120 0e ab c9 bd 79 8f 09 bd ef 4c be bd 8b a7 b4 3d
       -0.09847079 -0.03358409 -0.09292018 0.08821019
000130 72 9b f6 bc 32 73 cb bb d2 40 0c bc d6 00 fc 3c
       -0.030103419 -0.0062088007 -0.008560376 0.030762117
000140 4b 4c 2e 3e 5b 30 5b 3d 2b ec c4 3d b4 59 2b 3e
       0.17021291 0.053512912 0.09615358 0.16733438
000150 59 09 11 bc b4 44 b6 3c 09 69 0c bc 50 b6 10 be
       -0.008852326 0.022249557 -0.008569964 -0.14132047
000160 ce 1c 2a ba d4 04 fe bd 84 5a bf bb 7d 00 5d 3c
       -0.00064892776 -0.12403265 -0.0058396477 0.013488886
000170 26 a3 8a bd 4e fe fc 3c 28 7c 66 bd f1 9f e3 bd
       -0.06769399 0.03088298 -0.05627075 -0.11114491
000180 5a aa ca 3c e9 4d 6e 3d 31 1c d9 bd 4a 7e ef bc
       0.024739433 0.05817977 -0.1060108 -0.029235024
000190 db 05 d0 3d 80 27 2a bd 02 84 fe 3d 8b 8f 87 3d
       0.10157367 -0.041541576 0.12427522 0.066191755
0001a0 33 b6 82 bd 0c 1f a8 3d e3 13 8e bc be 15 62 3e
       -0.06382408 0.08209047 -0.017343467 0.22078606
0001b0 94 92 ba bd 9b 76 88 bd b8 85 e5 bd e7 b0 ff bd
       -0.09109989 -0.06663247 -0.112071455 -0.12484913
0001c0 92 7a 50 bd 1d 95 9c 3d 59 c8 6f bc fb ca 2c 3d
       -0.050898142 0.076456286 -0.014635169 0.042185765
0001d0 cf 6a d9 bd c6 f8 79 3d 68 be ac bc b5 fc 76 bd
       -0.10616075 0.061028264 -0.021086887 -0.060299594
0001e0 c7 67 43 bb 23 01 a3 3d ad d8 0e 3b b3 a5 bd 3d
       -0.0029816495 0.07959201 0.002179663 0.0926012
0001f0 60 18 8b 3d ea f3 02 be 62 b3 9b bd 2d 05 53 bd
       0.067917585 -0.12788358 -0.07602574 -0.051518608
000200 ed e0 3d bd 16 6d d4 3d 4f 69 8a bd 53 74 53 bd
       -0.046357084 0.10372369 -0.06758367 -0.051624607
000210 60 c4 4b bc a4 31 89 3b 45 4e 34 3d 8d 02 62 bd
       -0.012436956 0.004186826 0.044019956 -0.055178214
000220 ba 1b c3 3d 52 42 bd 3d 06 da 01 3e 71 1d 0d 3c
       0.09526773 0.09241165 0.12680826 0.008612976
000230 ce 4e 25 be 11 0e b2 bd b0 3c 1b 3e f4 92 9d 3d
       -0.16143343 -0.08694089 0.15159869 0.07694045
000240 95 5c 5b 3d a8 5d 0c be 52 5d 47 3d f1 64 70 bd
       0.05355509 -0.13707602 0.04867298 -0.058690015
000250 9f 31 56 bd ed b9 2f bd 00 b1 53 3c 90 85 8a bd
       -0.052293416 -0.042901922 0.012920618 -0.06763756
000260 ec 03 a5 bd 28 e6 0e be eb 5d aa 3c 4e e4 e4 bd
       -0.08057389 -0.13954985 0.020796737 -0.11176358
000270 e4 0d c6 bd ef 5c dc bd 3c 25 21 be fe af 11 be
       -0.09670618 -0.10759913 -0.1573686 -0.14227292
000280 f5 e5 9c bd d5 b8 4c be bf 4b a5 3d 01 0c 9b bd
       -0.07661048 -0.19992383 0.08071088 -0.07570649
000290 ab 90 fc 3d d5 25 e0 3d ba 6b b8 3d c3 9c 7b 3d
       0.12332281 0.10944716 0.09004922 0.061428796
0002a0 0a 75 04 3d 8c 08 10 bc 70 09 ca 3b 97 e7 15 3d
       0.03233818 -0.0087911 0.006165676 0.036597814
0002b0 6f 26 d3 3b 3f fa 77 bd 57 08 08 bd 90 fc a8 bd
       0.0064437906 -0.060541388 -0.03321108 -0.082512975
0002c0 76 ce 88 3d eb 43 24 bd 71 90 5c 3d a1 2e db 3d
       0.06680004 -0.040103834 0.053848688 0.10702253
0002d0 33 5f 4b bc b2 3d 38 bc 9a 3b aa bc 0d 96 62 bd
       -0.012412834 -0.011245178 -0.020780373 -0.05531888
0002e0 1b c6 49 3d ea f9 0d bc 17 66 c6 3d 10 56 94 bd
       0.049261194 -0.008665541 0.09687441 -0.072429776
0002f0 09 e9 f7 bc 17 be 1c be d7 6c 69 3d 20 9f 8c bc
       -0.030262487 -0.15306889 0.056988563 -0.01716572
000300 c1 30 9d 3c 4e 5e cc bd e2 ab ce bd c0 69 08 3d
       0.019188287 -0.09978925 -0.10091378 0.033303976
000310 dd 31 14 bd 67 0a 72 3b 69 61 78 bd 15 0e 32 3e
       -0.036180366 0.003693247 -0.060639773 0.17388184
000320 ab e3 1f 3e a1 2e 7b 3d 99 8c b2 3d 86 72 40 bd
       0.15614192 0.061323766 0.08718223 -0.046984218
000330 9d 3a c7 3d 8e f8 3a 3e 30 0e 8b 3a 6e cd c5 3d
       0.097279765 0.18258879 0.0010609087 0.09658323
000340 69 8c cc bd a1 2d 54 3c 59 8a cf 3d 0d 60 8f 3d
       -0.099877186 0.012950332 0.101338096 0.07000742
000350 cf a1 b6 bd eb ae 07 3c 06 2b 0c 3e 0a 39 d6 bc
       -0.08917581 0.00828145 0.13688287 -0.026150245
000360 a4 e6 eb bd 7b 7d dd bc 80 f4 f6 bd 8c 66 85 bd
       -0.115186006 -0.027037373 -0.120583534 -0.065137
000370 18 58 d2 3d 0c 10 b8 3d 83 7c 28 bd 53 6e 2f 3d
       0.10270709 0.08987436 -0.04113437 0.042829823
000380 a0 1c b7 3d a6 e0 97 bc 91 c6 3e 3e 77 9c 2c 3d
       0.08941007 -0.018539738 0.18630435 0.042141404
000390 f3 d4 34 3d 91 f8 42 bd f8 c7 d0 3d 39 0e c7 3d
       0.044148397 -0.047600333 0.10194391 0.0971951
0003a0 bf 77 1f 3c 0a 6c 0c bd 5d f0 e3 bd 2f 45 50 bd
       0.00973314 -0.03428272 -0.1112983 -0.05084723
0003b0 36 02 31 bd 9a 18 be bd 22 59 c1 3d 6d cd 20 3d
       -0.043215 -0.09282036 0.09440829 0.03925841
0003c0 6f 8e b9 bd ee d4 73 3b ae 42 17 bd 2c 3c 26 3d
       -0.0906037 0.0037205773 -0.036928825 0.040584728
0003d0 f5 5a 8d bc 70 c9 76 3d 1b e5 df bc 82 d6 cc 3c
       -0.017255286 0.0602507 -0.027330926 0.025004629
0003e0 89 ad 01 3d ad bd 67 bd 07 b4 e2 3c 08 6e 00 3e
       0.031659637 -0.056577373 0.027673734 0.12541974
0003f0 3f 41 38 3c c3 43 54 3c c9 ac 7b bc aa dc 19 3e
       0.011246025 0.012955609 -0.015361019 0.15025583

cnn.4.bias f4 [32]
000000 9b cc 24 b6 d7 2a c1 35 70 f0 38 37 ba 6d 0c b7
       -2.4557e-06 1.4392089e-06 1.1023236e-05 -8.370198e-06
000010 37 ba 3c b5 7f 10 1d 37 8b 68 64 37 a9 21 ee 36
       -7.0306436e-07 9.36177e-06 1.36142e-05 7.0968713e-06
000020 25 7a 33 b8 a1 48 40 b7 89 74 8e b6 ff 27 55 b6
       -4.279068e-05 -1.1461002e-05 -4.2454963e-06 -3.1762754e-06
000030 94 69 84 b6 7f e0 17 b7 8a a1 49 36 b2 c9 36 b7
       -3.9461975e-06 -9.052571e-06 3.0045362e-06 -1.0895006e-05
000040 f1 f2 66 b7 3f 78 11 35 c6 34 f5 b6 40 97 c2 36
       -1.37656325e-05 5.419169e-07 -7.3077126e-06 5.7992584e-06
000050 af b2 d8 b7 06 af 41 b7 43 af 46 b6 99 dc 4e b6
       -2.5832413e-05 -1.1544447e-05 -2.9606315e-06 -3.0824797e-06
000060 bc 13 33 37 d1 9d 94 b7 1e 6b bf b6 ef 91 85 36
       1.0673826e-05 -1.7716464e-05 -5.7047137e-06 3.980698e-06
000070 a7 e7 9f 34 3a 78 76 37 71 18 81 37 7b b9 b2 b7
       2.9784607e-07 1.4690735e-05 1.538938e-05 -2.1305625e-05

cnn.5.weight f4 [32]
000000 10 31 77 3f 65 57 72 3f 96 30 78 3f 14 1c 56 3f
       0.9655924 0.94664603 0.96949136 0.83636594
000010 9f c7 72 3f c6 d8 67 3f b6 af 6a 3f f7 bb 78 3f
       0.9483585 0.90565145 0.91674364 0.9716181
000020 82 4c 72 3f 24 4b 72 3f 8b 36 78 3f 3b a1 68 3f
       0.9464799 0.94645905 0.96958226 0.9087102
000030 49 d5 7b 3f 5f 25 6d 3f f8 37 73 3f 73 a4 67 3f
       0.9837232 0.9263515 0.95007277 0.90485305
000040 ed b4 77 3f d1 a8 74 3f e3 36 5f 3f b1 59 6b 3f
       0.96760446 0.95570093 0.87193125 0.91933733
000050 30 c5 63 3f 4e ad 6f 3f 7c bc 55 3f 64 5a 71 3f
       0.8897276 0.93623817 0.8349073 0.9427855
000060 5c f0 76 3f d8 cb 73 3f f0 45 55 3f ce 30 63 3f
       0.9646051 0.95232916 0.8330984 0.88746345
000070 d7 16 6e 3f e9 f3 61 3f ec 04 62 3f 9e 99 5c 3f
       0.930036 0.882628 0.8828876 0.861719

cnn.5.bias f4 [32]
000000 95 aa 20 bd 94 6f 94 bd f9 d0 ed bc f8 a1 9e bd
       -0.03922518 -0.07247844 -0.02903031 -0.07745737
000010 3a a3 99 bc 7b 66 05 bd 58 8f 32 bd 49 53 89 bc
       -0.01875459 -0.032568436 -0.043593735 -0.016763346
000020 7f ef 1e bd 13 f1 36 bd 4d c3 1e bd a7 92 2f bc
       -0.03880262 -0.0446635 -0.038760472 -0.010716117
000030 3b 12 3c bd 66 cc 12 bd 32 cc d0 bc 19 bc b8 bd
       -0.045915823 -0.03583946 -0.025487993 -0.09020252
000040 9a 2a b9 bc 73 bd 30 bd 83 6b a0 bd 72 31 98 bb
       -0.022603322 -0.043149423 -0.07833006 -0.004644566
000050 86 d9 a1 bd 66 87 14 bd b0 66 a4 bd 5d fc 8e bd
       -0.079028174 -0.03626194 -0.080273986 -0.06981728
000060 4c 7f b7 bc 7c 24 a3 39 0f cc 69 bc f4 81 08 bd
       -0.022399567 0.00031116966 -0.014269843 -0.033327058
000070 20 a5 0a bd 90 4f 1a bd 76 bc 89 bc cc 96 05 be
       -0.03384888 -0.037673533 -0.016813498 -0.13045806

cnn.5.running_mean f4 [32]
000000 4e 1e a7 3e 65 4d 37 3e 6f e9 c7 3d af a0 99 be
       0.32640308 0.17900617 0.09761321 -0.30005404
000010 06 07 b0 3e b6 d0 a2 3e 84 22 60 bd fe c9 fc bd
       0.34380358 0.3179986 -0.054720417 -0.123432145
000020 67 cb da 3e 73 c6 68 3e 79 54 99 3e 78 b9 8c 3d
       0.4273331 0.22731952 0.2994726 0.06871313
000030 2c d0 31 be f6 9b ab bd e0 8e 8f 3e 68 35 58 3e
       -0.17364568 -0.083793566 0.28038692 0.21114123
000040 83 c3 30 3e dc 72 74 bd 2a 95 67 be 0b ca 0b be
       0.17262082 -0.05967985 -0.22615495 -0.13651292
000050 c5 27 a9 3e dc ad 3e bc 3b e0 4d bd b3 60 18 be
       0.33038154 -0.011638131 -0.05026267 -0.14880638
000060 bc dd 0e be da b9 be bd 8a 24 0d be 4e ab b5 bd
       -0.13951772 -0.09312792 -0.1378347 -0.088705644
000070 db 33 e6 3d dd 6f 49 bd 5a a4 6d be a3 bd 61 3e
       0.112403594 -0.049178947 -0.23207226 0.22044997

cnn.5.running_var f4 [32]
000000 92 b8 ac 3e af 8a c9 3e 04 84 39 3e 47 08 f7 3d
       0.33734566 0.3936362 0.18116766 0.12062126
000010 9c 74 33 3e c8 a7 5c 3d b5 e8 20 3e cf 84 52 3e
       0.17524952 0.053870946 0.1571377 0.20558475
000020 dc 00 4b 3e dd 64 83 3e 18 55 0b 3e 73 c2 7e 3d
       0.19824547 0.2566289 0.1360668 0.06219716
000030 29 9f e2 3d 89 5d 00 3e 3b ae 3f 3e e6 02 61 3d
       0.11065514 0.12535681 0.18718807 0.054934405
000040 eb 76 9a 3e 9d db d5 3d 88 ee 40 3e 68 76 36 3e
       0.30168852 0.104422785 0.18840992 0.17818606
000050 79 46 e0 3d 54 8d 29 3e 0d 0a 84 3d da a7 10 3e
       0.109509416 0.16557819 0.064472295 0.1412653
000060 96 d1 b6 3d 8f 79 bd 3d 89 4b 45 3e 96 ca 2e 3e
       0.08926694 0.09251701 0.19267096 0.17069468
000070 3f 31 c9 3d fc ae 97 3d e8 8b 21 3e 48 f9 15 3e
       0.09823846 0.074064225 0.15776026 0.14645875

fc_hidden.0.weight f4 [64, 224]
000000 65 6a a2 3c 34 42 8e 3c 3b 01 ed bb 99 6d 33 bc
       0.019826123 0.017365552 -0.0072328127 -0.010951423
000010 1d e3 20 bc 28 97 a6 bd 80 45 f2 3c d0 6f 87 3d
       -0.009819773 -0.081342995 0.029574156 0.066131234
000020 eb 81 e3 3b e3 e1 d6 bc bd 53 d8 3b 02 91 08 3d
       0.0069429777 -0.026230758 0.0066017793 0.033341415
000030 f6 ed 42 3c 67 91 13 bd 3e 21 b6 3b 12 cf 94 bb
       0.011897555 -0.03602734 0.005558162 -0.0045412863
000040 e1 b5 71 3d 3e e5 d9 3b 94 f6 1d 3d f2 ad a2 3c
       0.059011344 0.0066496423 0.038565233 0.019858334
000050 53 c3 96 bd 78 d5 69 bc 1a b2 a3 bb 7f b2 55 bc
       -0.07361474 -0.014272086 -0.0049955966 -0.013043045
000060 54 46 fb bc b5 aa 23 bc 32 50 28 3a bf d2 b9 3c
       -0.030673184 -0.00998943 0.00064206414 0.0226835
000070 06 bd ac 3d c6 fc 41 bd 54 e7 99 bd bf ec b2 3c
       0.08434491 -0.047360204 -0.075148255 0.021841405
000080 f6 56 12 3d 8d d5 4c 3a 55 bc 63 3d 26 10 2b 3c
       0.035727464 0.0007813804 0.05559953 0.010440862
000090 37 6f 00 bd ef 89 24 3d 34 1b 95 bc 26 cc b5 bb
       -0.031356063 0.040170606 -0.018201448 -0.005548018
0000a0 95 aa 9d bb e5 42 85 3b 2e d1 94 3c 4a 93 d3 3c
       -0.0048115947 0.0040668123 0.01816615 0.025827069
0000b0 57 87 ec bc 31 31 bc 3c 60 8d 0c 3d e3 23 eb 3d
       -0.028873129 0.022972675 0.034314513 0.11481454
0000c0 8a 04 e4 3b a4 b7 59 bd 09 58 ce bc b9 a5 ce bc
       0.006958549 -0.05315365 -0.025188463 -0.025225507
0000d0 6d 90 e0 3b 8b 6b 6d bb f7 f5 33 3d 39 b8 f5 3c
       0.0068531544 -0.003622743 0.043935742 0.02999507
0000e0 a0 1d f3 3a df a2 af 3b 34 10 90 bd 36 04 f6 bc
       0.0018548258 0.005359992 -0.070343405 -0.030031305
0000f0 d9 e5 46 3d 1a eb 9d 3d cf c0 ba 3d ad 3c 88 3d
       0.048559044 0.07710858 0.091188066 0.06652198
000100 c2 51 b7 bc d7 5b 97 bd 78 67 ba bc b9 fa 84 3d
       -0.022377852 -0.07390564 -0.022754416 0.06493134
000110 63 09 55 3d eb c5 62 3c 1e 39 7d 3d bf 7e 40 bd
       0.052010905 0.013841133 0.06182205 -0.046995874
000120 24 94 b0 3c 3d 30 b5 3b f3 ff 04 bc 01 94 e4 b8
       0.021555014 0.005529432 -0.008117664 -0.00010899455
000130 9a fa b0 3d 1f b7 e5 3d 70 80 7b bc c9 8d c2 bc
       0.086415485 0.11216568 -0.015350446 -0.023749249
000140 62 94 1a 3d 03 d7 03 bb 13 63 05 bd 89 83 17 3c
       0.037739165 -0.002011717 -0.032565188 0.009247669
000150 bf c4 c0 bc 90 e4 7f 3d 1c e5 3a 3d 56 97 db bc
       -0.023531316 0.062473834 0.045628652 -0.026805561
000160 21 9c 3a bd 4f a8 cf bc b4 6c 8c bd 11 50 a0 bd
       -0.045559052 -0.02534881 -0.06856671 -0.078277715
000170 60 e9 0d bd 6f 3e 5e bc 3e e1 38 3c f7 ab ed bc
       -0.034646392 -0.01356469 0.011284171 -0.029012663
000180 a3 9b 09 bc 4c 87 c3 bc b4 0f 37 bb 59 bf 6f 3c
       -0.008398923 -0.023868226 -0.0027932944 0.014633023
000190 de 26 69 3d 4d d4 6e 3b ce 69 c0 bb 8a 3b 0d 3d
       0.056921832 0.003644246 -0.005871988 0.03448061
0001a0 1f 4c a3 3c e6 75 d7 bc 76 3a cb 3c cc b2 f3 3c
       0.019933758 -0.026301336 0.02480815 0.029748343
0001b0 d8 16 e5 bc 6d 5d 8a 3d c7 8a 85 3d a8 a9 96 3d
       -0.027964994 0.06756101 0.0652061 0.07356578
0001c0 53 2a 4f 3d 5f c1 01 3d 77 96 11 bd b1 26 14 3c
       0.050577473 0.031678554 -0.035543885 0.009042428
0001d0 20 20 3e 3d 09 b3 4b 3d db f1 89 3d e7 e9 2c bd
       0.046417356 0.049731288 0.067355834 -0.042215254
0001e0 14 3a 16 b9 be d5 4b bc fc 72 3b 3d ef 5e 0e 3d
       -0.0001432675 -0.012441097 0.045763955 0.034758504
0001f0 c3 01 98 3c 0f 25 92 bd 86 f6 88 3d a8 2f 62 3b
       0.018555528 -0.071359746 0.066876456 0.0034513269
000200 c9 36 45 bd 62 c9 de bc c3 03 07 3d 91 78 e9 bc
       -0.04814795 -0.027195636 0.03296257 -0.028499873
000210 f3 e5 34 bd 29 11 0f be d6 99 a0 bc 62 46 11 bd
       -0.04416461 -0.1397139 -0.019604605 -0.035467513
000220 42 86 93 3c fe a7 cb bc 17 e6 ba bc bb 99 df bd
       0.018008355 -0.024860378 -0.022814794 -0.10917994
000230 5c 18 bb bc 47 42 68 bd 29 1d 06 3d d8 40 04 3d
       -0.022838764 -0.056703832 0.032742653 0.032288402
000240 07 06 fd 3b e7 31 ad 3c c2 48 08 bd e2 88 a3 bd
       0.007721666 0.02114196 -0.033272512 -0.07985093
000250 09 67 ca 3b cc 38 8d 3d 67 aa 94 3c d4 58 0a 3c
       0.0061768335 0.06895599 0.01814766 0.00844403
000260 10 1d ec 3c d7 1e 00 bd 33 3d 09 3d e2 e5 85 bd
       0.028822452 -0.03127941 0.03350563 -0.06537987
000270 9b 1a d9 3c 28 8f 13 bb ba 82 fa bb e5 c9 05 bd
       0.026501944 -0.0022515748 -0.0076449784 -0.032663245
000280 39 30 69 bc c4 07 7c bd d7 5d db bb 9b 1b 9f 3c
       -0.014232689 -0.061530843 -0.006694536 0.019422343
000290 ab b6 86 3b f3 17 6f bd 57 05 d2 bc dc dc 80 bd
       0.004111131 -0.05837245 -0.025637312 -0.062921256
0002a0 94 a7 c9 bd db 59 70 bc 34 75 0d bd cd 49 11 bd
       -0.09846416 -0.014669861 -0.0345356 -0.035470773
0002b0 ed d2 03 bd 24 70 b7 3c 31 0d 7d bd bf 43 b5 bd
       -0.032183576 0.02239234 -0.06178016 -0.08850812
0002c0 06 21 47 3c 8e 72 08 bd fd db 94 3d b3 c0 89 bd
       0.0121538695 -0.033312373 0.07268522 -0.067262076
0002d0 5e d9 ee bc c7 5a ad bc da 86 23 bd f5 b2 ad 3c
       -0.029156383 -0.02116145 -0.039923526 0.021203497
0002e0 08 59 a3 3d a7 cb a6 bc 2b 27 5e 3d 92 de cc 3c
       0.07975966 -0.02036078 0.054236572 0.025008474
0002f0 a0 43 3d bd ad 06 34 3d 55 b0 d4 3d b3 43 08 3b
       -0.04620707 0.04395168 0.10385195 0.0020792305
000300 96 d0 53 bd a7 39 32 b9 63 64 bd 3d a2 c9 51 3c
       -0.051712595 -0.0001699688 0.09247663 0.012804421
000310 3f 13 fe 3c 7d cf 85 bc 7b 67 1d bd 61 7a cd bc
       0.031015037 -0.01633429 -0.038428765 -0.025082769
000320 ac b1 99 3c 85 bc 02 bd 3c c7 30 bd 07 02 7a 3d
       0.018761478 -0.031918067 -0.043158755 0.06103709
000330 2c 07 19 3c 84 67 7d bc 16 d9 68 3d 3c 1d 8b 3c
       0.009340089 -0.015466575 0.056847654 0.016981713
000340 f3 cd 97 3c 8e ce 9d 3b c2 d3 bf 3b d5 81 82 bc
       0.018530821 0.004815883 0.005854101 -0.01593105
000350 76 75 48 3d b7 5b 25 3d 90 22 1f bd 00 49 da bc
       0.048940144 0.04037067 -0.03885132 -0.026646137
000360 3f ba 9d 3c 8b 39 02 3c a5 f8 09 bc 0c 00 b6 bd
       0.019253848 0.00794829 -0.008421098 -0.08886728
000370 d3 66 94 3d 85 c0 97 bd 7e ae 05 bd c5 7b 84 3b
       0.07246175 -0.07409767 -0.03263711 0.004043075
000380 c3 57 91 bb fc f4 29 bd 3f 8b e6 3c a3 93 c3 3c
       -0.004435511 -0.0414934 0.02814257 0.02387411
000390 26 66 7f 3d 80 bd 9c bc 7e 4a f6 bc ce 4d 43 bd
       0.062353276 -0.01913333 -0.030064818 -0.047681622
0003a0 15 a2 06 bd 9f 9a 09 bd 5c 6f 8f 3d c7 ed bf 3d
       -0.032869417 -0.033594724 0.07003662 0.09371524
0003b0 75 1f 26 3d 09 e1 36 3d 07 70 33 3d c7 4c 1d 3c
       0.040557344 0.044648204 0.04380801 0.009600825
0003c0 0d d0 b5 bc 04 0d 21 bc 63 e8 3b bd 64 a3 6d 3d
       -0.022193933 -0.009829763 -0.045875918 0.05801715
0003d0 dd 0b 07 3d 12 73 76 3c c7 28 08 bc 34 9a 12 3d
       0.032970298 0.015042083 -0.008310503 0.03579159
0003e0 ca 60 67 3b 32 73 25 3d ed ad 7c 3c fe 78 61 bd
       0.0035305494 0.040393062 0.0154223265 -0.055047028
0003f0 cb 19 66 bd 47 f8 09 3d 5f e8 c5 bc fa 50 b1 bd
       -0.05617694 0.03368404 -0.024158655 -0.08658023

fc_hidden.0.bias f4 [64]
000000 8b 61 4e b6 36 af e6 34 88 b1 8b 36 6c 61 02 b7
       -3.075317e-06 4.296832e-07 4.16319e-06 -7.771287e-06
000010 8a 08 d3 b3 db a3 48 32 e4 68 a5 b5 54 d3 1a b6
       -9.8270064e-08 1.1678789e-08 -1.2323985e-06 -2.3070797e-06
000020 ed b2 e1 b4 a7 db 1a 35 7b d8 63 34 d8 b1 16 b5
       -4.2039701e-07 5.7689107e-07 2.1219778e-07 -5.613815e-07
000030 4d 43 87 b6 af 34 25 b6 0b 69 f2 35 09 7c 11 36
       -4.0311484e-06 -2.4617582e-06 1.8060977e-06 2.1678882e-06
000040 d1 d0 c9 b6 eb 2b 29 b5 54 0c da 35 30 4d 94 b5
       -6.0145762e-06 -6.3021315e-07 1.6245854e-06 -1.1049324e-06
000050 71 5d 0e 36 ed 2e 18 36 bf ce 0a b6 c9 d1 d9 35
       2.121404e-06 2.267708e-06 -2.0683945e-06 1.6228815e-06
000060 32 33 09 34 08 4d 39 b4 fb 13 14 33 11 25 46 b5
       1.2777744e-07 -1.7257491e-07 3.4477107e-08 -7.3814687e-07
000070 ac fa fc 34 84 d6 e3 b5 1d fd 0a 35 e7 84 ec b4
       4.7121046e-07 -1.697525e-06 5.1777334e-07 -4.4055125e-07
000080 bc ba 38 36 b4 76 72 b5 0f 55 af 35 23 c2 8b b5
       2.752683e-06 -9.032476e-07 1.3063271e-06 -1.0412808e-06
000090 08 49 28 b6 92 0b 44 b5 91 02 a7 b5 53 c9 95 35
       -2.507646e-06 -7.3032527e-07 -1.2443217e-06 1.1159958e-06
0000a0 d1 94 e5 36 55 32 96 33 74 58 a5 b3 3c 59 0a 37
       6.8420563e-06 6.994075e-08 -7.699501e-08 8.2462175e-06
0000b0 37 8c 2f b6 28 f7 ca b6 1b 39 69 36 36 dd 90 34
       -2.6158648e-06 -6.048842e-06 3.4752945e-06 2.6983042e-07
0000c0 d9 ca 90 35 28 30 9c 34 5f 47 b1 b3 1f da d2 35
       1.0787872e-06 2.9092303e-07 -8.255187e-08 1.5709701e-06
0000d0 c6 4f 53 37 dc da 50 36 8a 50 2a 35 ee fc 1c b5
       1.2595154e-05 3.1121808e-06 6.3447135e-07 -5.848259e-07
0000e0 16 18 4f b4 0d f7 2b b6 eb f3 c6 35 7e e9 d4 35
       -1.928714e-07 -2.5624788e-06 1.4823139e-06 1.5863186e-06
0000f0 6e 8b 95 b5 15 03 d8 b5 6b 26 82 b6 6f a3 11 b6
       -1.1141944e-06 -1.6094151e-06 -3.8787744e-06 -2.1701815e-06

fc_hidden.1.weight f4 [64]
000000 fa ff 5f 3f 73 a0 5b 3f 46 a8 64 3f 05 9b 61 3f
       0.87499964 0.857917 0.89319265 0.88127166
000010 e7 37 72 3f bc 90 72 3f fd 08 6c 3f e0 49 6a 3f
       0.9461655 0.947521 0.92201215 0.91518974
000020 7d 64 6a 3f 8a 54 61 3f ca 0e 65 3f 04 4a 61 3f
       0.9155958 0.8801962 0.8947569 0.88003564
000030 98 bb 69 3f 6f 2d 6d 3f a7 86 5f 3f 05 4f 6f 3f
       0.9130187 0.9264745 0.8731484 0.9347995
000040 f6 8c 66 3f 00 a5 67 3f 89 9c 6d 3f 36 32 72 3f
       0.9005884 0.90486145 0.9281698 0.94607866
000050 8f ac 6b 3f d1 5d 5c 3f 38 f7 6e 3f 02 37 67 3f
       0.9206018 0.8608065 0.93345976 0.9031831
000060 82 b1 6d 3f c8 c1 61 3f ea 36 5c 3f b7 7e 55 3f
       0.9284898 0.8818631 0.8602129 0.83396477
000070 7d 6f 62 3f ab f2 71 3f 97 90 6d 3f 7d bc 76 3f
       0.8845137 0.94510907 0.9279875 0.9638136
000080 db aa 55 3f e3 29 4e 3f d1 7e 63 3f 98 96 5f 3f
       0.8346383 0.80532664 0.8886538 0.8733916
000090 a4 95 5e 3f fa 41 6b 3f 56 8c 5e 3f e9 65 78 3f
       0.86947083 0.9189755 0.86932886 0.970305
0000a0 df f4 5c 3f e9 fe 54 3f 30 b8 6f 3f c6 c6 6f 3f
       0.86311144 0.8320146 0.9364042 0.9366268
0000b0 d5 c0 68 3f c6 e2 70 3f df 22 63 3f 11 15 5e 3f
       0.9091924 0.9409603 0.88725084 0.86750895
0000c0 f0 8d 69 3f ce bf 70 3f c3 22 60 3f 61 ab 66 3f
       0.91232204 0.9404267 0.8755304 0.90105253
0000d0 eb 64 6a 3f 92 e3 63 3f 30 5a 63 3f 14 9b 73 3f
       0.9156024 0.8901912 0.8880949 0.95158505
0000e0 93 75 6a 3f ec 02 72 3f 67 09 62 3f fd d3 76 3f
       0.91585654 0.9453571 0.88295597 0.9641722
0000f0 d7 1d 50 3f d2 9f 64 3f ae 5b 67 3f f4 10 69 3f
       0.8129553 0.89306366 0.9037427 0.91041493

fc_hidden.1.bias f4 [64]
000000 d2 a2 4e 3a 62 78 81 bc 7c 55 3b bd a5 62 09 bc
       0.00078825385 -0.015804473 -0.04573582 -0.008385335
000010 41 d9 e8 3c 8c 90 22 3c 16 6a 35 3d 7e f6 82 bc
       0.028423907 0.009922158 0.044290625 -0.015986677
000020 3c 6d 67 bc 8b 23 1c ba 36 50 54 3c 6c 31 01 bd
       -0.014125165 -0.0005956224 0.012958577 -0.031541273
000030 00 96 e6 3c 24 aa 58 3c 6f 2c ee 3c b1 41 07 3d
       0.028147697 0.013224158 0.029073922 0.033021633
000040 ff 13 84 bc fb 72 18 bd d6 59 70 b8 9d 73 f7 3c
       -0.016122816 -0.03721903 -5.7304125e-05 0.030206496
000050 6d 45 94 3c 2f 64 1e bc 93 27 f4 3c 10 2e 73 bc
       0.018099511 -0.00966744 0.029804027 -0.014842525
000060 92 25 a3 3c 2f 5c dc bc 29 4c 45 bd 9c f7 c9 bc
       0.019915376 -0.026899425 -0.048168335 -0.024654202
000070 33 69 12 bd 4e cf 32 3c 9d 97 68 3d 8a 38 5b 3d
       -0.035744857 0.010913683 0.056785215 0.053520717
000080 a2 cd 4c bd 97 11 76 bd ea fe 99 ba 9e c3 28 bc
       -0.050000794 -0.06007537 -0.0011748944 -0.010300545
000090 72 1f 28 bb cb 67 33 bd e9 52 37 bd 2a 37 18 3d
       -0.0025653508 -0.043800157 -0.044756804 0.037161984
0000a0 e5 44 32 bc c9 1b 70 bd 32 6b f1 3b 40 63 59 3d
       -0.010880684 -0.058620248 0.007367515 0.053073168
0000b0 7a 9b db bc ab b5 84 3c e1 88 28 bc 1e 44 fb ba
       -0.026807535 0.016199907 -0.010286541 -0.0019170081
0000c0 c6 21 3b 3c 3d 36 fc 3b 62 74 ca bb 27 10 d5 3c
       0.011421626 0.0076968954 -0.0061784247 0.026008679
0000d0 53 c7 8d 3c 43 88 fb bc 0e 24 07 bd 9c 74 65 3b
       0.01730696 -0.030704623 -0.03299337 0.0035012132
0000e0 5d aa e2 bc 53 3e 38 3d 3e 78 c3 bc a8 3b 16 3d
       -0.027669126 0.044981312 -0.023861047 0.036677986
0000f0 54 df 29 bd 63 eb 8c bc d9 14 00 3b 8a 2a 00 3c
       -0.041472748 -0.017202085 0.0019543676 0.007822642

fc_hidden.1.running_mean f4 [64]
000000 52 b7 a0 3d 7f 17 f7 3e 95 8e 00 bf 7b e4 29 3e
       0.078474656 0.48260114 -0.5021756 0.16591065
000010 48 68 47 3e 48 71 69 3e 41 5f 98 be 91 eb 47 3e
       0.19473374 0.2279712 -0.29760173 0.19523455
000020 b2 e3 66 be 42 ab 57 bf 8a 11 c8 bb 9e e4 c9 3c
       -0.22547796 -0.84245694 -0.0061056064 0.024645146
000030 c4 e0 31 3e 2a 64 6c 3e 46 ef 10 be 4f d2 c4 be
       0.17370898 0.23085085 -0.14153776 -0.38441703
000040 c3 d4 f2 bc 4a 1e bc 3d 4e a0 27 3f d2 b1 79 3c
       -0.029642468 0.09185465 0.6547898 0.01524015
000050 e1 93 2b 3f ba fe 57 3f b6 ae 41 3e 0f e9 cb be
       0.6702252 0.84373057 0.18914303 -0.39826247
000060 6c 88 84 3e 30 04 ba 3d 64 ca 47 3f 3c e2 86 3e
       0.25885332 0.0908283 0.780432 0.26344478
000070 50 9d 8f 3d d8 06 1d 3e 5b 5e 41 3f 08 d7 ec 3e
       0.07012427 0.15334642 0.755346 0.46257806
000080 32 2d f0 be 46 1f ab be c7 11 5e 3e 53 46 f7 bd
       -0.4690948 -0.33422297 0.21686469 -0.1207396
000090 b1 71 19 3e 17 01 d8 be b8 33 92 be 7a 61 3f 3f
       0.14984776 -0.4218833 -0.28555083 0.7475811
0000a0 33 39 36 bf 49 76 27 bf 91 62 bc 3e 23 dd 05 bf
       -0.7118103 -0.65414864 0.3679395 -0.5229055
0000b0 52 2f 8e bf e5 49 e4 be 44 c6 b3 bd a5 29 00 bf
       -1.1108191 -0.44587627 -0.087780505 -0.50063545
0000c0 c2 a7 c3 be 26 f6 12 3e 89 04 86 3d 3f 4f 08 3f
       -0.38213927 0.1435171 0.06543834 0.5324592
0000d0 8a 8e 04 bf ed 3b 70 bb d7 23 0b bd 32 d0 94 bd
       -0.5178 -0.0036656812 -0.033969726 -0.072662726
0000e0 55 de 2e 3f fd 0e 80 bd 14 fc 10 be 17 e8 be be
       0.68308 -0.06252859 -0.1415866 -0.37286445
0000f0 36 b3 59 3f dc 1c a2 3b a7 e3 4a be 63 49 9c 3c
       0.8503908 0.004947288 -0.19813405 0.019077962

fc_hidden.1.running_var f4 [64]
000000 45 5c 90 3f be f6 98 3f 7a 70 20 40 9e bb d1 3e
       1.1278158 1.19503 2.506865 0.40963453
000010 c0 74 19 40 f1 2f 05 40 92 4a 1f 3f fa 8e 87 3f
       2.3977509 2.081051 0.6222316 1.0590508
000020 e4 35 b6 3f 42 13 76 3f 03 47 59 3f 46 a3 8d 3f
       1.4235196 0.96123135 0.8487398 1.1065452
000030 f5 b1 95 3f f4 7a c5 3f 0f 9a 01 3f 8d cc b5 3f
       1.1694933 1.5428147 0.506257 1.4203049
000040 0d 8c 1a 40 2b af 12 40 78 66 4b 3f 74 fe 4c 3f
       2.414798 2.2919414 0.7945323 0.80075765
000050 ef 3d 7f 3f da b5 55 3f 63 aa 90 3f ba a2 c7 3f
       0.9970388 0.8348061 1.1301998 1.5596535
000060 3e 7d 38 40 c3 42 d0 3f 10 28 b9 3f 10 f7 30 3f
       2.8826442 1.6270374 1.4465351 0.6912699
000070 2c ca fd 3f a6 7a 14 40 b1 6a ce 3f dd 9b a3 3f
       1.9827323 2.3199859 1.612631 1.2781941
000080 2e 75 18 3f 96 ef 8a 3f 58 bf 48 3f d8 b0 15 3f
       0.595538 1.0854366 0.7841697 0.5847297
000090 d2 26 f0 3e 17 49 c7 3f 7a 7d 94 3f 20 3c 68 3f
       0.46904618 1.556918 1.1600792 0.90716743
0000a0 63 6a 59 3f 67 07 f8 3f 82 42 dd 3e 91 40 6e 3f
       0.8492796 1.9377259 0.43214804 0.9306727
0000b0 22 41 a1 3f 42 00 67 3f 7a 33 fe 3f 6b c4 a2 3f
       1.2598002 0.9023477 1.9859459 1.2716192
0000c0 c1 86 15 40 eb 7c 3a 40 2d 6f 9a 3f e2 2f 8b 3f
       2.3363497 2.9138744 1.2065178 1.0873988
0000d0 60 f9 c3 3f 51 db 14 40 a0 92 a3 3f a0 a9 02 40
       1.5310478 2.325886 1.2779121 2.041603
0000e0 4d 42 ac 3f 8b f2 08 3f f2 25 97 3f 0f 9c c5 3f
       1.3457733 0.5349509 1.1808455 1.543825
0000f0 86 27 15 3f 94 9a dd 3f 5e cb f8 3f 77 58 90 3f
       0.5826343 1.7312799 1.9437063 1.1276997

rnn.weight_ih_l0 f4 [256, 64]
000000 85 ea 13 be 18 39 54 bc 48 a0 a0 bd c0 79 0a be
       -0.14444931 -0.012953065 -0.07843071 -0.13523006
000010 83 eb 4c 3d 9f 1e 93 3b d3 5b 26 be 7d 70 11 be
       0.05002929 0.0044897343 -0.16245966 -0.14203067
000020 a3 16 3e bd 4c 02 8a bc e0 1b 42 bd 42 58 c9 bd
       -0.046408307 -0.016846798 -0.047389865 -0.09831287
000030 9e fe 8f bd 73 07 a2 3c d8 62 12 be 07 15 bb 3d
       -0.07030986 0.019778943 -0.14295518 0.0913487
000040 fe c6 59 bc 4c 01 c5 bd a7 13 82 3c 55 59 02 be
       -0.013292072 -0.09619388 0.015878512 -0.1272939
000050 32 27 a2 bd e5 be b6 bd 6a 28 9e bd d8 83 f0 bd
       -0.07917632 -0.08923129 -0.07722552 -0.11743897
000060 be 29 0c 3d d9 cd 2d be 44 79 3a 3d 14 ec af bc
       0.034219496 -0.16973056 0.045525804 -0.021474876
000070 90 98 b7 bd ba a1 39 bd af b1 75 3c ec e6 44 3c
       -0.08964646 -0.04532025 0.014995976 0.012017947
000080 40 82 34 bd 71 90 d2 bc 4a 22 15 be 5f a8 c8 bc
       -0.04406953 -0.02570364 -0.14563861 -0.024494348
000090 5e 3e 5d bd c0 41 46 bd 72 4d ef bd f4 e7 8b bd
       -0.054014556 -0.048402548 -0.116846934 -0.06831351
0000a0 51 ea 10 be d9 03 06 3c 80 3e 06 be 90 13 3f be
       -0.14151885 0.008179628 -0.1310978 -0.18659806
0000b0 72 fe c7 bc 18 31 f8 bd 4f a6 5f bd 57 95 01 be
       -0.024413321 -0.12118739 -0.054601964 -0.12654625
0000c0 c4 9b ea 3c e9 aa 0a bd 9e cd 17 3c 03 39 b8 bd
       0.028638728 -0.0338544 0.009265332 -0.08995249
0000d0 c2 94 29 be a6 56 61 bd 31 3a a5 3c cf 81 0d 3d
       -0.16560653 -0.055014275 0.02016935 0.034547623
0000e0 e6 37 79 bd 61 86 58 bd a1 43 ac bd 1c b7 db 3b
       -0.060844325 -0.05286253 -0.08411337 0.006705178
0000f0 2b 75 0a be 92 3f a6 bc 22 b4 41 3d 10 07 4b bc
       -0.13521259 -0.020293985 0.04729093 -0.012391821
000100 9a 8c 44 bc 45 11 c0 3b 4f 00 79 3a b3 d0 85 bc
       -0.011996413 0.0058614337 0.0009498642 -0.016334867
000110 7e 20 e0 ba ad 99 f7 bc 32 2d 19 bd 2c 06 42 bc
       -0.0017099527 -0.030224646 -0.037396617 -0.011842292
000120 ee ae e1 bc 5a 9a cb 3a 7d 4f 6f bd db e8 e6 bc
       -0.027549233 0.0015533671 -0.058425415 -0.028187206
000130 e5 d9 50 bd 61 49 46 bd 64 3e 24 3c 88 ed 6c bc
       -0.05098905 -0.048409823 0.010024641 -0.014460929
000140 7b 97 fa bc 14 ac 01 bd c3 2f e5 bc a9 98 32 bd
       -0.03058981 -0.031658247 -0.027976876 -0.04360262
000150 d3 38 1e 3b 85 cb 11 3c 1b 75 8a bd 65 ec 95 bc
       0.0024142757 0.0088986205 -0.06760617 -0.018301198
000160 4c 2f 61 bd 86 dd b2 bc 8f 6f b4 bc b8 38 31 bd
       -0.054976746 -0.021834146 -0.022025852 -0.04326698
000170 54 a4 11 bd e6 41 79 bd e3 3a 2b bd a8 f1 a2 bc
       -0.035557106 -0.06085386 -0.041804206 -0.019890621
000180 0d 52 d1 ba 2f 95 b0 3c bc 8c 94 3c 2b 4a 15 bd
       -0.0015969888 0.021555511 0.018133514 -0.036447685
000190 08 73 ca bb 43 8a 74 bd ff de 05 bd b8 b2 76 bd
       -0.0061782636 -0.05970217 -0.03268337 -0.060229033
0001a0 3c 9e 99 bc 31 df 8c bb a6 d8 81 3c 87 17 0c bd
       -0.01875221 -0.0042990674 0.015850376 -0.034202125
0001b0 92 bb 8b bd 94 73 bc bb 25 bd 1e bc d4 dc 0c bd
       -0.068228856 -0.0057510827 -0.00968865 -0.034390286
0001c0 0b 2b 28 bd 77 a4 eb bb 45 7b 8b bc a5 d2 a5 bc
       -0.041056674 -0.0071912366 -0.017026553 -0.020242045
0001d0 44 da a6 bb 27 7a b6 bb d3 e9 17 bd dc f7 91 bc
       -0.0050919373 -0.005568761 -0.037088227 -0.017818384
0001e0 1f 5c 5b bd a3 60 0d bc 32 76 8d 3c 76 c8 a5 bc
       -0.05355465 -0.008628997 0.017268274 -0.020237189
0001f0 77 9e db 3b 05 a0 88 bb 64 4a 8d bc 3e 81 2f bd
       0.00670224 -0.0041694664 -0.017247386 -0.042847864
000200 0c 79 ee bd d7 d7 25 bc ed de 4c bc ef 8f 0e 3d
       -0.116441816 -0.010122261 -0.0125043215 0.034805235
000210 ce 67 84 bd f2 0d dc bd 5a 4a d4 bd 95 cf 77 bc
       -0.06465112 -0.10744847 -0.10365744 -0.015125175
000220 b7 73 a6 bd aa 6f cd 3c 6f e3 5e bd c2 96 a0 bd
       -0.081275396 0.02507766 -0.054416116 -0.07841255
000230 ba 43 03 3d 28 5c b9 bc cb 1f 88 3c 99 0b d6 bd
       0.03204701 -0.022626951 0.016616723 -0.10451431
000240 33 fa 96 bd 12 1d e6 bd 88 3f cf 3c 6c 1a 7a bd
       -0.073719405 -0.112360135 0.025298849 -0.061060354
000250 92 40 d4 bc b7 d3 51 3d 18 4b b1 bc ce f6 89 bd
       -0.025909696 0.051227298 -0.021642253 -0.067365274
000260 22 14 e1 bd dd b6 7e bd f4 68 91 bd b8 77 48 3c
       -0.10990168 -0.06218611 -0.07100096 0.012235574
000270 38 fe ca 3c 99 63 b4 bd bc 2c 35 bc 71 d1 de bd
       0.024779424 -0.08808059 -0.011058029 -0.108797915
000280 d1 9d 44 bd b3 55 82 bd dc bb c6 bd 4d 5e a8 bc
       -0.048002068 -0.06364002 -0.097038 -0.020552779
000290 33 dc bd bc b1 55 bd bd 08 d0 dd bd 54 07 5f bd
       -0.023176288 -0.0924486 -0.108306944 -0.054450348
0002a0 d7 bb ef bd ea 4a 27 3b b6 59 76 bd cc b0 27 3d
       -0.117057495 0.002552683 -0.06014415 0.04094009
0002b0 17 93 d0 3c 4b 25 c2 bd 24 59 6e bd 6a c4 d1 bd
       0.025460763 -0.09479769 -0.05819048 -0.10242541
0002c0 94 06 bb bd 24 2d c4 bd 61 fe 0c bd 86 d1 45 bb
       -0.09132114 -0.095789224 -0.034422282 -0.00301847
0002d0 d0 b0 cd 3c 5e e7 5a bc d9 00 a9 bd c7 70 2c 3d
       0.025108725 -0.013360826 -0.08252115 0.04209974
0002e0 d7 92 8a bc 3c 16 94 bd 6f a9 0d bd ef 13 19 bc
       -0.016915722 -0.07230803 -0.034585413 -0.009343131
0002f0 c2 11 65 bd cf 94 88 3d e9 7c 8b 3c 8c 2e f2 bd
       -0.05592514 0.06669008 0.017027335 -0.11825284
000300 db 0d 1f bd 4a cb a8 bc 57 95 63 bd 3c 18 52 bd
       -0.038831573 -0.020604748 -0.055562343 -0.051292643
000310 aa a5 b8 bd 84 46 23 bd 85 8a 36 be 3f 19 c8 bc
       -0.09015973 -0.03986217 -0.17826279 -0.0244261
000320 b3 40 d5 bd b9 fc 36 bd b1 2f f8 bd 23 1d 20 bb
       -0.10412731 -0.04467461 -0.121184714 -0.002443143
000330 11 0c c4 bd 75 0e 5e 3a c5 c7 c2 bd a1 7c 02 be
       -0.09572614 0.0008470782 -0.09510759 -0.12742855
000340 49 a4 0f bd 38 2a a5 bd 7f be a6 3c 3c c3 ff bd
       -0.035068784 -0.08064693 0.020354507 -0.1248841
000350 d8 2e 25 be 6a d9 bc bd ab b2 1b be d7 93 72 bd
       -0.1613115 -0.09221156 -0.15204875 -0.059223022
000360 eb e8 42 3d c7 f1 13 3c 54 90 7c bd 04 4c 72 bd
       0.04758541 0.009029812 -0.06166108 -0.059154525
000370 40 fd fd 3c 1e 2d c3 bd 59 82 8c bd 67 1a 90 bc
       0.031004548 -0.0953009 -0.06860799 -0.017590715
000380 e1 52 ed bb ca e0 ca bd cf ce 67 bd c0 1a ae bc
       -0.007242546 -0.09906156 -0.056593712 -0.02125299
000390 0f 5b cf bd 5a 46 b9 bd 8f 89 78 bc e5 8a 4e bd
       -0.1012479 -0.090466216 -0.015169515 -0.05042543
0003a0 b6 a9 82 bd 8a b8 d0 bd 4b 72 18 be 35 a3 0b be
       -0.06380026 -0.10191448 -0.1488735 -0.13636477
0003b0 b8 9f c7 bc 51 60 02 bd 7b c3 db bd 5f 86 8a bd
       -0.024368152 -0.031830136 -0.10730644 -0.067639105
0003c0 93 46 95 bd fb 95 26 bc b4 57 8e bd 66 f5 a6 bc
       -0.072888516 -0.010167594 -0.06950322 -0.020380687
0003d0 72 77 00 be c7 cd 8d bd 0b cd c7 bd 58 d2 4b 3d
       -0.12545565 -0.069240145 -0.09755906 0.049761146
0003e0 53 db 54 3d 2b 3e a2 bd 82 54 8b 3d 77 dd b7 bd
       0.051966976 -0.07922014 0.06803228 -0.08977788
0003f0 8c b6 af bd da 25 f2 bd 2d 8c f3 bc 7c bd 38 bd
       -0.0857974 -0.11823626 -0.029729927 -0.04510258
