model.pth (torch, 67414 bytes, 23 tensors)

cnn.0.weight f4 [16, 10, 3]
0	0xbdeee189	-0.11664111
1	0xba83c2fa	-0.0010052614
2	0xbe230c90	-0.15922761
3	0xbe3a7726	-0.18209514
4	0x3dbde1b7	0.09271567
5	0xbd77dc41	-0.060512785
6	0xbce4b8fb	-0.027920237
7	0x3e05b77f	0.1305828
8	0xbd61cd1d	-0.055127252
9	0xbd546242	-0.05185152
10	0x3d2f3fe9	0.04278556
11	0xbd1a3a6b	-0.037653368
12	0x3dd98cfb	0.10622593
13	0xbcb04dcf	-0.021521477
14	0x3db763e4	0.089545995
15	0xbcf282f1	-0.029603453
16	0xbe26e6a8	-0.16298926
17	0xbe109a06	-0.14121255
18	0xbd82617c	-0.0636625
19	0xbbafca89	-0.0053647202
20	0x3dc6a139	0.096987195
21	0x3d03a1a0	0.03213656
22	0x3d7d3bd7	0.061824646
23	0x3d95d1b4	0.07315388
24	0x3e23a4d4	0.15980846
25	0xbcdc7afb	-0.02691411
26	0x3e2aeb61	0.16691352
27	0xbdc6ba8a	-0.09703548
28	0xbd1af607	-0.037832286
29	0xbd464eca	-0.048414983
30	0x3dd85674	0.105633646
31	0x3d9db276	0.07700054
32	0x3d57e7da	0.052711345
33	0x3da80433	0.08203926
34	0xbc1a514e	-0.009418799
35	0x3d9739ab	0.07384046
36	0x3d8b2a21	0.06795145
37	0x3e2130cf	0.15741275
38	0x3c3ac3b8	0.011399202
39	0x3c87f563	0.016596502
40	0x3e176b73	0.14787082
41	0x3d805730	0.0626663
42	0x3d48667a	0.048925854
43	0xbd9141d8	-0.07092637
44	0xbd5c826a	-0.05383531
45	0x3e0563cc	0.1302635
46	0xbcd26d9e	-0.025687035
47	0x3cf0ee54	0.029410519
48	0xbcff57ff	-0.03116989
49	0x3e1ac22c	0.15113133
50	0x3dab89af	0.083758704
51	0xbde2625c	-0.11053917
52	0xbd4cabad	-0.04996841
53	0xbda340ff	-0.079713814
54	0x3c7947f3	0.015214908
55	0x3d344015	0.044006426
56	0xbd811279	-0.063023515
57	0x3d9367b7	0.071975164
58	0xbd7f99c8	-0.062402517
59	0xbc81be69	-0.015837865
60	0x3d07de27	0.033170845
61	0x3d856401	0.06513215
62	0x3dcc02d0	0.09961474
63	0xbbd18f7b	-0.006395278
64	0x3dd7f6a6	0.10545091
65	0x3d3b631f	0.045748826
66	0x3da38000	0.079833984
67	0x3dc83759	0.09776182
68	0x3d42438f	0.04742771
69	0x3d0fef8b	0.035140555
70	0x3d72575c	0.059165344
71	0x3da9eac4	0.08296731
72	0xbc65fb6c	-0.014036994
73	0xbd58cc80	-0.0529294
74	0xbddb2bf2	-0.10701741
75	0xbda52dce	-0.08065377
76	0x3c9f5b90	0.01945284
77	0xbd161b5f	-0.036647197
78	0x3e505374	0.20344335
79	0x3e27226e	0.16321728
80	0x3cdd343f	0.027002452
81	0x3d40af86	0.047042392
82	0x3d82b222	0.063816324
83	0x3d01b57b	0.031667214
84	0x3c6eb8f1	0.014570461
85	0x3d3e7314	0.046496466
86	0x3d1af9b7	0.037835803
87	0xbc5a97b6	-0.013341835
88	0x3d69e1e1	0.05710018
89	0x3cf580f6	0.02996872
90	0xbd2fded0	-0.0429371
91	0xbce508f4	-0.02795837
92	0xbd4cffbb	-0.05004857
93	0x3cb76d2d	0.022390926
94	0x3da9ff21	0.08300615
95	0x3c8922a5	0.016740153
96	0x3cc0169a	0.023448277
97	0xbd0ba671	-0.034094278
98	0xbd6dfa57	-0.05810007
99	0xbc2cc7fc	-0.010545727
100	0x3dd60874	0.10450831
101	0xbdc42eb9	-0.09579224
102	0xbd561527	-0.052266266
103	0xbd049bf3	-0.032375287
104	0xbd361b74	-0.044459775
105	0x3e8cdb9a	0.27511293
106	0x3b13fb7b	0.0022580314
107	0x3dc2fa32	0.09520377
108	0xbd925a57	-0.07146137
109	0xbbf10da7	-0.007356364
110	0xbe02ec94	-0.1278556
111	0x3d56bb69	0.052424822
112	0x3a92b0e5	0.0011191635
113	0x3cd8902d	0.026435936
114	0xbdaef38e	-0.08542548
115	0xbd1f8523	-0.03894533
116	0xbdbb3284	-0.091404945
117	0x3c2b5a08	0.010458477
118	0x3dd5f370	0.10446823
119	0x3df64c48	0.12026268
120	0xbe148283	-0.14502911
121	0xbd932cf9	-0.07186312
122	0x3da8948f	0.0823146
123	0x3c819637	0.015818698
124	0xbdce51cb	-0.100741945
125	0x3ccc14aa	0.024912197
126	0xbdf834d2	-0.1211945
127	0x3daf0ff3	0.08547964
128	0xbab70de3	-0.001396593
129	0xbd4f0351	-0.050540272
130	0x3c61b05c	0.0137749575
131	0x3da490b1	0.0803541
132	0xbd293740	-0.041312456
133	0x3c99db24	0.018781252
134	0x3dcc4b2a	0.09975274
135	0xbc96af50	-0.018394142
136	0xbe57dcaa	-0.2108027
137	0x3d7ecee9	0.062209044
138	0xbd7ea7f5	-0.062171895
139	0xbe16975d	-0.14706178
140	0x3d81e372	0.0634221
141	0xbd28cf0a	-0.041213073
142	0x3e01a094	0.12658912
143	0xbded6e5f	-0.11593317
144	0x3c365196	0.01112785
145	0xbdb2e499	-0.08735008
146	0x3de30f75	0.110869326
147	0xbc9480dd	-0.018127853
148	0x3e065f0f	0.131222
149	0xbd94c9ad	-0.07265029
150	0x3a059711	0.0005096058
151	0x3da93b2c	0.08263239
152	0xbcddf20c	-0.027092956
153	0xbb2e763b	-0.0026620764
154	0x3d02fed7	0.031981315
155	0x3da9efb2	0.082976714
156	0xbd189044	-0.037246957
157	0x3dbd1ef3	0.09234419
158	0x3d0e6c95	0.03477152
159	0x3d9e2c21	0.07723261
160	0x3c61ac8f	0.013774051
161	0xbc6d4121	-0.01448086
162	0x3d573495	0.05254038
163	0xbd4747ac	-0.048652336
164	0x3bd7877d	0.0065774308
165	0x3d73b3ad	0.059497524
166	0x3dd39e21	0.10332895
167	0x3e3fb4bd	0.1872129
168	0xbbd6a7e2	-0.006550775
169	0xbc91ad19	-0.017782735
170	0xbd20c6ac	-0.03925197
171	0x3ca3b877	0.01998542
172	0xbe19465b	-0.14968245
173	0xbd1ca02a	-0.03823868
174	0xbd8dbd5f	-0.06920885
175	0xbd85447e	-0.065072045
176	0x3d8b4007	0.067993216
177	0xbdcc2c94	-0.0996944
178	0x3e1688da	0.14700642
179	0xbd039a77	-0.03212973
180	0x3c7ddf59	0.015495145
181	0xbd85b9cd	-0.06529579
182	0x3d0f4a7c	0.034983143
183	0xbd20e97b	-0.039285164
184	0x3d94b116	0.07260339
185	0x3dc3511d	0.095369555
186	0x3dd48c2b	0.103782974
187	0x3c15c8ae	0.009142084
188	0xbd2bb516	-0.041920744
189	0x3d5fdbb1	0.054652873
190	0xbce026be	-0.027362224
191	0x3d567f1c	0.052367315
192	0x3d894869	0.06703264
193	0xbdbeef60	-0.09323001
194	0x3d8dbbad	0.06920562
195	0x3dbbc270	0.091679454
196	0x3c78422d	0.015152496
197	0x3e24f81d	0.16110273
198	0xbdf06888	-0.11738688
199	0xbd5236b7	-0.05132171
200	0x3dbd3839	0.09239239
201	0x3dc739c3	0.09727814
202	0x3b75f8a4	0.0037532235
203	0xbdd6025a	-0.10449667
204	0xbdf857a0	-0.12126088
205	0x3ce3fd3d	0.027830714
206	0xbbb28353	-0.005447784
207	0xbd212d5c	-0.0393499
208	0x3e11de96	0.14245066
209	0x3d937486	0.071999595
210	0xbd9c2b57	-0.07625454
211	0xbdd78282	-0.10522939
212	0xbe013ce6	-0.12620887
213	0xbd91198d	-0.070849515
214	0xbd2d668a	-0.042334117
215	0x3e06dba1	0.1316972
216	0x3e06b8be	0.13156411
217	0x3d9ab08b	0.07553204
218	0xbc97cd87	-0.01853062
219	0xbdb2bb1f	-0.08727097
220	0xbd0fa439	-0.035068724
221	0x3df7a319	0.12091655
222	0xbc5911f4	-0.013248909
223	0xbd7a966e	-0.061178617
224	0x3cd70ef9	0.026252257
225	0x3dfe6ab1	0.124226935
226	0x3e0829f0	0.13297248
227	0x3d27f60e	0.04100614
228	0xbe540052	-0.20703247
229	0x3d6f3694	0.05840166
230	0xbd8380f6	-0.06421082
231	0xbdc8df87	-0.098082595
232	0x3d498c07	0.049205806
233	0xbdb2e46b	-0.087349735
234	0x3d836d68	0.06417352
235	0x3cfdb9d5	0.0309724
236	0x38805545	6.119398e-05
237	0x3b80c431	0.003929638
238	0xbd6f72ea	-0.0584592
239	0x3e3ffd5a	0.1874899
240	0xbe2a7846	-0.16647443
241	0xbde2b371	-0.11069382
242	0xbe0dcbcd	-0.13847275
243	0xbd9a7f6c	-0.07543835
244	0xbe023429	-0.1271521
245	0x3ddf29b1	0.10896624
246	0xbce729de	-0.028218206
247	0xbe2f6183	-0.17127042
248	0xbd5271e1	-0.051378135
249	0xbe054b51	-0.13017012
250	0x3db061c1	0.08612395
251	0x3db74a42	0.089497104
252	0x3dc3ced6	0.09560935
253	0xbb50bc2d	-0.0031850443
254	0x3d33d026	0.043899678
255	0xbb41801d	-0.0029525824

cnn.0.bias f4 [16]
0	0x37e12727	2.6840322e-05
1	0xb72a718c	-1.0159227e-05
2	0x394970d3	0.00019210884
3	0x39875d1a	0.00025818573
4	0xb7859d0a	-1.5927963e-05
5	0xb841ed0b	-4.623555e-05
6	0xb85b1ab5	-5.223854e-05
7	0x371b28c6	9.248213e-06
8	0x39b257a7	0.00034016112
9	0xb95b499b	-0.00020912888
10	0xb9918da0	-0.00027762074
11	0x38472de6	4.7488043e-05
12	0xb971330e	-0.0002300257
13	0x35607d02	8.3628413e-07
14	0x38e86b43	0.00011082601
15	0x3932f399	0.0001706615

cnn.1.weight f4 [16]
0	0x3f504279	0.8135143
1	0x3f3a8a20	0.7286701
2	0x3f2cf127	0.6755547
3	0x3f345b23	0.70451564
4	0x3f262ce7	0.64912266
5	0x3f4bd3dc	0.79620147
6	0x3f0c5fe6	0.5483383
7	0x3f6014f8	0.87531996
8	0x3f57d4d6	0.84309137
9	0x3f11b87d	0.5692213
10	0x3f3a3701	0.7274018
11	0x3f3fd181	0.7492905
12	0x3f232b13	0.637376
13	0x3f4974b9	0.7869373
14	0x3f21db69	0.6322542
15	0x3f291698	0.660501

cnn.1.bias f4 [16]
0	0xbcea4eda	-0.028602052
1	0xbc41da3f	-0.011831819
2	0xbdec269d	-0.115308024
3	0x3cadee82	0.021231893
4	0xbd7bcb55	-0.06147321
5	0xbdad1485	-0.084511794
6	0xbdd5ad00	-0.10433388
7	0xbccaac7c	-0.02474045
8	0xbddb4040	-0.10705614
9	0xbe06adc7	-0.13152228
10	0x3c8336ac	0.01601728
11	0xbcf84cf8	-0.030310139
12	0xbc9efa83	-0.019406563
13	0xbad59a95	-0.0016296679
14	0xbe022a2d	-0.12711401
15	0xbdc90373	-0.09815111

cnn.1.running_mean f4 [16]
0	0xbe32d6b3	-0.17464714
1	0x3e8b521a	0.27211076
2	0x3e9c4d94	0.30527937
3	0x3e0ec514	0.13942367
4	0xbe2762fe	-0.16346356
5	0x3e5d0e5c	0.21587509
6	0x3e711635	0.23543628
7	0x3df9890f	0.12184345
8	0xbee81e23	-0.45335492
9	0x3e93381c	0.28753746
10	0xbe830408	-0.25589013
11	0xbeb572c6	-0.35439128
12	0xbeb08072	-0.34472996
13	0x3e1195aa	0.14217249
14	0x3ea8be47	0.3295767
15	0x3da71c40	0.08159685

cnn.1.running_var f4 [16]
0	0x3ba59667	0.0050533297
1	0x3ba2c1d7	0.004966955
2	0x3be63f8d	0.007026619
3	0x3b93dd75	0.0045124837
4	0x3b51a190	0.0031987168
5	0x3bb1855a	0.005417508
6	0x3b7d3a9f	0.0038639677
7	0x3b3243fa	0.0027201162
8	0x3c3041ee	0.010757906
9	0x3b94de70	0.004543118
10	0x3b5a90ba	0.0033350424
11	0x3c32bbad	0.010909003
12	0x3be9fa57	0.0071404385
13	0x3ba2db47	0.0049699876
14	0x3be8a28d	0.0070994557
15	0x3bc7e72b	0.0061005554

cnn.4.weight f4 [32, 16, 3]
0	0xbd273f4c	-0.04083185
1	0xbb03ddae	-0.0020121145
2	0x3d82dbc4	0.06389573
3	0x3c6d814a	0.014496157
4	0x3ce117e5	0.027477214
5	0x3a22e273	0.0006213553
6	0x3dcf865e	0.101330504
7	0x3c8b4692	0.017001424
8	0xbbfe0614	-0.0077521894
9	0x3de314c2	0.110879436
10	0x3d1d8fad	0.038467098
11	0x3d160713	0.03662784
12	0xbd0de709	-0.03464416
13	0x3b8d36da	0.0043095173
14	0x3db1ac41	0.08675433
15	0xbcb7c064	-0.022430606
16	0xbd0af204	-0.03392221
17	0x3d367f85	0.044555206
18	0xbd3533a1	-0.04423869
19	0x3a5274a8	0.00080282474
20	0xbd18bc8b	-0.037289184
21	0x3ddca191	0.10773004
22	0x3d089ccd	0.033352662
23	0xbd802df2	-0.062587634
24	0x3a5fdee8	0.00085399905
25	0x3e30b40d	0.17256184
26	0x3e2b4cd9	0.16728534
27	0xbbdbc052	-0.006706276
28	0x3d021f35	0.031768043
29	0xbd90b2c8	-0.0706535
30	0xbe100da9	-0.14067711
31	0xbdec51ab	-0.115390144
32	0x3db21803	0.08695986
33	0xbe0a2d94	-0.13493949
34	0xbd041c91	-0.032253806
35	0x3deeca06	0.11659627
36	0xbdb36edd	-0.0876138
37	0xbd941699	-0.07230873
38	0xbb455381	-0.0030109587
39	0xbdd4a367	-0.10382729
40	0xbbc7c560	-0.006096527
41	0xbc26ab9b	-0.01017275
42	0x3cd57d0a	0.0260606
43	0xbdad7c2c	-0.084709495
44	0xbbef784c	-0.0073080417
45	0xbce8d670	-0.028422564
46	0x3bf61b07	0.007510546
47	0x3d323b08	0.043513328
48	0x3e1e9277	0.1548556
49	0x3c5b9c73	0.013404
50	0x3d9c469d	0.07630656
51	0xbd4551f6	-0.048173867
52	0xbce632d0	-0.028100401
53	0x3d437c8f	0.04772621
54	0xbac7ef1b	-0.0015253754
55	0x3c3028ee	0.010751946
56	0x3ca91e1c	0.02064424
57	0xbdb2b14b	-0.08725222
58	0xbdb6b194	-0.08920589
59	0xbde22886	-0.110428855
60	0x3d38555b	0.045003276
61	0x3c8609ed	0.016362155
62	0xbbbdb92c	-0.0057898965
63	0xba255db2	-0.0006308212
64	0xbcd03d8b	-0.025419971
65	0xbcf871ba	-0.030327667
66	0xbd0a47d6	-0.033759914
67	0xbc2a2e88	-0.0103870705
68	0xbd3c21c2	-0.04593063
69	0xbde4f06e	-0.11178671
70	0xbe176617	-0.14785038
71	0xbd71b293	-0.059008192
72	0x3c65bd72	0.014022218
73	0x3da32bd6	0.079673454
74	0x3d3a9987	0.04555657
75	0x3c821185	0.015877495
76	0xbc518118	-0.012787126
77	0xbd5f03dc	-0.05444704
78	0x3d028e26	0.031873845
79	0x3c391059	0.0112954015
80	0xbd3a0076	-0.045410596
81	0x3dcb46eb	0.09925636
82	0x3aad92fd	0.0013242658
83	0x3c9b7725	0.018977711
84	0x3d0c3b8e	0.034236483
85	0x3ddd9ec6	0.10821299
86	0x3cff6ed7	0.031180782
87	0x3ce19f1c	0.02754169
88	0xbc1947bb	-0.009355481
89	0xbc50d1b5	-0.012745311
90	0x3c0fad0c	0.008769285
91	0x3c4d3860	0.012525648
92	0x3c21d410	0.00987722
93	0x3b1bbb02	0.0023762588
94	0xbd5c46f6	-0.05377861
95	0xbcfbde90	-0.030745775
96	0x3ba4f053	0.0050335317
97	0xbd91140c	-0.07083902
98	0xbce9536f	-0.028482167
99	0xbd86a2c6	-0.06574015
100	0xbd584d41	-0.05280805
101	0xbc29209f	-0.010322719
102	0x3cb3cc8e	0.021948125
103	0xbc8e9a59	-0.017407583
104	0xbd9cd2bf	-0.07657384
105	0x3d6126b3	0.054968547
106	0xbd399227	-0.045305397
107	0xbd8b77b6	-0.068099424
108	0xbd8ce32f	-0.06879269
109	0xbbb61940	-0.0055572093
110	0xbb83cebf	-0.004022449
111	0xbd543808	-0.051811248
112	0xbdcb710d	-0.09933672
113	0xbda803bb	-0.082038365
114	0xbca549e8	-0.020176843
115	0xbdc49ac5	-0.095998324
116	0xbca55bdd	-0.020185405
117	0xbc038960	-0.008028358
118	0x3d39f728	0.045401722
119	0xbdf23ae9	-0.118276425
120	0x3d19cfad	0.03755157
121	0xbd063639	-0.032766555
122	0x3d7aa9d3	0.061197113
123	0x3db2718e	0.08713065
124	0xbdafc285	-0.085820235
125	0x3b9c899e	0.0047771474
126	0xbd81124f	-0.0630232
127	0x3db5200d	0.08844004
128	0x3c80ea9b	0.015736869
129	0xbd66b383	-0.05632354
130	0xbe28adfc	-0.1647262
131	0x3cc837f7	0.024440749
132	0xbd5e80ef	-0.05432218
133	0xbe106e08	-0.14104474
134	0xbe067745	-0.13131435
135	0xbdc9a325	-0.098455705
136	0xbdbc5d4f	-0.09197485
137	0xbe28ee88	-0.16497242
138	0xbd349135	-0.044083793
139	0xbc8def31	-0.01732597
140	0xbd5feb22	-0.0546676
141	0xbd4e0a62	-0.05030287
142	0x3dcd7d94	0.10033718
143	0x3d587fcd	0.052856255
144	0xbdb937ac	-0.09043822
145	0xbd814fd5	-0.06314055
146	0x3dcfe982	0.1015196
147	0xbcdeee8f	-0.027213363
148	0x3aa8e86e	0.0012886652
149	0xbd58d8b8	-0.052941054
150	0x3bdbef33	0.0067118644
151	0xbe1ca2bf	-0.15296458
152	0xbe00f7e1	-0.12594558
153	0x3e367129	0.17816605
154	0x3d13a4b5	0.03604575
155	0x3da1cb72	0.07900132
156	0x3d388f2c	0.045058414
157	0x3c0e991e	0.008703498
158	0xbc52dbde	-0.012869803
159	0x3dfd0dee	0.123561725
160	0xbd289c40	-0.041164637
161	0xbdacb5dc	-0.084331244
162	0xba0d923d	-0.00054005143
163	0x3cfef6be	0.031123515
164	0xbbcc2fcb	-0.0062312833
165	0x3dbbe5f0	0.091747165
166	0xbd4961b2	-0.049165435
167	0xbdcee7b7	-0.1010279
168	0xbd0f77e0	-0.03502643
169	0x3d63bc38	0.05559942
170	0x3e1471a5	0.14496477
171	0x3c56b787	0.01310528
172	0x3d439a9a	0.04775486
173	0x3dabc67e	0.08387469
174	0xbdca72a1	-0.09885145
175	0xbe01c3f8	-0.12672412
176	0x3d84f361	0.06491733
177	0xbd0d875e	-0.034552924
178	0x3c464b31	0.012102888
179	0x3d802ef7	0.06258958
180	0x3a97aef0	0.0011572521
181	0xbd046c2a	-0.032329716
182	0x3e122f6b	0.14275901
183	0x3dc337c6	0.09532122
184	0xbcd57b38	-0.026059732
185	0xbd953987	-0.07286363
186	0xbd8343c4	-0.0640941
187	0x3d6f8e81	0.05848551
188	0x3d87b143	0.06625607
189	0xbd6f7302	-0.05845929
190	0xbdb7e468	-0.08979112
191	0xbd39fe01	-0.045408253
192	0x3e0b9b3d	0.13633437
193	0xbd2079df	-0.039178725
194	0x3d9e5bc0	0.07732344
195	0xbc9e3211	-0.019310983
196	0x3cd34e06	0.02579404
197	0xbd2c99f2	-0.042139
198	0x3c9c41f6	0.019074421
199	0xbd5a71d8	-0.053331226
200	0xbc317798	-0.010831736
201	0xbd62e0ff	-0.055390354
202	0xbc6e3606	-0.014539247
203	0xba974acb	-0.0011542676
204	0x3c31fba1	0.010863216
205	0x3d5a9dce	0.05337315
206	0x3daa400f	0.083129995
207	0x39d54b5c	0.00040682673
208	0xbd9d3fcb	-0.07678183
209	0xbcdfdeff	-0.027328013
210	0xbcd8a56b	-0.026446065
211	0x3d1e8b9e	0.038707368
212	0xbb0a1f22	-0.0021075686
213	0x3d799098	0.06092891
214	0xbdafe11f	-0.0858786
215	0xbd874079	-0.06604094
216	0x3e4565e9	0.19277157
217	0x3c5d6ed1	0.01351519
218	0xbdd599d8	-0.10429734
219	0xbd011033	-0.03150959
220	0x3d361b48	0.04445961
221	0x3c29ce20	0.010364085
222	0x3db27c36	0.087150976
223	0x3de67fe4	0.11254862
224	0xbd2f2388	-0.042758495
225	0x3def3d34	0.116815954
226	0x3d3a88ec	0.045540735
227	0xbbe583cc	-0.007004237
228	0x3d6fd300	0.058550835
229	0xbc42b37e	-0.011883615
230	0x3cbd014e	0.023071911
231	0x3d94b8f1	0.07261837
232	0x3d243156	0.040086113
233	0xbd5c7dcc	-0.053830907
234	0xbc3abb40	-0.011397183
235	0xbce6a7fc	-0.028156273
236	0xbd417523	-0.04723085
237	0x3ce8edb5	0.02843366
238	0xbdd6aba7	-0.10481959
239	0xbd5ff822	-0.054679997
240	0xbdd7979a	-0.105269626
241	0x3b8091bd	0.0039236234
242	0x3d6118a1	0.05495513
243	0x3c7c89d5	0.015413721
244	0xbe0da187	-0.13831149
245	0xbd56ff90	-0.052489817
246	0xbd5abe49	-0.053404126
247	0xbd41cab0	-0.04731244
248	0xbd6d109f	-0.05787718
249	0xbdefae57	-0.117031746
250	0xbdad030e	-0.08447848
251	0x3d868c98	0.06569785
252	0xbd871158	-0.06595105
253	0xbe07b831	-0.13253857
254	0xbdc0792b	-0.09398111
255	0xbe154de7	-0.14580499

cnn.4.bias f4 [32]
0	0xb8b1cbd1	-8.4779815e-05
1	0xb59a5e3e	-1.1501322e-06
2	0x382cd941	4.121033e-05
3	0xb7aaec99	-2.0375754e-05
4	0x378f9491	1.711611e-05
5	0x367e446d	3.7888778e-06
6	0x37aa07f0	2.0269275e-05
7	0x37b7049a	2.1817443e-05
8	0x373d05c1	1.1266618e-05
9	0x364c5880	3.0449883e-06
10	0xb7592c40	-1.2944511e-05
11	0x363d945a	2.8249547e-06
12	0x384eab39	4.927369e-05
13	0xb7ac7109	-2.0556634e-05
14	0x385f016f	5.316868e-05
15	0xb78e5da5	-1.6971326e-05
16	0x37dd5b32	2.638772e-05
17	0xb7b7572d	-2.1855894e-05
18	0xb6b38b20	-5.350812e-06
19	0xb68e2154	-4.2358097e-06
20	0xb687951a	-4.0406712e-06
21	0x378355c7	1.565636e-05
22	0x36f4d9d4	7.297125e-06
23	0x357cdd11	9.419901e-07
24	0x3597fc83	1.1323867e-06
25	0x37e0def0	2.6806694e-05
26	0x34f0f3a1	4.4880747e-07
27	0xb7d2780c	-2.5089852e-05
28	0x375175c6	1.2484792e-05
29	0xb82d562a	-4.132666e-05
30	0x385d1c06	5.2716605e-05
31	0xb785ef47	-1.5966258e-05

cnn.5.weight f4 [32]
0	0x3f330aec	0.6993854
1	0x3f0fc15e	0.5615443
2	0x3f2f9d67	0.6859955
3	0x3f49a1aa	0.78762305
4	0x3f34ff8a	0.7070242
5	0x3f3f5da2	0.7475225
6	0x3f330a0b	0.699372
7	0x3f17f41b	0.5935685
8	0x3f3fa43a	0.74859965
9	0x3f50c317	0.81547683
10	0x3f1d7587	0.6150746
11	0x3f384fdc	0.71996856
12	0x3f2604f2	0.64851296
13	0x3f3a277c	0.727165
14	0x3f2d3a69	0.6766725
15	0x3f3537bd	0.70788175
16	0x3f24d145	0.6438182
17	0x3f2e0e24	0.67990327
18	0x3f2c3a40	0.6727638
19	0x3f288064	0.6582091
20	0x3f2b528d	0.6692284
21	0x3f4564a8	0.77106714
22	0x3f308d72	0.6896583
23	0x3f10d115	0.56569034
24	0x3f1264c0	0.5718498
25	0x3f360dfc	0.7111509
26	0x3f390abd	0.7228201
27	0x3f3f5a49	0.7474714
28	0x3f366369	0.7124544
29	0x3f20ed28	0.6286187
30	0x3f235a99	0.63810116
31	0x3f2a6d39	0.6657291

cnn.5.bias f4 [32]
0	0xbd8ed6bf	-0.06974553
1	0xbd7f3701	-0.062308315
2	0xbd4af94f	-0.049554165
3	0x3cc66d67	0.024222089
4	0xbda3d2b7	-0.07999175
5	0xbb827b89	-0.0039820117
6	0xbc3b1d4b	-0.011420558
7	0xbd942553	-0.072336815
8	0xbd235f33	-0.03988571
9	0xbd24c339	-0.04022524
10	0xbd720a07	-0.059091594
11	0xbcb62630	-0.022235006
12	0xbde91c06	-0.11382298
13	0xbc9a2997	-0.01881866
14	0xbdde19ab	-0.108447395
15	0x3b0f1d40	0.0021837503
16	0xbcb36d38	-0.021902665
17	0x3d492e0b	0.049116176
18	0xbd660708	-0.05615905
19	0xbd8ba683	-0.06818869
20	0xbd0113e8	-0.031513125
21	0xbd0f666c	-0.035009786
22	0xbcf60e2d	-0.030036056
23	0xbde5f41b	-0.112282
24	0xbdaea9cf	-0.08528482
25	0xbd97d5cd	-0.07413826
26	0xbdaa15ac	-0.08304915
27	0x3c1c07f0	0.009523377
28	0x3bd95acc	0.0066331383
29	0xbdcf9631	-0.101360686
30	0xbc48474b	-0.012224029
31	0xbdbdda28	-0.09270126

cnn.5.running_mean f4 [32]
0	0x3d867436	0.06565134
1	0xbd18044d	-0.037113477
2	0xbedf5bd2	-0.4362474
3	0x3be432ec	0.006964078
4	0x3df176f3	0.11790266
5	0xbeb0f974	-0.34565318
6	0xbe3c946e	-0.18415996
7	0xbd7abbda	-0.061214305
8	0x3d3caa33	0.046060752
9	0x3e92ab5d	0.28646365
10	0x3d80d25b	0.06290122
11	0x3e0e2c9e	0.13884208
12	0xbd391d82	-0.045194156
13	0xbe89bb99	-0.26900938
14	0x3e270a1a	0.16312447
15	0xbe7b952e	-0.24568626
16	0x3d5b373b	0.05351947
17	0xbe964d4c	-0.29355848
18	0x3eb1ece1	0.34751037
19	0xbe09278d	-0.13393994
20	0x3e6cdb0d	0.23130436
21	0x3ea43fec	0.3208002
22	0xbeade999	-0.33967283
23	0x3e4b25c0	0.19838619
24	0x3e1a3138	0.15057838
25	0xbd27f75a	-0.041007377
26	0xbd9ca34a	-0.076483324
27	0x3e5640bd	0.20923133
28	0x3e5a71d7	0.21332489
29	0xbd81a23b	-0.06329771
30	0xbc8cf8a3	-0.017208403
31	0x3d221257	0.03956827

cnn.5.running_var f4 [32]
0	0x3cafe412	0.021471057
1	0x3e565f2b	0.20934741
2	0x3d85e04a	0.0653692
3	0x3ce857d7	0.028362198
4	0x3e009880	0.12558174
5	0x3d8872cf	0.06662523
6	0x3d8f3566	0.06992607
7	0x3e1e1274	0.15436727
8	0x3dc0d5d1	0.09415782
9	0x3e08050a	0.13283172
10	0x3d93305f	0.071869604
11	0x3d0fce9f	0.03510916
12	0x3cf6e084	0.030136354
13	0x3d8ce6e9	0.0687998
14	0x3d0dcc60	0.034618735
15	0x3dee3b60	0.11632419
16	0x3d90eda4	0.07076576
17	0x3da1eaa9	0.07906086
18	0x3d5ababa	0.053400733
19	0x3e1de35a	0.15418759
20	0x3dc4aa7b	0.09602829
21	0x3d6dfed8	0.058104366
22	0x3da00b3b	0.07814642
23	0x3d7a880c	0.0611649
24	0x3dc9b556	0.0984904
25	0x3cd84987	0.026402248
26	0x3df15c86	0.117852256
27	0x3d4d092b	0.05005757
28	0x3debcd4b	0.11513766
29	0x3d172a72	0.036905713
30	0x3c74fc6f	0.014952763
31	0x3c8a11b6	0.016854148

fc_hidden.0.weight f4 [12, 960]
0	0xbb06b905	-0.0020557058
1	0xbcd3abf1	-0.025838824
2	0x3c8bd82b	0.01707085
3	0x3c8b6281	0.017014744
4	0x3cdb043c	0.026735418
5	0xbd0e246b	-0.0347027
6	0x3b797fe3	0.0038070611
7	0xbc96cc62	-0.018408004
8	0x3ca5705d	0.02019518
9	0x3d852da6	0.065028474
10	0xbd5cf8ad	-0.053948093
11	0x3c06b9d9	0.0082230205
12	0xbac94d82	-0.0015358182
13	0x3d9c7888	0.07640177
14	0xbd02f656	-0.031973206
15	0x3c6395da	0.013890708
16	0x3cda9219	0.026680993
17	0xbc98a849	-0.018634932
18	0xbc7ebab0	-0.015547439
19	0x3c17b573	0.009259569
20	0x3bcf6d70	0.0063301846
21	0x3cc90421	0.024538102
22	0x3cae2635	0.021258453
23	0xbc52d016	-0.012866994
24	0x3c66f4ff	0.014096498
25	0xbce8eddf	-0.028433738
26	0x3ce015fc	0.027354233
27	0x3cd8f731	0.026485058
28	0xbc0faef1	-0.008769737
29	0xbcb425b9	-0.021990644
30	0xbc46c1c4	-0.012131158
31	0xbce316c8	-0.027720824
32	0xbd315753	-0.04329617
33	0xbd728d00	-0.0592165
34	0x3c61114b	0.013737033
35	0x3cdf4532	0.027254675
36	0x3ab6416b	0.0013904994
37	0xbcad3c74	-0.02114699
38	0x3bca69a6	0.006177145
39	0xbc919a28	-0.017773703
40	0x3d0e473f	0.034735914
41	0xbc966cdc	-0.018362455
42	0xbc993950	-0.018704087
43	0xbb4d4e55	-0.0031327207
44	0xbbedf887	-0.007262293
45	0x3bd9c2fc	0.0066455584
46	0xbb923501	-0.004461885
47	0xbba6f9aa	-0.0050956802
48	0xbb027e33	-0.0019911646
49	0x3b8f5fb2	0.0043754214
50	0x3ca48e7a	0.02008747
51	0xbbafed5e	-0.0053688725
52	0xbc1c3910	-0.009535089
53	0xba30c888	-0.00067437487
54	0xbbf40d2a	-0.0074478583
55	0x3bcebf6b	0.00630944
56	0x399cc778	0.00029903254
57	0xbd4d016c	-0.050050184
58	0x3d6aa564	0.057286635
59	0x3bffb1fd	0.0078032003
60	0xbccf9e5c	-0.025344066
61	0x3bcebec9	0.0063093645
62	0x3a7b0ccc	0.0009576797
63	0x3b6bc2f6	0.003597436
64	0x3c86539c	0.01639729
65	0xbdca4ad7	-0.09877556
66	0x3bd1651e	0.006390228
67	0x3d3cdc1a	0.046108343
68	0x3b650e33	0.003495109
69	0x3d4461b2	0.047944732
70	0xbd1235a3	-0.035695683
71	0x3cda1c8a	0.026624937
72	0x3c97aa76	0.0185139
73	0x3cdfb6be	0.027308818
74	0x3d256ee5	0.04038896
75	0xbc99a168	-0.018753722
76	0xbd5d801e	-0.05407726
77	0x3d2ed576	0.04268404
78	0x3d034c91	0.03205544
79	0xbd2abeb4	-0.041685775
80	0xbbcfcf0b	-0.00634182
81	0x3d185c77	0.037197556
82	0xbd378b56	-0.044810615
83	0x3c82492f	0.015904037
84	0x3cb96bf1	0.022634478
85	0xbbc4dc28	-0.00600769
86	0x3bbc20a4	0.0057411958
87	0xbd378962	-0.044808753
88	0x3d07bf50	0.033141434
89	0x3a013924	0.0004929474
90	0x3c1e7af6	0.009672871
91	0x3c2a62c0	0.01039952
92	0x3c39613d	0.011314687
93	0x3d013747	0.031546857
94	0x3ce306da	0.027713228
95	0xbc991a39	-0.018689262
96	0x3cdc77db	0.02691262
97	0x3c95f9cc	0.018307589
98	0xbab5acac	-0.0013860664
99	0x3d554ae7	0.052073386
100	0xbd44b660	-0.04802549
101	0xbd35ded3	-0.044401955
102	0x3bcb2b5d	0.0062002377
103	0x3dd69345	0.10477308
104	0xbd2a7aee	-0.04162114
105	0x38a60b8b	7.917647e-05
106	0x3bb0b8e9	0.0053931368
107	0x3ca39e45	0.01997293
108	0xbcca238f	-0.024675159
109	0xbe05c7bf	-0.13064478
110	0xbb8072f0	-0.0039199516
111	0x3d33ecf2	0.04392714
112	0x3c81e015	0.015853921
113	0xbcb8429d	-0.022492701
114	0xbd38cd61	-0.04511774
115	0xbd87e7a6	-0.0663598
116	0x3c88a246	0.01667894
117	0x3c2e6af2	0.010645615
118	0x3c472909	0.01215578
119	0xbccd2ef6	-0.025046807
120	0x3ca1647f	0.01970124
121	0xbc637933	-0.013883877
122	0x3bcda55a	0.006275815
123	0x3be2787b	0.006911335
124	0x3cdade24	0.026717253
125	0x3c71db7d	0.014761803
126	0xbbc7a682	-0.0060928473
127	0xbd084609	-0.033269916
128	0x3cd8b0b3	0.026451444
129	0x3bd546d2	0.0065086866
130	0x3d96af5a	0.073576644
131	0xbc9228d7	-0.01784174
132	0xbc749cc6	-0.014929956
133	0xbab12000	-0.0013513565
134	0x3d4a379e	0.049369447
135	0xbb286abd	-0.0025698387
136	0xbaa1b0c1	-0.0012336002
137	0xbbb18ab0	-0.005418144
138	0xbc2a38dc	-0.010389533
139	0xb99b0c2f	-0.0002957298
140	0x3b058ca5	0.002037802
141	0xbc8bcff5	-0.017066935
142	0x3c8e2d87	0.017355694
143	0x3c4dba77	0.012556664
144	0xbb878579	-0.004135784
145	0x3b91ef9f	0.004453614
146	0xbd2c31b4	-0.042039588
147	0xbc95f596	-0.018305581
148	0x3e00267d	0.12514682
149	0x3dd02237	0.10162776
150	0xba9eb104	-0.0012107198
151	0xbd0b39cb	-0.033990663
152	0xbbe17f55	-0.0068816342
153	0x3c47a79d	0.012185958
154	0x3be8ff3c	0.0071105044
155	0x3ca1fc42	0.019773606
156	0x3d6400b8	0.055664748
157	0x3d35630f	0.044283923
158	0xbcf3faad	-0.029782617
159	0x3a58d7ed	0.00082719215
160	0x3d0bf4c1	0.034168962
161	0x3d58175f	0.052756663
162	0x3c558ea3	0.0130344955
163	0xbca047f4	-0.01956556
164	0x3c5c7d7d	0.013457653
165	0x3d4a029c	0.049318895
166	0xbc44c895	-0.012010713
167	0xbda66bdf	-0.081260435
168	0xbb491a70	-0.0030685924
169	0x3d92b48b	0.07163342
170	0xbcf4c8a2	-0.029880825
171	0xbc90213a	-0.017593969
172	0xbdb1ebd7	-0.08687561
173	0xbcf75f34	-0.030196764
174	0xbc8397a3	-0.016063517
175	0xbcab6f4b	-0.020927092
176	0xbbc23916	-0.0059272153
177	0x3d396b89	0.04526857
178	0x3ce181f7	0.027527792
179	0xbc0b9c51	-0.008521155
180	0x3ccf82bb	0.025330892
181	0xba86604a	-0.0010252085
182	0xbc417ac3	-0.011809054
183	0xbc69ab9a	-0.014262104
184	0xbc8ba7d4	-0.0170478
185	0x3c53f297	0.012936256
186	0xb9f797cf	-0.00047224617
187	0xbc6c358d	-0.014417064
188	0x3b50e0df	0.0031872315
189	0xbc4d56c9	-0.012532898
190	0xbce3b476	-0.027796011
191	0xbc2f3493	-0.010693687
192	0xba63d3b3	-0.00086909084
193	0x3ce4abf8	0.027914032
194	0x3c25f044	0.010128085
195	0x3b77d475	0.0037815843
196	0xbbd34100	-0.0064469576
197	0x3caa72e9	0.020806747
198	0x3b8e219d	0.004337503
199	0x3c73d6c1	0.014882744
200	0x3c239aa7	0.009985602
201	0x3c28cb9e	0.010302452
202	0x3b61ef55	0.0034474928
203	0x3c125ea6	0.008933699
204	0xbb245d99	-0.0025080203
205	0xbc6cb864	-0.014448259
206	0xbc80d8cd	-0.015728379
207	0x3bad1ffe	0.005283355
208	0xbcbe7bbf	-0.023252366
209	0xbc3e18d8	-0.011602603
210	0x393dde9e	0.00018107376
211	0x3b704343	0.0036661185
212	0x3afa5803	0.0019099716
213	0xbb252d00	-0.0025203824
214	0xbc8a3f81	-0.016875984
215	0x3beff40b	0.0073227934
216	0x3b798c31	0.0038077945
217	0xbd3984d6	-0.045292698
218	0x3cfbf634	0.030757047
219	0xbd765569	-0.060140047
220	0x3c0b3197	0.00849571
221	0x3c2c9f83	0.010536077
222	0xbbcd54f0	-0.006266229
223	0xbc5267b3	-0.012842107
224	0xbd37c87a	-0.044868924
225	0x3c7c1015	0.015384694
226	0x3cc855d4	0.024454989
227	0xbcdc3c1d	-0.026884133
228	0xbce32926	-0.027729582
229	0x3c565929	0.013082781
230	0xbd16f087	-0.03685048
231	0x3d4d4861	0.050117854
232	0x3a84e174	0.0010137991
233	0xbd227937	-0.03966638
234	0xbd593cce	-0.053036503
235	0x3c14513c	0.009052571
236	0x3ba21243	0.0049460246
237	0x3c06955b	0.00821432
238	0x3b8a70b9	0.0042248634
239	0x3b9df942	0.0048209736
240	0x3cf791e8	0.03022094
241	0x3c4f26e3	0.012643549
242	0xbcbebdae	-0.023283806
243	0x3cd0bc6e	0.025480475
244	0xbc43f1b5	-0.011959483
245	0x3d22020e	0.03955274
246	0x3d3eb1bb	0.046556216
247	0xbbbda085	-0.0057869577
248	0xbb86a177	-0.0041086036
249	0xbdb8ac67	-0.09017258
250	0x3cc53d61	0.02407712
251	0xbd21eaaf	-0.039530452
252	0x3ca70ebe	0.020392772
253	0x3c3bc321	0.011460097
254	0x3c84b481	0.016199352
255	0xbc808e4d	-0.015692854

fc_hidden.0.bias f4 [12]
0	0xb6331126	-2.668306e-06
1	0xb73856e4	-1.0987485e-05
2	0x374b7fa5	1.2129462e-05
3	0xb7ba0800	-2.2176653e-05
4	0xb80ecef1	-3.4048167e-05
5	0x37a6ecdb	1.9899036e-05
6	0xb7c5a35e	-2.3560304e-05
7	0xb77ce32b	-1.5073262e-05
8	0xb7302c6d	-1.0500761e-05
9	0x35a2265e	1.2081107e-06
10	0x364f587c	3.0896908e-06
11	0x36a3fb08	4.8870024e-06

fc_hidden.1.weight f4 [12]
0	0x3f6f23d6	0.93414056
1	0x3f32c84c	0.6983688
2	0x3f501877	0.8128733
3	0x3f5bfc7c	0.85932136
4	0x3f6c26da	0.9224678
5	0x3f5e8db9	0.86935
6	0x3f7bd4c4	0.9837153
7	0x3f6f8e2c	0.9357631
8	0x3f7d6b6a	0.98992026
9	0x3f5e1d75	0.867637
10	0x3f3d184b	0.73865193
11	0x3f745c70	0.9545355

fc_hidden.1.bias f4 [12]
0	0x3e417364	0.18891674
1	0xbc99defc	-0.018783085
2	0x3e402a49	0.1876613
3	0x3e03ac57	0.12858711
4	0x3e06864d	0.13137169
5	0x3e266b32	0.1625183
6	0x3ea93d1a	0.3305443
7	0x3e21790c	0.15768832
8	0x3de73c31	0.112907775
9	0x3e1e8df0	0.15483832
10	0x3de2bb1e	0.11070846
11	0x3e2d8b26	0.16947612

fc_hidden.1.running_mean f4 [12]
0	0xbe8fea1f	-0.28108308
1	0xbefc464c	-0.49272382
2	0xbea1ddd3	-0.3161455
3	0xbe0cd4cf	-0.13753055
4	0xbd163a27	-0.036676552
5	0xbf6bd319	-0.92118984
6	0xbf53afb4	-0.82689977
7	0xbdbea23c	-0.093082875
8	0x3ef6639c	0.4812287
9	0xbf7896eb	-0.9710528
10	0xbf02633b	-0.50932664
11	0xbf73c61c	-0.95224166

fc_hidden.1.running_var f4 [12]
0	0x3ee86850	0.45392084
1	0x3eacdf2a	0.3376401
2	0x3ea5ada5	0.32359043
3	0x3eb73d65	0.35789028
4	0x3ed33610	0.41252184
5	0x3ec6572d	0.38738385
6	0x3ee8dbfe	0.4548034
7	0x3ed30e89	0.41222027
8	0x3ebc80b3	0.3681694
9	0x3ed809e1	0.42195037
10	0x3ed017dc	0.40643203
11	0x3eab79f7	0.3349149

rnn.weight_ih_l0 f4 [48, 12]
0	0xbe53ec68	-0.2069565
1	0x3d9732a5	0.073827066
2	0xbb9f9976	-0.004870589
3	0xbdc072d4	-0.09396902
4	0xbc8dbd29	-0.017302113
5	0xbe65ed7a	-0.22453871
6	0x3d5b3ba1	0.053523663
7	0xbe9527ff	-0.29132077
8	0x3dc0c91d	0.09413359
9	0xbdd01398	-0.10159987
10	0x3d868841	0.06568957
11	0xbdd730dc	-0.10507366
12	0xbd9747a4	-0.07386711
13	0xbda1f6fa	-0.07908435
14	0x3e8a15a7	0.26969644
15	0x3d88f57b	0.06687447
16	0x3aa749d0	0.0012763087
17	0xbd82238a	-0.06354435
18	0x3dfb5522	0.12272097
19	0x3e517e6e	0.20458385
20	0xbcec3944	-0.0288359
21	0x3d443fdf	0.047912475
22	0xbd8ae6b8	-0.06782287
23	0xbd4c8963	-0.04993571
24	0xbdb453f1	-0.08805073
25	0xbdb9e7c1	-0.09077407
26	0x3da05e78	0.078305185
27	0x3dca5a09	0.09880454
28	0x3e6fa113	0.23401289
29	0xbda07aa0	-0.07835889
30	0x3d6be1eb	0.0575885
31	0xbdbccb50	-0.09218466
32	0x3bbe69fc	0.005810974
33	0x3dc275f4	0.09495154
34	0xbe4785da	-0.19484654
35	0x3e3a100d	0.18170185
36	0xbdc3d458	-0.09561986
37	0xbd2a0e09	-0.04151729
38	0xbd55af01	-0.05216885
39	0x3d333e3f	0.043760534
40	0x3d66a594	0.05631025
41	0xbddec635	-0.10877649
42	0x3d50e897	0.051003065
43	0x3dc318a2	0.09526183
44	0x3d86ef14	0.06588569
45	0xbd963092	-0.07333483
46	0xbe10f6e1	-0.14156677
47	0xbd49e018	-0.049285978
48	0xbb62a1dd	-0.0034581341
49	0x3d8bb71f	0.06822037
50	0x3e852393	0.26003703
51	0x3e1c6410	0.15272546
52	0x3e34570a	0.17611328
53	0x3deca433	0.11554756
54	0x3d0f80eb	0.035035055
55	0x3dda99ac	0.10673842
56	0x3e5e1af6	0.21689972
57	0xbd06c950	-0.03290683
58	0xbd863ae4	-0.06554201
59	0x3e1ae288	0.15125477
60	0x3de23305	0.110448875
61	0x3deb332c	0.1148437
62	0xbe69fcb4	-0.22850305
63	0x3d73fd86	0.05956795
64	0xbe06466d	-0.13112803
65	0x3e0f5c27	0.13999997
66	0xbd328b39	-0.043589804
67	0x3bc1e21e	0.005916848
68	0x3e848f89	0.2589076
69	0x3e0993f2	0.13435343
70	0xbdd3bdc1	-0.10338927
71	0xbdb45f53	-0.08807244
72	0xbce52863	-0.02797336
73	0xbc7eab89	-0.015543827
74	0xbb405e62	-0.0029353132
75	0x3d92308d	0.071381666
76	0x38ce2110	9.829004e-05
77	0x3bedbdbd	0.0072552846
78	0x3c3ce7ae	0.011529846
79	0x3d0138d2	0.03154833
80	0xbcc1732e	-0.023614492
81	0xbd776a39	-0.060404036
82	0x3de3c3d3	0.11121335
83	0xbdf83258	-0.12118977
84	0xbc93e252	-0.018052254
85	0xbcd6645c	-0.026170902
86	0xbd2ee9da	-0.042703487
87	0xbd8fea2b	-0.07027086
88	0x3ddb36fb	0.10703846
89	0xbcf01177	-0.029305203
90	0x3d61f86c	0.055168554
91	0xbe324ac7	-0.17411338
92	0xbe4a3191	-0.1974547
93	0xbe39411d	-0.18091245
94	0xbddb0477	-0.10694211
95	0xbe3031dc	-0.1720652
96	0xbe2f76b4	-0.17135125
97	0xbe5111a4	-0.20416886
98	0xbe0bc071	-0.1364763
99	0xbd956313	-0.072942875
100	0xbdb3fee0	-0.08788848
101	0xbe69f41d	-0.22847028
102	0xbcc3a336	-0.023881536
103	0xbde594d3	-0.112100266
104	0xbd5e383a	-0.05425284
105	0xbe63aefb	-0.22234719
106	0xbcdbf7ac	-0.026851498
107	0xbe42c8e1	-0.19021942
108	0xbdc896db	-0.097943984
109	0xbd697c2e	-0.057003193
110	0xbc8f11d4	-0.017464556
111	0xbcf9966c	-0.030467235
112	0xbcc5d133	-0.024147606
113	0x3d034332	0.032046504
114	0xbbde6fa4	-0.006788211
115	0xbcd3f64f	-0.025874285
116	0xbd3b3143	-0.045701277
117	0xbd40da9e	-0.04708349
118	0x3d87685d	0.066117026
119	0xbdcb0430	-0.09912908
120	0xbd8d9b4e	-0.06914388
121	0xbdf9f9ac	-0.12205824
122	0xbe8f899c	-0.28034675
123	0xbd52fdd2	-0.051511593
124	0x3d4a4342	0.04938055
125	0xbdabe7ca	-0.0839382
126	0xbe85d9e4	-0.261428
127	0xbe054dfb	-0.13018028
128	0x3db9a82b	0.090652786
129	0xbbe69232	-0.007036471
130	0xbdb9196b	-0.09038051
131	0xbe27c0bd	-0.16382118
132	0x3e6e1bc9	0.23252787
133	0x3e197fd9	0.14990176
134	0x3e4d90d9	0.20074786
135	0x3c812830	0.015766233
136	0x3d65f9db	0.056146484
137	0x3e4ad488	0.19807637
138	0x3e2a258c	0.16615885
139	0x3dbe28bf	0.092851155
140	0xba72391e	-0.00092400785
141	0x3e3e84ab	0.18605296
142	0xbc75616b	-0.01497684
143	0x3d74106b	0.05958597
144	0x80065a89	-5.83491e-40
145	0x0006b21c	6.14907e-40
146	0x00060727	5.53579e-40
147	0x00062981	5.65902e-40
148	0x8005c8cd	-5.31211e-40
149	0x00065c06	5.84025e-40
150	0x8001312b	-1.09474e-40
151	0x80059e35	-5.15931e-40
152	0x8005a2fb	-5.17644e-40
153	0x00058b3a	5.09123e-40
154	0x80043f3f	-3.9003e-40
155	0x000590b7	5.11091e-40
156	0x00066845	5.88418e-40
157	0x0006ab47	6.12456e-40
158	0x8006acf7	-6.13061e-40
159	0x80059bff	-5.15138e-40
160	0x80056e09	-4.9865e-40
161	0x8005b8f6	-5.25529e-40
162	0x8005a0ca	-5.16858e-40
163	0x80055af0	-4.918e-40
164	0x80033cbc	-2.97294e-40
165	0x8001ed81	-1.77036e-40
166	0x000687de	5.99753e-40
167	0x00068acd	6.00805e-40
168	0x80037937	-3.1899e-40
169	0x0005f825	5.48195e-40
170	0x0005f4ad	5.4695e-40
171	0x00060b5c	5.55088e-40
172	0x00012308	1.04402e-40
173	0x8004ca91	-4.40009e-40
174	0x8005e47a	-5.4114e-40
175	0x8005a713	-5.19112e-40
176	0x0006682b	5.88381e-40
177	0x8006763e	-5.9343e-40
178	0x80062fee	-5.68207e-40
179	0x0005e76e	5.42199e-40
180	0x0005e37e	5.40786e-40
181	0x000583ab	5.06411e-40
182	0x0005966a	5.13136e-40
183	0x000344ed	3.00232e-40
184	0x80064790	-5.76685e-40
185	0x80063421	-5.69713e-40
186	0x8005d14f	-5.34263e-40
187	0x8005e73a	-5.42126e-40
188	0x8005dd05	-5.38464e-40
189	0x00054f4b	4.87622e-40
190	0x00056d80	4.98459e-40
191	0x8006bbbc	-6.1836e-40
192	0x8005301b	-4.76434e-40
193	0x00059f63	5.16355e-40
194	0x80063cde	-5.72848e-40
195	0x0005c094	5.28261e-40
196	0x0006dbd4	6.29872e-40
197	0x800628f3	-5.65703e-40
198	0x80068bdb	-6.01184e-40
199	0x0006d79e	6.28362e-40
200	0x80051b68	-4.69009e-40
201	0x00066742	5.88055e-40
202	0x800360d2	-3.10239e-40
203	0x0005a0ac	5.16816e-40
204	0x00069b66	6.0676e-40
205	0x00058889	5.08157e-40
206	0x8003544e	-3.0575e-40
207	0x80064cf7	-5.78623e-40
208	0x800607a8	-5.5376e-40
209	0x8002f5a8	-2.71796e-40
210	0x00068331	5.98076e-40
211	0x00066cf8	5.90104e-40
212	0x80062c1e	-5.66839e-40
213	0x800659ed	-5.83272e-40
214	0x800638c5	-5.71378e-40
215	0x0005444e	4.8368e-40
216	0x8003d940	-3.53441e-40
217	0x00049e5d	4.24152e-40
218	0x8005ecb6	-5.44093e-40
219	0x8006a8e1	-6.11595e-40
220	0x00057a71	5.03101e-40
221	0x8006d6a2	-6.28009e-40
222	0x00061422	5.58235e-40
223	0x80063ba1	-5.72404e-40
224	0x0005e5bd	5.41592e-40
225	0x800330ae	-2.9297e-40
226	0x8005c570	-5.30005e-40
227	0x80056fa2	-4.99224e-40
228	0x800573e8	-5.00757e-40
229	0x800650b7	-5.79968e-40
230	0x000560a4	4.93846e-40
231	0x8003f45e	-3.63169e-40
232	0x00057418	5.00824e-40
233	0x8005a915	-5.19833e-40
234	0x8006a325	-6.09538e-40
235	0x8005c9a7	-5.31517e-40
236	0x8006677b	-5.88135e-40
237	0x8006bb3d	-6.18181e-40
238	0x0006c0ce	6.20178e-40
239	0x800585cc	-5.07175e-40
240	0x0005e50a	5.41341e-40
241	0x800587e5	-5.07927e-40
242	0x0006afbb	6.14053e-40
243	0x80017a62	-1.35738e-40
244	0x00032d5f	2.91783e-40
245	0x80058a10	-5.08705e-40
246	0x8005917b	-5.11366e-40
247	0x00055c5e	4.92313e-40
248	0x800686fc	-5.99436e-40
249	0x00057b5f	5.03435e-40
250	0x0005716d	4.99867e-40
251	0x8006036d	-5.52242e-40
252	0x00066732	5.88032e-40
253	0x000560b4	4.93868e-40
254	0x8005fa5e	-5.48992e-40
255	0x0005f016	5.45304e-40

rnn.weight_hh_l0 f4 [48, 12]
0	0x00050859	4.62172e-40
1	0x80043012	-3.84586e-40
2	0x0003be72	3.43825e-40
3	0x80056ce9	-4.98247e-40
4	0x8006d6a1	-6.28007e-40
5	0x000547aa	4.84886e-40
6	0x80038d51	-3.26201e-40
7	0x8005e244	-5.40346e-40
8	0x0006412c	5.74392e-40
9	0x00061b20	5.60744e-40
10	0x80064f27	-5.79407e-40
11	0x8005d10c	-5.3417e-40
12	0x800594bf	-5.12538e-40
13	0x800594c4	-5.12545e-40
14	0x80061de6	-5.61739e-40
15	0x80058731	-5.07675e-40
16	0x8003baab	-3.4247e-40
17	0x0005b703	5.2483e-40
18	0x80069cdf	-6.07288e-40
19	0x000670db	5.91498e-40
20	0x80068628	-5.99139e-40
21	0x0005792f	5.0265e-40
22	0x80066e88	-5.90664e-40
23	0x0005d052	5.33909e-40
24	0x800114f8	-9.9358e-41
25	0x0006b051	6.14263e-40
26	0x8005f11b	-5.4567e-40
27	0x8005f063	-5.45412e-40
28	0x800642ce	-5.74978e-40
29	0x0006bf68	6.19677e-40
30	0x80062a57	-5.66202e-40
31	0x800656e7	-5.82188e-40
32	0x0005be58	5.2746e-40
33	0x00060b47	5.55059e-40
34	0x8005774f	-5.01977e-40
35	0x0006cc1d	6.24235e-40
36	0x00033b4b	2.96777e-40
37	0x00066c14	5.89784e-40
38	0x800637ad	-5.70986e-40
39	0x0001cbb1	1.64906e-40
40	0x800677e9	-5.94029e-40
41	0x800562e6	-4.94656e-40
42	0x0005a461	5.18146e-40
43	0x0005ef22	5.44962e-40
44	0x8005d6f8	-5.36294e-40
45	0x80063ec1	-5.73525e-40
46	0x800611ad	-5.57354e-40
47	0x80056979	-4.97014e-40
48	0x00068bb6	6.01132e-40
49	0x8006c6c9	-6.22324e-40
50	0x000577ed	5.02199e-40
51	0x0006b4d1	6.15878e-40
52	0x8005d60e	-5.35966e-40
53	0x800564da	-4.95356e-40
54	0x00062069	5.6264e-40
55	0x800656f9	-5.82213e-40
56	0x8006bd9c	-6.19032e-40
57	0x8005ff21	-5.507e-40
58	0x00060190	5.51573e-40
59	0x0006afd9	6.14095e-40
60	0x0005c327	5.29185e-40
61	0x00060afa	5.5495e-40
62	0x8005a6b4	-5.18979e-40
63	0x8006cf25	-6.25322e-40
64	0x0006b012	6.14175e-40
65	0x0006439d	5.75268e-40
66	0x8005a1d4	-5.1723e-40
67	0x800661b9	-5.86069e-40
68	0x80058b1f	-5.09085e-40
69	0x80069ee3	-6.08011e-40
70	0x0005ca44	5.31737e-40
71	0x8006cbf5	-6.24179e-40
72	0x80026556	-2.20023e-40
73	0x8006413a	-5.74412e-40
74	0x80063f3c	-5.73697e-40
75	0x8005f6fd	-5.4778e-40
76	0x80033706	-2.95245e-40
77	0x8005b2be	-5.23298e-40
78	0x00061eaa	5.62013e-40
79	0x800680ed	-5.97263e-40
80	0x0006517b	5.80243e-40
81	0x8005c8f6	-5.31269e-40
82	0x0002b1e9	2.47493e-40
83	0x00063184	5.68776e-40
84	0x8005d66e	-5.361e-40
85	0x000681ee	5.97623e-40
86	0x0006ceea	6.2524e-40
87	0x8006813f	-5.97378e-40
88	0x00064d20	5.7868e-40
89	0x0005ef07	5.44924e-40
90	0x80057896	-5.02436e-40
91	0x00062f0b	5.67889e-40
92	0x80061d60	-5.61551e-40
93	0x000641f7	5.74677e-40
94	0x0005e17b	5.40065e-40
95	0x80059cf7	-5.15486e-40
96	0x0006b979	6.17548e-40
97	0x8004fe6d	-4.58613e-40
98	0x00067059	5.91316e-40
99	0x8005a955	-5.19922e-40
100	0x80060f1e	-5.56436e-40
101	0x0005db91	5.37943e-40
102	0x80069c6f	-6.07131e-40
103	0x800621ac	-5.63092e-40
104	0x8000c367	-7.0097e-41
105	0x8003453a	-3.0034e-40
106	0x00058e00	5.10117e-40
107	0x80063973	-5.71622e-40
108	0x8006c4bd	-6.2159e-40
109	0x00065da1	5.846e-40
110	0x8005b6b4	-5.24719e-40
111	0x8005c980	-5.31462e-40
112	0x800657db	-5.8253e-40
113	0x000287ec	2.3243e-40
114	0x8006ac04	-6.1272e-40
115	0x8006c4ba	-6.21585e-40
116	0x0005f633	5.47497e-40
117	0x8005f233	-5.46062e-40
118	0x8006a7db	-6.11228e-40
119	0x800658af	-5.82827e-40
120	0x0006530a	5.80802e-40
121	0x00054f37	4.87594e-40
122	0x0005bd08	5.26989e-40
123	0x00067e82	5.96395e-40
124	0x800283f1	-2.31003e-40
125	0x0006d674	6.27944e-40
126	0x00067c21	5.95542e-40
127	0x0005f4bc	5.46972e-40
128	0x80060c06	-5.55326e-40
129	0x000569f8	4.97192e-40
130	0x8006677f	-5.8814e-40
131	0x80012a6b	-1.07052e-40
132	0x0003042c	2.77003e-40
133	0x80055d77	-4.92706e-40
134	0x80056722	-4.96175e-40
135	0x0006ca70	6.23634e-40
136	0x00066dd1	5.90408e-40
137	0x00059f64	5.16356e-40
138	0x0006d190	6.2619e-40
139	0x8005998f	-5.14264e-40
140	0x8005493c	-4.85449e-40
141	0x8006cae0	-6.23791e-40
142	0x0006b0db	6.14457e-40
143	0x80056a40	-4.97293e-40
144	0x8003155c	-2.83169e-40
145	0x80064ecc	-5.7928e-40
146	0x000575c0	5.01418e-40
147	0x0001371a	1.11602e-40
148	0x0006678c	5.88159e-40
149	0x0006dbaf	6.2982e-40
150	0x00038fd3	3.27101e-40
151	0x0006cda5	6.24784e-40
152	0x80059b6a	-5.1493e-40
153	0x80040f1f	-3.72766e-40
154	0x0006a099	6.08625e-40
155	0x00060db0	5.55923e-40
156	0x00062048	5.62593e-40
157	0x0006986c	6.05692e-40
158	0x8005ea0c	-5.43138e-40
159	0x8006ac2e	-6.1278e-40
160	0x00068f2a	6.0237e-40
161	0x8005e4b9	-5.41228e-40
162	0x8005df36	-5.3925e-40
163	0x00056877	4.96652e-40
164	0x8005fdf0	-5.50273e-40
165	0x800566cd	-4.96055e-40
166	0x8005ac57	-5.21001e-40
167	0x0000306e	1.7373e-41
168	0x00069941	6.0599e-40
169	0x80055b42	-4.91915e-40
170	0x0005cba7	5.32234e-40
171	0x00065439	5.81226e-40
172	0x0004c091	4.36422e-40
173	0x00019c53	1.47914e-40
174	0x0005ab68	5.20666e-40
175	0x8006540d	-5.81165e-40
176	0x00067a63	5.94917e-40
177	0x8005c710	-5.30588e-40
178	0x0005ef96	5.45125e-40
179	0x8006daaa	-6.29455e-40
180	0x800672d1	-5.92201e-40
181	0x80064e9f	-5.79217e-40
182	0x800633a6	-5.69541e-40
183	0x000639d0	5.71752e-40
184	0x0006a685	6.10749e-40
185	0x80063d36	-5.72971e-40
186	0x8006777d	-5.93877e-40
187	0x8006ba42	-6.1783e-40
188	0x00064518	5.75799e-40
189	0x00061e5f	5.61908e-40
190	0x800627a5	-5.65235e-40
191	0x0003501f	3.04249e-40
192	0x8006a863	-6.11419e-40
193	0x00067c4a	5.956e-40
194	0x8005f7c2	-5.48056e-40
195	0x80038ed2	-3.26741e-40
196	0x8006c575	-6.21847e-40
197	0x800693e5	-6.04068e-40
198	0x00057140	4.99804e-40
199	0x0006685a	5.88447e-40
200	0x00059c6e	5.15294e-40
201	0x8006913b	-6.03112e-40
202	0x00066384	5.86712e-40
203	0x8005deec	-5.39147e-40
204	0x00061d49	5.61519e-40
205	0x0006c52c	6.21745e-40
206	0x800697da	-6.05487e-40
207	0x8006cf9e	-6.25492e-40
208	0x00055e03	4.92903e-40
209	0x8005b929	-5.256e-40
210	0x0006c5de	6.21994e-40
211	0x00069a88	6.06448e-40
212	0x80065d8e	-5.84574e-40
213	0x80063895	-5.71311e-40
214	0x000596df	5.133e-40
215	0x8005a61c	-5.18766e-40
216	0x0002d76c	2.6095e-40
217	0x8006bd62	-6.18951e-40
218	0x000539c6	4.79903e-40
219	0x0006d3f5	6.27049e-40
220	0x0006dd95	6.30502e-40
221	0x00058404	5.06536e-40
222	0x80060fe0	-5.56708e-40
223	0x000565f1	4.95747e-40
224	0x8006cb7b	-6.24008e-40
225	0x00067381	5.92448e-40
226	0x00065c6d	5.84169e-40
227	0x8005d463	-5.35367e-40
228	0x000690f8	6.03018e-40
229	0x00056a17	4.97235e-40
230	0x8005f0b8	-5.45531e-40
231	0x8006c73b	-6.22483e-40
232	0x80068467	-5.9851e-40
233	0x80060f01	-5.56395e-40
234	0x0006a7b0	6.11168e-40
235	0x0006a84d	6.11388e-40
236	0x0005e6a9	5.41923e-40
237	0x0005f060	5.45408e-40
238	0x0005f6c4	5.477e-40
239	0x0005cc11	5.32383e-40
240	0x80057343	-5.00526e-40
241	0x0005e7c6	5.42322e-40
242	0x8006a9fb	-6.1199e-40
243	0x80066799	-5.88177e-40
244	0x80013577	-1.11015e-40
245	0x00056843	4.9658e-40
246	0x800630f0	-5.68568e-40
247	0x0004fcac	4.57984e-40
248	0x000576c0	5.01777e-40
249	0x000309a1	2.7896e-40
250	0x800587a5	-5.07838e-40
251	0x0004f6d1	4.55883e-40
252	0x0006ca37	6.23554e-40
253	0x8006361f	-5.70428e-40
254	0x00052e60	4.75814e-40
255	0x0006a556	6.10324e-40

rnn.bias_ih_l0 f4 [48]
0	0x3e1634ba	0.14668551
1	0x3e56e9fd	0.20987697
2	0xbd7da857	-0.06192812
3	0x3e10ce04	0.14141089
4	0x3de5a0ad	0.11212287
5	0xbc219ffd	-0.009864804
6	0x3e08ee38	0.13372123
7	0xbd49570f	-0.04915529
8	0xbe095b62	-0.13413766
9	0x3d5da8d6	0.054116093
10	0xbd932518	-0.071848094
11	0x3e921fbf	0.28539845
12	0x8006a4d7	-6.10146e-40
13	0x0006491c	5.7724e-40
14	0x800200af	-1.83916e-40
15	0x000628e7	5.65686e-40
16	0x00044fe7	3.96006e-40
17	0x8005e12e	-5.39957e-40
18	0x0006dd37	6.3037e-40
19	0x00056ef0	4.98974e-40
20	0x0005b179	5.22843e-40
21	0x8006c074	-6.20052e-40
22	0x80065c93	-5.84222e-40
23	0x0006bc63	6.18593e-40
24	0xbe3d00bd	-0.18457313
25	0x3d445516	0.047932707
26	0xbdc268d3	-0.0949265
27	0xbd6de805	-0.0580826
28	0xbc1d748e	-0.009610308
29	0xbe8b66da	-0.27226907
30	0x3d2d2a4e	0.042276673
31	0xbcbc0f39	-0.022956477
32	0x3e319781	0.1734295
33	0xbdb2804e	-0.087158784
34	0xbe180ae5	-0.14847906
35	0xbe2faceb	-0.17155807
36	0x3e0c2437	0.1368569
37	0x3dc26682	0.09492208
38	0xbe6a8c35	-0.22905047
39	0xbdbde4a8	-0.09272128
40	0x3e2034b5	0.15645106
41	0xbe5411e9	-0.20709957
42	0xbc86b5e7	-0.01644416
43	0xbc084180	-0.008316398
44	0x3dc24c8f	0.09487259
45	0xbd07ba51	-0.03313667
46	0xbd0953d6	-0.033527218
47	0x3da93482	0.08261968

rnn.bias_hh_l0 f4 [48]
0	0x3e431d76	0.19054207
1	0x3e47ab5e	0.19498965
2	0x3e6b9076	0.23004326
3	0xbd306d93	-0.043073248
4	0x3e063e93	0.13109808
5	0x3dc998bd	0.09843586
6	0x3d353e41	0.044248823
7	0x3e34cc20	0.17655993
8	0xbd3e274c	-0.046424195
9	0x3d8b0136	0.0678734
10	0xbe247121	-0.1605878
11	0x3e3e0a10	0.18558526
12	0x80062be7	-5.66762e-40
13	0x80060f57	-5.56516e-40
14	0x80063136	-5.68667e-40
15	0x0006d3bb	6.26968e-40
16	0x000649c7	5.7748e-40
17	0x0006bb2c	6.18158e-40
18	0x80063974	-5.71623e-40
19	0x800687a5	-5.99673e-40
20	0x80057c04	-5.03666e-40
21	0x80069d73	-6.07495e-40
22	0x000690d3	6.02966e-40
23	0x00047998	4.10962e-40
24	0xbec0ffd4	-0.3769518
25	0x3e953fe9	0.29150322
26	0x3e972384	0.29519284
27	0xbe75fe31	-0.24022748
28	0xbcf2e868	-0.029651836
29	0xbe45e123	-0.19324164
30	0x3eb9d1f1	0.36292985
31	0xbe6a1e77	-0.22863184
32	0x3e055d76	0.13023934
33	0xbc83d4c8	-0.016092673
34	0x3e8240c3	0.25440034
35	0x3c518fa9	0.012790599
36	0x3b8e8202	0.004348994
37	0x3ea6a4c2	0.32547575
38	0x3d58f915	0.052971918
39	0xbe43101b	-0.19049112
40	0x3d804210	0.062626004
41	0x3e168191	0.14697863
42	0x3de94086	0.1138926
43	0xbcd3ae8c	-0.025840066
44	0x3e1e236b	0.15443198
45	0x3ce12033	0.027481174
46	0xbd33f8a3	-0.04393829
47	0xb9ae641d	-0.00033262456

fc_output.weight f4 [1, 12]
0	0x3e293994	0.1652587
1	0x3e1db5dc	0.15401405
2	0x3e6fe1e7	0.23426019
3	0x3e92f7bb	0.28704628
4	0x3dd0a6aa	0.10188039
5	0xbe1d8333	-0.1538208
6	0x3df5328a	0.1197253
7	0xbda24446	-0.079231784
8	0x3a52fcdc	0.0008048543
9	0x3d231aae	0.039820366
10	0x3e4bf725	0.19918497
11	0xbe02d676	-0.12777123
