model.pth (torch, 69718 bytes, 23 tensors)

cnn.0.weight f4 [16, 10, 1]
0.003979438 -0.32199317 -0.06462236 -0.33161965 0.13021667 0.12657687 -0.25725383 0.2940529
-0.115227714 0.27611277 -0.096138075 0.109557465 -0.233621 -0.21040554 -0.19409864 -0.22718239
-0.22809452 0.2977829 -0.06316046 -0.109876916 0.030500706 -0.22115527 -0.008599737 0.30595446
0.17991064 0.24016038 0.20282498 0.2788322 -0.10693984 0.31000054 -0.16143572 -0.03770263
-0.2447352 -0.067721695 0.16256528 0.22712542 0.029156487 0.2507716 -0.2789774 -0.25126475
-0.30041084 -0.03989056 0.045685332 0.12394737 0.23107591 0.12035827 0.034448516 0.032647423
0.1421274 0.18984668 -0.08588491 -0.0005537988 0.103584394 0.2578285 -0.029633533 -0.20217963
0.04456655 -0.06829702 0.1958013 0.0294962 -0.31759232 -0.3173214 -0.06631554 -0.12604146
-0.17329986 0.1592161 -0.20083933 0.10170503 0.13060032 -0.05345858 -0.12990779 0.08530454
0.28073463 0.120018005 -0.11550197 -0.06287367 0.23057364 0.28346035 0.22660182 0.27230257
-0.012418331 -0.26830015 0.019813802 0.158968 -0.25077155 0.28387877 0.020060444 0.16481075
0.28694937 0.10403097 0.013878757 0.12817878 0.28848863 -0.27068305 -0.015708096 -0.034279764
-0.096034445 -0.02103056 -0.033157848 -0.15228109 -0.20303182 -0.23728837 -0.22442614 -0.2956526
0.064623185 0.07296633 -0.30514398 -0.010356082 0.22071116 -0.13725272 0.17702438 -0.034909163
-0.25401834 0.11421522 -0.3068205 0.24250172 0.1031532 0.03570017 -0.13812561 -0.15501538
-0.3010319 -0.18445176 0.11747934 -0.008567232 -0.27989784 -0.26810822 0.21298347 0.28302732
0.08675636 0.1054398 0.1473106 0.1590378 -0.30077595 -0.23754264 -0.1570697 0.004666806
-0.21812686 -0.2986036 -0.030827396 0.0005896379 0.21240364 -0.018986767 -0.14877352 0.030815735
0.29228798 0.19683489 0.038963284 -0.13201 0.2803082 -0.14509213 -0.056226544 0.1946881
0.12719618 -0.049772967 0.24982698 0.28418517 0.20574433 -0.25871786 0.014852416 0.09160272
00000000: f265 823b 4adc a4be ba58 84bd 0dca a9be
00000010: 8557 053e 5e9d 013e c6b6 83be 1a8e 963e
00000020: 82fc ebbd a75e 8d3e 0ae4 c4bd aa5f e03d
00000030: 583a 6fbe 8d74 57be cbc1 46be 80a2 68be
00000040: 9c91 69be 0077 983e 455a 81bd 2607 e1bd
00000050: 9edc f93c 8776 62be e9e5 0cbc 10a6 9c3e
00000060: 7f3a 383e 9aec 753e 5ab1 4f3e 18c3 8e3e
00000070: 4603 dbbd 64b8 9e3e 684f 25be 136e 1abd
00000080: dd9b 7abe acb1 8abd 8377 263e 9193 683e
00000090: 96d9 ee3c 2365 803e 20d6 8ebe c6a5 80be
000000a0: 73cf 99be 4964 23bd 8b20 3b3d 1ed8 fd3d
000000b0: 2a9f 6c3e 667e f63d e319 0d3d 4eb9 053d
000000c0: d889 113e 2b67 423e 6de4 afbd cf2c 11ba
000000d0: 0e24 d43d 1902 843e 06c2 f2bc 2d08 4fbe
000000e0: 6a8b 363d 4fdf 8bbd 2380 483e 04a2 f13c
000000f0: 769b a2be f377 a2be 71d0 87bd 0311 01be
00000100: 8575 31be 8c09 233e d3a8 4dbe ba4a d03d
00000110: 17bc 053e 62f7 5abd 8c06 05be 26b4 ae3d
00000120: 73bc 8f3e 00cc f53d 4c8c ecbd e9c3 80bd
00000130: 7f1b 6c3e b721 913e 4f0a 683e 3e6b 8b3e
00000140: 4176 4bbc a35e 89be 8e50 a23c 82c8 223e
00000150: 2165 80be 8f58 913e cd55 a43c 26c4 283e
00000160: 07eb 923e 300e d53d ba63 633c 4c41 033e
00000170: c8b4 933e f896 8abe 44ae 80bc f068 0cbd
00000180: b5ad c4bd 4848 acbc 86d0 07bd 93ef 1bbe
00000190: 93e7 4fbe b9fb 72be f7cf 65be c75f 97be
000001a0: 2959 843d 5f6f 953d d53b 9cbe 8eac 29bc
000001b0: 1b02 623e fa8b 0cbe e145 353e e9fc 0ebd
000001c0: b10e 82be abe9 e93d 9417 9dbe 5f52 783e
000001d0: fc41 d33d 573a 123d cd70 0dbe 5abc 1ebe
000001e0: da20 9abe ece0 3cbe 0299 f03d 935d 0cbc
000001f0: c54e 8fbe 7b45 89be 5718 5a3e f5e8 903e
00000200: 52ad b13d d2f0 d73d 97d8 163e ceda 223e
00000210: 4eff 99be 613e 73be e1d6 20be 02ec 983b
00000220: a65c 5fbe 92e2 98be bc89 fcbc ee91 1a3a
00000230: 5780 593e 238a 9bbc 1658 18be 4871 fc3c
00000240: c5a6 953e 168f 493e f797 1f3d a12d 07be
00000250: 8e84 8f3e 0893 14be ce4d 66bd 515c 473e
00000260: b73f 023e bdde 4bbd a5d2 7f3e b880 913e
00000270: a4ae 523e ab76 84be 8c57 733c 359a bb3d

cnn.0.bias f4 [16]
0.0005986242 0.00041749838 -0.0053157336 -5.2817406e-05 0.0006682294 0.000688627 9.774657e-05 -0.00029442756
-0.00028525098 -0.00062491716 -3.0983523e-05 -0.011959514 -0.00024777127 -0.0002810242 3.994254e-05 -0.00017418357
00000000: fdec 1c3a afe3 da39 9b2f aebb 4288 5db8
00000010: 1e2c 2f3a fa84 343a 4afd cc38 665d 9ab9
00000020: bd8d 95b9 7bd1 23ba 4ef4 01b8 d6f1 43bc
00000030: 4ce7 81b9 6e56 93b9 fa87 2738 0ca5 36b9

cnn.1.weight f4 [16]
0.9698303 0.99297863 1.0094179 1.0026652 0.97849554 1.0143907 0.9989476 0.9951248
0.9844114 1.0176224 0.9803216 1.0007913 0.9905243 0.9761113 0.9940618 0.99511033
00000000: cc46 783f d933 7e3f 9b34 813f 5557 803f
00000010: af7e 7a3f 8ed7 813f 08bb 7f3f 80c0 7e3f
00000020: 6302 7c3f 7341 823f 5bf6 7a3f ee19 803f
00000030: 0093 7d3f 6ee2 793f d67a 7e3f 8dbf 7e3f

cnn.1.bias f4 [16]
-0.020126168 -0.0010898341 0.01979144 -0.0032134557 -0.0041602897 0.03183472 0.002695435 0.015952524
-0.010673246 0.02267438 -0.023600833 0.011891276 -0.021332912 -0.013571745 0.0063869804 0.0073950747
00000000: a2df a4bc c4d8 8eba a821 a23c d798 52bb
00000010: 0a53 88bb 2065 023d e5a5 303b deae 823c
00000020: d7de 2ebc 9fbf b93c 8956 c1bc a0d3 423c
00000030: 5cc2 aebc 065c 5ebc e049 d13b 6252 f23b

cnn.1.running_mean f4 [16]
-0.0084032845 -0.24457546 0.35049784 0.037416924 0.15705952 -0.029963821 -0.11878653 0.26033527
0.2099574 -0.062294126 -0.21612975 0.04561983 -0.06436859 -0.22828546 0.16358832 0.24091016
00000000: eead 09bc fd71 7abe 7474 b33e 7d42 193d
00000010: 36d4 203e b076 f5bc 5a46 f3bd aa4a 853e
00000020: 13ff 563e 2028 7fbd 1e51 5dbe dcdb 3a3d
00000030: aed3 83bd aac3 69be b283 273e 27b1 763e

cnn.1.running_var f4 [16]
0.0023042075 0.011672036 0.016834835 0.0075255516 0.0036880393 0.0029801698 0.010793966 0.015115723
0.0057029827 0.00033703158 0.0133764725 0.0065748696 0.002853117 0.009520806 0.005519505 0.009355385
00000000: 3002 173b 113c 3f3c 35e9 893c e798 f63b
00000010: 08b3 713b f44e 433b 2dd9 303c f0a7 773c
00000020: 16e0 ba3b 9db3 b039 fe28 5b3c 0172 d73b
00000030: 5cfb 3a3b 28fd 1b3c f7dc b43b 5447 193c

cnn.4.weight f4 [32, 16, 4]
-0.036885556 -0.0019784826 0.041268166 -0.016396632 -0.028523851 -0.09139218 -0.14600538 -0.063197196
0.050350357 0.01765877 0.047520556 0.109254815 0.024530653 0.014622939 -0.08289887 -0.04411968
-0.09136681 0.10546359 -0.061464183 0.06236823 0.033167306 -6.250867e-05 -0.084342495 0.03590943
-0.035151836 0.083429016 -0.00024046042 -0.119730346 0.1339616 -0.075121544 0.075171985 -0.11210634
0.06326225 0.012061458 -0.009089239 0.11227768 -0.072249204 -0.12047083 0.024929801 -0.08756388
0.080194704 -0.06808316 -0.034454055 0.059090648 0.120846994 0.11551309 -0.116087995 -0.030285385
0.07233587 -0.05539535 -0.03620313 -0.11419131 -0.017384483 0.055154067 -0.13234511 -0.019788396
0.08404567 -0.08832017 0.07521732 0.080564186 0.017144632 -0.06852458 -0.035175193 0.040050335
-0.065613665 -0.036734056 -0.011125749 -0.07640489 -0.02757044 0.010534261 0.00787326 0.0614521
0.090877235 0.069519565 0.09816949 0.07155826 0.005228328 -0.09268052 -0.06898317 -0.09217639
0.041844606 -0.06023199 0.0107421605 -0.063582785 -0.11079736 -0.0117062 0.06287937 -0.07306514
0.02676724 -0.031358182 -0.048829295 -0.036121763 -0.04880788 -0.030996779 0.13060811 0.040785328
-0.050324302 0.035831146 0.01226592 -0.033384208 -0.08111786 -0.08829054 -0.06329197 0.00016743086
-0.0875852 -0.10548172 -0.11682571 -0.060604945 0.031206843 -0.10161697 0.00788408 -0.029387431
-0.01858667 0.09497536 0.1036519 -0.023727432 -0.0011952068 -0.098255135 -0.05426687 -0.13743147
-0.07207141 0.0068740803 0.0010802483 0.13797845 0.0063858875 0.0626907 -0.046053845 -0.008236372
0.08629511 -0.073409215 0.040295675 -0.01962478 -0.13573657 -0.10865817 -0.106231004 -0.022394624
0.14973176 0.07994797 0.021056756 0.12420539 -0.08295142 0.12684561 -0.110017136 -0.04994729
0.04378249 0.03555656 -0.094209895 -0.059289448 -0.07880508 0.06480787 0.052618735 -0.06421625
-0.032217447 0.035161678 -0.052784707 -0.093894586 0.074954 0.017047267 0.099959604 0.13092896
0.074682735 -0.058535196 -0.092354886 0.12531446 -0.079338185 0.016398314 0.084367886 -0.09261175
-0.046178743 0.07722923 0.07760163 0.015519058 -0.10821946 0.13048038 -0.10829531 -0.026268708
0.043369245 -0.034450956 0.083663434 -0.111259535 -0.042097375 -0.13873585 -0.13090731 -0.10058693
-0.082666814 0.023237623 -0.077065274 -0.030146202 0.095120415 -0.05524335 -0.018700853 0.1201733
0.0743438 -0.0570925 0.08939381 0.018669527 0.10783004 0.10967726 -0.08082449 0.037586484
0.04662338 -0.10851669 -0.1529012 -0.10437056 0.08682736 -0.011763048 0.091965504 -0.117757946
0.09312333 -0.019093202 -0.06918927 0.008670932 -0.0036915387 0.13286448 -0.10405739 0.05268327
-0.053924117 0.02312764 0.07635348 -0.04554762 0.07573493 -0.12416962 0.07332086 0.008888554
-0.07426995 -0.066608265 -0.035031933 -0.052083097 0.10408629 0.052130602 0.12621742 0.039842837
-0.017114697 -0.082199045 -0.0481849 -0.012285024 0.005960132 -0.041740198 0.06848222 -0.11545488
0.14479406 -0.10815019 0.08575213 0.07771461 0.05551841 0.040834885 0.03611752 0.11359495
-0.0506765 0.071403936 -0.12759113 -0.017173452 -0.05263283 -0.11672459 -0.021270288 0.08385966
00000000: 4f15 17bd 6ea9 01bb cf08 293d 3b52 86bc
00000010: daaa e9bc d32b bbbd 6f82 15be 886d 81bd
00000020: 2d3c 4e3d 20a9 903c eaa4 423d fdc0 df3d
00000030: 82f4 c83c 0d95 6f3c e2c6 a9bd d6b6 34bd
00000040: 861e bbbd 4bfd d73d dec1 7bbd d475 7f3d
00000050: 71da 073d 1617 83b8 c2bb acbd c415 133d
00000060: 5ffb 0fbd d5dc aa3d 1a24 7cb9 2f35 f5bd
00000070: 3b2d 093e 53d9 99bd c5f3 993d 0298 e5bd
00000080: a38f 813d 6c9d 453c 08eb 14bc d7f1 e53d
00000090: 64f7 93bd 69b9 f6bd 9539 cc3c b154 b3bd
000000a0: 1f3d a43d 2f6f 8bbd b21f 0dbd 0909 723d
000000b0: a17e f73d 2092 ec3d 8bbf edbd 0e19 f8bc
000000c0: d424 943d 3ce6 62bd bc49 14bd 22dd e9bd
000000d0: e769 8ebc 3be9 613d 7a85 07be 461b a2bc
000000e0: 2320 ac3d 35e1 b4bd 8a0b 9a3d d6fe a43d
000000f0: e672 8c3c 9d56 8cbd dd13 10bd d20b 243d
00000100: 7560 86bd 7376 16bd c648 36bc 2b7a 9cbd
00000110: 67db e1bc e597 2c3c d9fe 003c 32b5 7b3d
00000120: d81d ba3d 4660 8e3d 160d c93d 238d 923d
00000130: 6552 ab3b 49cf bdbd 0c47 8dbd fac6 bcbd
00000140: 4065 2b3d d2b5 76bd e3ff 2f3c b137 82bd
00000150: bae9 e2bd 5dcb 3fbc e6c6 803d 2da3 95bd
00000160: f946 db3c 7071 00bd 3a01 48bd 6af4 13bd
00000170: c6ea 47bd f5ec fdbc 22be 053e 840e 273d
00000180: db20 4ebd aec3 123d fff6 483c e1bd 08bd
00000190: 1f21 a6bd acd1 b4bd 389f 81bd 6190 2f39
000001a0: df5f b3bd cd06 d8bd 5142 efbd e43c 78bd
000001b0: 7ea5 ff3c 8f1c d0bd 3a2c 013c e9bd f0bc
000001c0: 1243 98bc 7182 c23d 7347 d43d 0860 c2bc
000001d0: 7ca8 9cba fd39 c9bd f046 5ebd d6ba 0cbe
000001e0: 2d9a 93bd f73f e13b 1e97 8d3a 394a 0d3e
000001f0: b540 d13b fb63 803d f5a2 3cbd d9f1 06bc
00000200: 7ebb b03d 9257 96bd 140d 253d 26c4 a0bc
00000210: 87fe 0abe 2d88 debd a48f d9bd ee74 b7bc
00000220: 4853 193e c3bb a33d 387f ac3c 655f fe3d
00000230: 6fe2 a9bd d1e3 013e aa50 e1bd 8895 4cbd
00000240: 4555 333d c1a3 113d 1ef1 c0bd 7ed9 72bd
00000250: 8f64 a1bd fdb9 843d be86 573d cf83 83bd
00000260: 71f6 03bd b105 103d c734 58bd ce4b c0bd
00000270: 7c81 993d b6a6 8b3c 9fb7 cc3d 3e12 063e
00000280: 43f3 983d 9ac2 6fbd 8f24 bdbd 6f52 003e
00000290: 0f7c a2bd c255 863c 12c9 ac3d 3bab bdbd
000002a0: ec25 3dbd 5c2a 9e3d 9aed 9e3d a643 7e3c
000002b0: 2aa2 ddbd a69c 053e eec9 ddbd 7931 d7bc
000002c0: f3a3 313d 721c 0dbd bc57 ab3d 0adc e3bd
000002d0: 4c6e 2cbd c510 0ebe 910c 06be 8500 cebd
000002e0: 384d a9bd d45c be3c 66d4 9dbd 2bf5 f6bc
000002f0: 7ece c23d da46 62bd 8832 99bc 6b1d f63d
00000300: 9041 983d d3d9 69bd 1a14 b73d d6f0 983c
00000310: ffd5 dc3d 799e e03d 4f87 a5bd 49f4 193d
00000320: 28f8 3e3d 003e debd 2292 1cbe 3bc0 d5bd
00000330: 8bd2 b13d cdb9 40bc 6958 bc3d 142b f1bd
00000340: 72b7 be3d 5969 9cbc 1bb3 8dbd 8610 0e3c
00000350: beed 71bb a00d 083e 0a1c d5bd 6aca 573d
00000360: 89df 5cbd 2d76 bd3c 375f 9c3d 2490 3abd
00000370: ea1a 9b3d a44c febd 3f29 963d 4ca1 113c
00000380: d81a 98bd ea69 88bd a57d 0fbd 1655 55bd
00000390: 312b d53d e686 553d 243f 013e 3e32 233d
000003a0: 1f34 8cbc f957 a8bd 885d 45bd 2047 49bc
000003b0: 364d c33b c5f7 2abd 6840 8c3d 9c73 ecbd
000003c0: e544 143e d97d ddbd d09e af3d d628 9f3d
000003d0: 4667 633d 7b42 273d f7ef 133d 78a4 e83d
000003e0: 2992 4fbd 3a3c 923d 40a7 02be 57af 8cbc
000003f0: 8695 57bd 4d0d efbd 073f aebc 9dbe ab3d

cnn.4.bias f4 [32]
5.8535483e-05 -1.08583645e-05 2.1780586e-05 1.4409453e-05 3.3595108e-05 6.184113e-05 3.0049243e-05 2.748477e-05
1.5663718e-05 1.8207902e-05 1.512613e-05 7.498368e-05 5.8026868e-05 -2.1478601e-05 0.00015762885 6.702119e-05
-7.333365e-06 -7.7009056e-05 -3.546252e-05 9.691707e-06 0.000114649316 -6.7068206e-05 -3.6762238e-05 3.0048517e-05
8.068801e-05 7.246525e-05 1.0446098e-05 6.9681424e-05 -3.7618476e-05 -6.5104854e-05 -3.0645293e-05 -3.6189318e-05
00000000: ff83 7538 522c 36b7 74b5 b637 21c0 7137
00000010: 79e8 0c38 b4b0 8138 4212 fc37 188f e637
00000020: 9465 8337 2cbd 9837 3cc6 7d37 8f40 9d38
00000030: e061 7338 f22c b4b7 2c49 2539 ba8d 8c38
00000040: 2011 f6b6 ec7f a1b8 97bd 14b8 9199 2237
00000050: e26f f038 f8a6 8cb8 2731 1ab8 b310 fc37
00000060: 0c37 a938 7cf8 9738 a641 2f37 ee21 9238
00000070: 88c8 1db8 e788 88b8 2289 00b8 fcc9 17b8

cnn.5.weight f4 [32]
0.9595627 0.986538 0.9838908 1.0065601 1.0192094 1.0280303 1.0197089 0.9802549
0.9916761 1.006848 0.97415435 1.0237399 0.9752404 0.9815763 0.9843205 0.9783965
0.9702542 0.97169745 0.9989568 0.9933115 0.9726389 1.0135088 0.99316484 1.00717
0.97362316 0.9944245 0.9808268 0.9676385 0.9871187 1.0216403 0.99303144 1.02597
00000000: e7a5 753f c18d 7c3f 44e0 7b3f f6d6 803f
00000010: 7475 823f 7f96 833f d285 823f fcf1 7a3f
00000020: 7cde 7d3f 65e0 803f 2e62 793f e909 833f
00000030: 5ba9 793f 9648 7b3f 6efc 7b3f 3178 7a3f
00000040: 9462 783f 2ac1 783f a2bb 7f3f aa49 7e3f
00000050: ddfe 783f a8ba 813f 0d40 7e3f f2ea 803f
00000060: 5e3f 793f 9b92 7e3f 7717 7b3f 28b7 773f
00000070: d0b3 7c3f 1cc5 823f 4f37 7e3f fc52 833f

cnn.5.bias f4 [32]
-0.010713354 -0.0068581593 -0.018634576 0.009412743 0.020040289 0.027320541 0.012572263 -0.012836529
-0.0006894134 0.0044246805 -0.02975694 0.01373632 -0.026054949 -0.009365938 0.0036912288 -0.02418694
-0.035678085 -0.026544873 0.0067997146 -0.010648185 -0.014439038 0.024362972 -0.0021662246 0.019594776
0.0064437445 0.00096049265 0.008959603 -0.037486292 0.009555574 0.0015479727 0.0033134378 0.022690667
00000000: 1087 2fbc 69ba e0bb 8aa7 98bc e837 1a3c
00000010: 882b a43c 54cf df3c e5fb 4d3c 4e50 52bc
00000020: c0b9 34ba e9fc 903b d4c4 f3bc 4d0e 613c
00000030: 3071 d5bc 9773 19bc 8be8 713b b123 c6bc
00000040: 2f23 12bd a274 d9bc 24d0 de3b ba75 2ebc
00000050: b791 6cbc db94 c73c 38f7 0dbb 3985 a03c
00000060: 0c26 d33b 92c9 7b3a 4ccb 123c 3a8b 19bd
00000070: fb8e 1c3c 58e5 ca3a 4326 593b c7e1 b93c

cnn.5.running_mean f4 [32]
-0.13674277 -0.34676993 -0.14583938 0.04203297 0.08921265 0.038505044 -0.22446129 -0.41848305
0.0330708 0.3554133 0.013895313 -0.0028795276 -0.38409054 0.13874161 -0.089461654 -0.15045725
-0.02051768 0.093431436 0.4517417 0.21067405 -0.29686868 -0.43293148 0.093851335 0.05406782
-0.20386247 0.015146666 -0.26951644 0.10277103 0.16001019 -0.10328463 -0.11346622 -0.047807906
00000000: 4c06 0cbe d48b b1be eb56 15be c32a 2c3d
00000010: 1fb5 b63d 77b7 1d3d 2ed9 65be 6943 d6be
00000020: 3f75 073d bbf8 b53e 2ba9 633c 75b6 3cbb
00000030: 84a7 c4be 4812 0e3e ac37 b7bd 7711 1abe
00000040: b214 a8bc fb58 bf3d b04a e73e f0ba 573e
00000050: 2cff 97be 32a9 ddbe 2135 c03d 3876 5d3d
00000060: 53c1 50be b929 783c 0ffe 89be 9e79 d23d
00000070: b6d9 233e e486 d3bd fa60 e8bd 39d2 43bd

cnn.5.running_var f4 [32]
0.31413317 0.38916197 0.34680548 0.34580508 0.055491023 0.103509456 0.26520446 0.21452098
0.06406862 0.14712656 0.17824815 0.059219453 0.18588823 0.07579762 0.048318297 0.06504257
0.065926746 0.3206129 0.17258269 0.16138116 0.15173867 0.28972414 0.14055194 0.14226627
0.10421046 0.0741324 0.551984 0.09593831 0.11248895 0.047991566 0.34398428 0.23531334
00000000: 10d6 a03e 3d40 c73e 7d90 b13e 5d0d b13e
00000010: 8e4a 633d c4fc d33d e1c8 873e 63ab 5b3e
00000020: 6936 833d 58a8 163e af86 363e 1990 723d
00000030: 7c59 3e3e c83b 9b3d 68e9 453d 0a35 853d
00000040: 9a04 873d 6027 a43e 84b9 303e 1a41 253e
00000050: 6261 1b3e b956 943e d9ec 0f3e 40ae 113e
00000060: 4b6c d53d bad2 973d d34e 0d3f 4e7b c43d
00000070: 9b60 e63d ce92 443d b51e b03e fbf5 703e

fc_hidden.0.weight f4 [12, 992]
-0.0035496296 -0.012542316 0.017725654 -0.0098338 -0.0153536135 0.017193213 -0.00197964 -0.002367636
0.015702663 0.01293701 0.003216331 0.012491187 -0.011486431 -0.044491127 -0.012974497 -0.053821363
-0.01537933 -0.03441265 -0.018391293 0.046980012 -0.032345742 0.006605885 -0.02806137 -0.018685501
-0.033685926 -0.004762643 0.015570148 -0.036664546 0.01943894 -0.008858434 -0.0059379204 0.0027667198
0.018214121 0.023005603 0.0018903796 -0.023959357 0.0029441002 0.03716699 0.015213157 -0.0016028945
-0.017426563 0.0050355922 -0.0028118617 -0.021430183 -0.030306304 -0.035598274 -0.006368297 -0.02914841
-0.021255603 0.00410163 -0.046746828 -0.0020635868 0.028118903 -0.0026203254 0.001483871 -0.03674504
-0.025792865 0.008436744 -0.018996915 -0.009733482 0.016775504 0.00018772119 0.01394434 -0.0061501027
0.010165104 -0.010862615 -0.013746378 0.010959832 0.010569796 -0.0075357878 0.011003833 -0.024936052
0.022526605 -0.0021653336 -0.015726104 0.008176356 0.027619405 0.0238022 -0.005657312 0.0014766061
-0.056947894 0.0036395097 0.0057955394 -0.036314793 -0.017740218 0.03382363 -0.0011627119 -0.007818745
-0.013903904 0.025604257 -0.010554652 -0.0048555396 -0.022456843 0.037401486 -0.033201735 -0.0012409525
-0.020442758 0.039915096 -0.012803587 0.018449932 -0.05048062 0.017034363 -0.008147986 -0.017889779
0.018843662 0.014445941 -0.0014997873 -0.00042543287 0.04636114 -0.0007865557 -0.010543485 -0.025939636
-0.02090115 0.022340642 0.007642311 0.032059804 -0.020892508 -0.020197174 0.008909337 0.006881923
0.025224445 0.025855508 -0.00056333205 -0.031206299 -0.020636462 -0.0016087845 -0.0031734873 -0.048322696
-0.0099903755 -0.02006492 -0.010568955 0.005083867 -0.036332812 0.020446036 -0.014837248 0.013097932
0.03227001 -0.016229419 -0.050749224 -0.02439961 0.033580117 -0.016251907 0.0006540255 -0.012209273
-0.0017391358 0.0063310848 0.024962464 0.0019503017 -0.0040344754 -0.033857685 -0.012867199 0.0005010968
0.0049534063 -0.0012074349 0.041767355 -0.06132915 -0.027045311 0.03041574 -0.03427873 0.016807156
-0.028340533 0.0035375406 0.007014132 0.023259522 0.015800944 -0.000352257 -0.005311445 -0.005322208
-0.008685695 -0.008815339 0.010472153 0.006882069 0.010262375 -0.002267213 -0.004771444 0.008497779
-0.024746614 -0.006823184 -0.02565575 -0.05018242 0.0067174803 -0.033170886 -0.029817402 -0.040907886
0.01745081 -0.020402137 -6.043216e-15 -0.030785535 0.03821321 0.018986952 -0.010367511 -0.039355665
-0.03275128 -0.0046769404 -0.021150887 0.0045666345 -0.0018031728 0.00050884223 -0.0127201015 0.017714193
0.06259867 0.0123468265 -0.016439456 -0.009461795 0.010977769 0.0036767279 0.02076641 -0.024416469
0.00031491352 -0.022460718 0.012834359 -0.0004452189 0.013087133 0.020709146 -0.020540597 -0.02662402
-0.018340802 -0.003070089 0.009731456 -0.0037972974 -0.005221118 0.024603551 0.00052641315 -0.014652752
0.023198701 -0.0075104157 0.022042435 -0.009994622 0.020864887 -0.003620421 0.0127821565 0.031012353
0.017416734 -0.0020828191 -0.0018482166 0.0028505644 -0.0075428397 -0.007498171 0.004288094 -0.007356187
0.0026015616 0.011445811 -0.015006115 -0.016161177 0.043066453 0.033989843 -0.027619794 -0.04120176
-0.021075448 -0.0007852972 -0.004043628 0.025941065 0.020252004 0.008962879 -0.02046813 -0.021010054
00000000: e7a0 68bb 497e 4dbc 6435 913c f21d 21bc
00000010: b98d 7bbc c8d8 8c3c d9bc 01bb 572a 1bbb
00000020: dfa2 803c c1f5 533c 14c9 523b d6a7 4c3c
00000030: 9531 3cbc 543c 36bd fc92 54bc ca73 5cbd
00000040: 96f9 7bbc 47f4 0cbd 56a9 96bc 1d6e 403d
00000050: f87c 04bd 2e76 d83b f5e0 e5bc 5612 99bc
00000060: 41fa 09bd f20f 9cbb ef19 7f3c 902d 16bd
00000070: 693e 9f3c f722 11bc e392 c2bb db51 353b
00000080: c835 953c 3f76 bc3c 9dc6 f73a 6a46 c4bc
00000090: cef1 403b 6a3c 183d 9b40 793c 3718 d2ba
000000a0: 27c2 8ebc 9c01 a53b 3647 38bb 5a8e afbc
000000b0: ed44 f8bc 7fcf 11bd 26ad d0bb a5c8 eebc
000000c0: 3b20 aebc f766 863b 9a79 3fbd 3e3d 07bb
000000d0: 9d59 e63c c4b9 2bbb 737e c23a f881 16bd
000000e0: 8f4b d3bc 453a 0a3c 6b9f 9bbc 2f79 1fbc
000000f0: c86c 893c 06d7 4439 cd76 643c cd86 c9bb
00000100: 898b 263c 1cf9 31bc 7d38 61bc de90 333c
00000110: f02c 2d3c c5ee f6bb 6c49 343c b146 ccbc
00000120: b789 b83c 45e8 0dbb 08d4 80bc 1ff6 053c
00000130: 1742 e23c d5fc c23c f960 b9bb ae8a c13a
00000140: 3242 69bd d784 6e3b 82e8 bd3b d2be 14bd
00000150: ef53 91bc a68a 0a3d 2366 98ba 321a 00bc
00000160: 33cd 63bc 05c0 d13c 6bed 2cbc 381b 9fbb
00000170: 6af7 b7bc 4d32 193d 8bfe 07bd 75a7 a2ba
00000180: 9277 a7bc 037e 233d 23c6 51bc 5024 973c
00000190: c4c4 4ebd a68b 8b3c 217f 05bc 968d 92bc
000001a0: 065e 9a3c abae 6c3c 8394 c4ba a20c dfb9
000001b0: 2ee5 3d3d dc30 4eba 95be 2cbc 5c7f d4bc
000001c0: e338 abbc b903 b73c 5a6c fa3b 2451 033d
000001d0: c426 abbc 8b74 a5bc 78f8 113c c181 e13b
000001e0: 7fa3 ce3c eece d33c 93ac 13ba 5aa4 ffbc
000001f0: cc0d a9bc dadd d2ba 48fa 4fbb 05ee 45bd
00000200: acae 23bc 305f a4bc 6929 2dbc 9196 a63b
00000210: b7d1 14bd 727e a73c ee17 73bc b598 563c
00000220: 8f2d 043d 8ff3 84bc 6bde 4fbd b1e1 c7bc
00000230: 4e8b 093d b822 85bc e972 2b3a 6709 48bc
00000240: b7f3 e3ba fd74 cf3b 157e cc3c 44a1 ff3a
00000250: a233 84bb 5bae 0abd f2d0 52bc 095c 033a
00000260: 2f50 a23b cb42 9eba 3f14 2b3d 4634 7bbd
00000270: 218e ddbc 6e2a f93c db67 0cbd 29af 893c
00000280: 682a e8bc 15d6 673b ced6 e53b c18a be3c
00000290: fb70 813c 22af b8b9 a10b aebb eb65 aebb
000002a0: 724e 0ebc 366e 10bc 6593 2b3c fb82 e13b
000002b0: 8523 283c 8695 14bb c659 9cbb 453a 0b3c
000002c0: 69b9 cabc 0495 dfbb 022c d2bc 158c 4dbd
000002d0: 4f1e dc3b 32de 07bd a043 f4bc 078f 27bd
000002e0: 00f5 8e3c 6222 a7bc d4ba d9a7 f231 fcbc
000002f0: 7485 1c3d 868a 9b3c 7edc 29bc 6833 21bd
00000300: 3526 06bd 0541 99bb a044 adbc b5a3 953b
00000310: 7058 ecba d363 053a f967 50bc 5b1d 913c
00000320: bb33 803d 584a 4a3c 0aac 86bc a505 1bbc
00000330: 1adc 333c 42f5 703b 511e aa3c 0c05 c8bc
00000340: fa1a a539 8aff b7bc 3447 523c 456c e9b9
00000350: 6a6b 563c 3aa6 a93c c144 a8bc 9e1a dabc
00000360: 733f 96bc 8c33 49bb af70 1f3c 14dc 78bb
00000370: ea15 abbb 638d c93c fdfe 093a 1912 70bc
00000380: 340b be3c ef19 f6bb 5692 b43c 7cc0 23bc
00000390: d7ec aa3c 9644 6dbb 406c 513c 9e0d fe3c
000003a0: 8aad 8e3c e87f 08bb dc3f f2ba 89d0 3a3b
000003b0: ed29 f7bb 38b3 f5bb 2483 8c3b 2b0c f1bb
000003c0: f67e 2a3b 3687 3b3c 35dc 75bc 7264 84bc
000003d0: 7366 303d ef38 0b3d e842 e2bc 2dc3 28bd
000003e0: 6ba6 acbc 67dc 4dba 6980 84bb 5b82 d43c
000003f0: 88e7 a53c 0ad9 123c c8ac a7bc 471d acbc

fc_hidden.0.bias f4 [12]
-3.0428495e-05 -1.0852682e-05 0.000156194 -0.00012387549 -2.3810158e-05 -5.9404338e-05 -4.3655775e-05 4.731158e-06
-4.928136e-05 5.895768e-06 -0.0001351319 1.2222928e-05
00000000: b240 ffb7 ea13 36b7 02c8 2339 93e4 01b9
00000010: edbb c7b7 ec28 79b8 081b 37b8 56c0 9e36
00000020: 75b3 4eb8 43d4 c536 31b2 0db9 1311 4d37

fc_hidden.1.weight f4 [12]
1.026147 0.99460244 1.0134403 1.0127542 1.0408586 1.007208 1.012747 1.0303545
1.0422248 0.9535935 1.0372447 0.9349087
00000000: c958 833f 449e 7e3f 69b8 813f eea1 813f
00000010: db3a 853f 31ec 803f b2a1 813f a8e2 833f
00000020: 9f67 853f b41e 743f 6fc4 843f 2d56 6f3f

fc_hidden.1.bias f4 [12]
0.06815494 0.048476234 0.055402514 0.072062045 0.07936009 -0.0128479535 0.066367604 0.0778567
0.09706917 -0.029833993 0.09330339 -0.027019918
00000000: d194 8b3d 048f 463d bfed 623d 4495 933d
00000010: 8b87 a23d 3980 52bc bdeb 873d 5573 9f3d
00000020: 33cc c63d 6b66 f4bc d915 bf3d e058 ddbc

fc_hidden.1.running_mean f4 [12]
-1.5459839 -0.6920262 1.0035237 -0.2856785 0.23965083 -0.04774658 0.2943216 -0.5286284
-0.7289325 0.45692402 -0.6555454 -0.028308932
00000000: cde2 c5bf a128 31bf 7773 803f 7444 92be
00000010: 0767 753e eb91 43bd 52b1 963e 3154 07bf
00000020: 529b 3abf f2f1 e93e d3d1 27bf 22e8 e7bc

fc_hidden.1.running_var f4 [12]
0.3188 0.23605101 0.39979962 0.34737518 0.2932027 0.22354442 0.33007154 0.28244606
0.26716417 0.27912614 0.32716998 0.21918279
00000000: c139 a33e 5bb7 713e 89b2 cc3e 29db b13e
00000010: aa1e 963e d4e8 643e 23ff a83e c59c 903e
00000020: bec9 883e 9fe9 8e3e d382 a73e 7471 603e

rnn.weight_ih_l0 f4 [48, 12]
0.111147776 0.1468091 0.11067988 -0.29716572 0.2366155 -0.22399367 -0.14712782 0.057569195
-0.25394526 -0.1689289 0.09835366 0.19510694 0.13345923 -0.083153136 -0.09266349 -0.024493363
-0.16244318 0.03336545 0.059538946 -0.19748212 -0.10524165 -0.16687705 0.17767408 0.28959236
0.061269194 0.112371124 -0.028785346 -0.08743988 0.30038694 -0.1747438 -0.17997497 0.27684957
0.06929027 -0.07174151 -0.11517853 0.28309193 0.12900837 0.17342529 -0.0037683174 0.07122619
0.2014237 0.07804458 -0.17736098 -0.0963001 -0.030146182 0.03867849 0.21806212 -0.23173222
-0.15560658 0.21291365 0.1516461 -0.07789617 -0.18541886 -0.21142264 0.035024468 0.18931794
-0.14509022 -0.24419719 -0.3031868 0.1488237 -0.32710305 0.08273574 -0.11462883 -0.2043426
-0.050705686 0.3263761 -0.111281514 -0.008458702 0.017041087 -0.14350764 -0.16324456 0.10907672
0.2933407 0.06716006 -0.07120783 0.0017798621 -0.19017732 -0.10539417 0.26807138 -0.30130973
0.0675296 -0.025182413 -0.084964946 -0.066548616 0.09476371 -0.1374908 -0.1485042 -0.12691142
0.07445335 -0.093385465 -0.306313 -0.014722579 0.2642388 0.22523518 -0.026698515 0.24931774
0.1555652 0.26308495 0.040942375 -0.0048517683 -0.22828852 -0.061270554 -0.23213083 -0.114673935
0.226242 0.16400033 -0.2822866 -0.19322577 0.07045759 0.022997394 0.16795734 0.30328828
0.28253594 0.28541905 0.14279743 0.18679106 0.07124259 0.06897027 0.27947676 0.24670143
0.19055247 -0.07526322 0.082368165 -0.32132852 0.06082638 0.15994301 -0.033116 -0.12778762
-0.041445237 -0.33568335 0.12181978 0.059796315 -0.21525238 -0.20313735 -0.03136918 -0.18049304
-0.14349832 -0.08389911 0.05867616 -0.11635701 -0.05167176 -0.22262505 -0.2789434 -0.07760898
2.6771895e-11 4.3861996e-15 -0.00020666723 -1.8882296e-13 -2.6405246e-08 8.769183e-07 2.7246488e-11 -7.6884936e-07
2.6543876e-11 -7.9034057e-10 -1.1740742e-12 4.460844e-09 -7.257475e-14 4.0726686e-10 -3.2435985e-14 -8.061562e-10
-4.2860484e-14 4.1613535e-07 5.8895534e-11 3.63968e-12 -7.290695e-07 -7.1516415e-14 3.587299e-07 -9.330836e-10
3.9468195e-10 -6.784719e-11 0.00041338697 1.7195978e-09 -7.88727e-10 -7.8573836e-10 1.3488941e-12 0.00038208257
0.002193318 5.488422e-14 3.624003e-08 -1.2534369e-09 -2.421398e-09 2.8080407e-09 0.002065039 1.9555926e-15
1.8582809e-12 -6.5830377e-09 5.120081e-14 -2.6837215e-05 1.7451986e-11 -3.2985102e-07 2.7248799e-08 -2.0367715e-14
-2.3439096e-14 2.3463915e-08 2.4934517e-08 2.1902829e-11 -2.1783297e-13 4.9333778e-08 -2.2627768e-11 1.0182725e-12
-4.627928e-07 -2.1247581e-09 -1.5326344e-12 -1.06407126e-10 2.7031517e-14 1.7450711e-08 2.9025872e-12 -4.4446885e-12
8.838233e-14 -6.6919986e-10 2.7781196e-05 7.9639173e-10 4.2292697e-10 2.150595e-12 3.761976e-14 -2.5192928e-11
-0.00023054588 -8.01889e-14 7.7062316e-07 5.6753082e-09 -4.459279e-10 4.1517612e-08 -1.0040826e-07 -7.691185e-10
-1.7035823e-07 -3.074782e-14 -2.5854297e-13 7.2073834e-07 -2.3522913e-14 4.857823e-08 -0.00039794025 4.4255614e-08
-5.6492994e-15 -1.243496e-07 1.2187679e-13 2.6903667e-08 0.001319567 1.4929765e-07 2.8993599e-09 9.3448995e-07
-3.4467404e-14 1.1084956e-05 -1.454647e-08 4.707985e-13 -1.3974429e-07 6.9979016e-14 7.582901e-15 1.11054005e-11
-4.4509158e-12 -1.4971251e-08 1.2150399e-07 7.873001e-10 -2.4170756e-13 -2.0768062e-16 -5.416081e-12 -6.290044e-08
00000000: 72a1 e33d 2055 163e 22ac e23d 1b26 98be
00000010: 554b 723e 995e 65be ada8 16be adcd 6b3d
00000020: 1d05 82be b3fb 2cbe a56d c93d 1dca 473e
00000030: 89a9 083e 314c aabd 5bc6 bdbd 4ea6 c8bc
00000040: 8157 26be 36aa 083d 1cdf 733d c138 4abe
00000050: ef88 d7bd d1e1 2abe 32f0 353e 7345 943e
00000060: 68f5 7a3d d522 e63d 3fcf ebbc ae13 b3bd
00000070: 51cc 993e 0af0 32be 5c4b 38be 3abf 8d3e
00000080: 0fe8 8d3d 36ed 92bd b9e2 ebbd 6df1 903e
00000090: c51a 043e 6696 313e e0f5 76bb 09df 913d
000000a0: 0442 4e3e d6d5 9f3d 1e9e 35be fd38 c5bd
000000b0: 20f5 f6bc 566d 1e3d ad4b 5f3e 364b 6dbe
000000c0: 5557 1fbe 0906 5a3e 1e49 1b3e 0788 9fbd
000000d0: 71de 3dbe 2d7f 58be d175 0f3d 90dc 413e
000000e0: 8892 14be d40e 7abe 4d3b 9bbe 3d65 183e
000000f0: 0d7a a7be 5b71 a93d 85c2 eabd 303f 51be
00000100: c4b0 4fbd c51a a73e 90e7 e3bd 5e96 0abc
00000110: c099 8b3c abf3 12be 9529 27be 9e63 df3d
00000120: c130 963e 378b 893d 69d5 91bd 434a e93a
00000130: d8bd 42be e6d8 d7bd a740 893e 4545 9abe
00000140: f54c 8a3d 594b cebc 1a02 aebd a44a 88bd
00000150: 7a13 c23d 63ca 0cbe 7c11 18be 11f5 01be
00000160: ff7a 983d e140 bfbd 0fd5 9cbe f936 71bc
00000170: 4f4a 873e 0da4 663e d8b6 dabc 264d 7f3e
00000180: 7c4c 1f3e 12b3 863e 31b3 273d 95fb 9ebb
00000190: 77c4 69be d5f6 7abd b4b3 6dbe 2bda eabd
000001a0: fcab 673e b4ef 273e df87 90be fadc 45be
000001b0: 124c 903d 0865 bc3c 02fd 2b3e 9a48 9b3e
000001c0: 8da8 903e 7222 923e 7d39 123e 2846 3f3e
000001d0: a3e7 913d 4940 8d3d 9417 8f3e 4d9f 7c3e
000001e0: 3020 433e 9a23 9abd a4b0 a83d 2c85 a4be
000001f0: 1525 793d 1ac8 233e a5a4 07bd c2da 02be
00000200: 7bc2 29bd b0de abbe a67c f93d fbec 743d
00000210: 1f6b 5cbe 3d03 50be f87c 00bd 2bd3 38be
00000220: 39f1 12be 4cd3 abbd 6a56 703d 964c eebd
00000230: c4a5 53bd d2f7 63be abd1 8ebe 75f1 9ebd
00000240: f37c eb2d 8d07 9e27 d0b4 58b9 8398 54aa
00000250: c0d1 e2b2 5e65 6b35 a3a9 ef2d ed62 4eb5
00000260: 7f7b e92d 463f 59b0 7b3c a5ab 0046 9931
00000270: 7f6c a3a9 b7e5 df2f 2514 12a9 3398 5db0
00000280: c606 41a9 3569 df34 3d83 812e 530f 802c
00000290: 46b5 43b5 680a a1a9 7697 c034 f63d 80b0
000002a0: 8cfa d82f 9332 95ae dcbb d839 f856 ec30
000002b0: bacd 58b0 6cfb 57b0 08d7 bd2b 4152 c839
000002c0: c5bd 0f3b 332d 7729 56a6 1b33 6445 acb0
000002d0: af65 26b1 93f7 4031 9b55 073b 51ea 0c27
000002e0: d0c3 022c 0331 e2b1 8496 6629 7b20 e1b7
000002f0: 6182 992d 6116 b1b4 be10 ea32 c174 b7a8
00000300: e01e d3a8 b28d c932 952f d632 c9a8 c02d
00000310: 1442 75aa 10e3 5333 3409 c7ad 224f 8f2b
00000320: c275 f8b4 2403 12b1 f9b2 d7ab e3fd e9ae
00000330: 6f7a f328 85e6 9532 5d40 4c2c 3262 9cac
00000340: f204 c729 c1f2 37b0 aa0b e937 16e9 5a30
00000350: ae81 e82f ad55 172c a16c 2929 6e99 ddad
00000360: b0be 71b9 c191 b4a9 d2dc 4e35 8a00 c331
00000370: c626 f5af 1951 3233 06a0 d7b3 e769 53b0
00000380: b7eb 36b4 d379 0aa9 f88b 91aa c378 4135
00000390: 25e0 d3a8 54a4 5033 a3a2 d0b9 9013 3e33
000003a0: 9789 cba7 f584 05b4 9838 092a ca19 e732
000003b0: 52f5 ac3a a04e 2034 143e 4731 a9d9 7a35
000003c0: 363a 1ba9 86f9 3937 0de8 79b2 9b84 042b
000003d0: 9e0c 16b4 2894 9d29 f599 0828 475e 432d
000003e0: 499a 9cac 219a 80b2 c376 0234 5269 5830
000003f0: bb11 88aa 8070 6fa5 b98f beac e213 87b3

rnn.weight_hh_l0 f4 [48, 12]
-5.3621193e-08 -1.1245994e-11 -1.5643103e-05 3.3978437e-10 -1.4427423e-13 8.520513e-14 -0.0021349003 -8.768649e-08
2.5110497e-10 -1.8810466e-13 -1.899431e-14 -7.677396e-14 2.2039846e-08 -5.5533408e-14 -1.756006e-14 -3.996937e-09
-1.3822656e-12 -2.3968594e-05 -3.6227385e-07 7.9407764e-10 -4.443267e-10 2.7351225e-05 -7.861652e-10 3.4504268e-07
2.8976965e-08 0.00030419428 -2.3625232e-13 -7.2285304e-14 -3.3670824e-07 -1.3892377e-07 -3.876533e-15 -4.0208106e-13
-8.0238033e-10 2.7072181e-11 0.00018930707 7.897891e-15 3.371475e-12 7.882501e-10 1.3667364e-11 -4.448431e-09
4.2009933e-08 1.8916078e-08 -7.9063883e-10 1.1515658e-14 -4.460941e-09 -4.3546304e-12 2.1297134e-15 0.0004191006
3.6132718e-08 -9.2973096e-07 -3.3024705e-07 9.826139e-05 1.2812194e-07 1.4585803e-12 0.0009003361 6.991806e-13
-2.427763e-13 -2.5580975e-05 1.4734344e-07 1.445587e-14 2.2526772e-12 1.5062396e-07 3.987741e-12 3.6881534e-08
-3.5975948e-13 0.0020418386 2.6922478e-05 -4.552535e-07 2.8013156e-12 -0.001537437 -9.161956e-07 1.1113249e-05
5.5069686e-13 -3.5903367e-09 -3.0926046e-08 -1.154319e-13 -6.3985987e-15 4.4507624e-09 -2.7175814e-05 -4.169755e-12
4.038982e-08 -9.4806416e-15 0.0021847554 -4.0764505e-08 1.44308215e-05 -2.951645e-06 -1.8048888e-13 -1.2999462e-14
-4.0527387e-11 4.4891367e-14 -0.00037053227 1.449243e-07 -7.394476e-14 3.9503777e-14 4.147541e-12 3.3205654e-13
1.787681e-11 -4.2047358e-08 3.2158687e-14 -8.13618e-10 7.9204937e-10 0.00033906713 -3.426531e-12 1.2258088e-12
5.205837e-14 -3.3833633e-08 4.556233e-14 -4.1175806e-08 7.207893e-07 4.0941845e-08 4.200966e-12 -1.2440475e-13
4.057542e-09 -6.688102e-10 4.3714726e-10 -2.1538845e-08 -0.00012285996 -1.03905656e-07 1.3132161e-07 2.1364447e-15
2.6837473e-05 2.8482623e-13 1.2096739e-13 -0.0021944335 -4.4341785e-15 -2.5912199e-08 -3.2077738e-09 4.2648966e-12
-3.1251351e-12 -1.5849936e-08 -7.432125e-13 7.5634404e-10 -1.8293869e-14 4.0417547e-08 -7.975735e-10 -0.002060582
1.516899e-07 -5.673094e-07 -4.439274e-12 1.9173079e-14 -0.00015437113 -7.4228834e-10 -0.0003085404 -7.854855e-10
1.7883988e-08 -3.2134928e-09 3.108642e-09 7.463294e-13 6.443022e-10 0.0003855332 -4.4430765e-12 2.7511438e-05
-7.2567746e-05 1.4462138e-09 -3.409863e-07 4.441593e-09 -4.2217952e-08 -4.435521e-12 1.2537737e-11 -1.4556167e-07
1.984929e-08 -9.505268e-15 -1.2680952e-07 7.3437084e-13 -9.276122e-06 0.0020304176 1.4973925e-07 4.0421185e-08
-3.267746e-08 -9.261872e-12 0.00029042386 2.1501312e-13 -6.3106046e-07 -2.366311e-09 1.612017e-11 -5.471381e-08
-1.9523473e-05 -2.840897e-13 -0.00016723006 -7.999605e-10 0.0021682994 2.4696573e-12 0.00041929432 -4.1122996e-14
1.2584495e-13 -6.8952704e-07 -1.4321917e-12 -3.7036225e-12 8.005402e-07 4.230121e-08 -2.7372849e-08 5.438529e-14
-2.3180283e-07 -2.5265617e-05 2.6626316e-11 -4.47948e-13 -3.9434938e-13 -7.908111e-15 -1.426839e-05 -1.13614985e-11
-2.4145025e-13 -1.0968339e-07 -3.9328966e-14 4.8081176e-08 -0.00041550907 1.1605279e-12 4.695724e-13 -4.1345567e-13
-7.1306643e-13 4.6127232e-07 -2.4822098e-09 -1.517385e-07 -0.00041611827 -4.962427e-13 8.0328305e-10 -4.1238918e-12
-0.0020646376 6.808e-14 7.461231e-13 1.6026227e-08 6.3625434e-13 3.6113335e-05 4.9119812e-08 8.75892e-14
-2.785468e-14 6.2811885e-09 -1.9242167e-11 0.0021887398 1.3742788e-07 -0.00041557357 7.861053e-10 -2.0891797e-12
7.5163803e-10 3.308727e-12 -5.6243598e-14 1.8775879e-08 1.5189628e-09 7.679896e-14 8.028567e-10 2.3972167e-05
-1.3765021e-08 -9.622485e-08 -1.3584918e-07 7.353371e-14 3.935264e-09 -4.97988e-08 -0.0020280275 -4.9117496e-14
-2.2938828e-14 6.7453996e-13 -1.4824262e-07 2.1644574e-12 -1.6635727e-08 1.3751775e-05 1.7691333e-09 -2.3336533e-08
00000000: 204d 66b3 74d7 45ad 4f39 83b7 66cc ba2f
00000010: 3770 22aa 6add bf29 afe9 0bbb 284e bcb3
00000020: e20b 8a2f 7ac9 53aa e615 aba8 2de1 aca9
00000030: 2252 bd32 a919 7aa9 be2a 9ea8 6e55 89b1
00000040: 5e89 c2ab 2a10 c9b7 8a7e c2b4 3f46 5a30
00000050: 6c45 f4af 4f70 e537 7519 58b0 4e3e b934
00000060: 05e9 f832 447c 9f39 8cff 84aa a4c5 a2a9
00000070: d4c4 b4b4 132b 15b4 b5aa 8ba7 fd59 e2aa
00000080: 7f8e 5cb0 2221 ee2d bb80 4639 9846 0e28
00000090: 183f 6d2c 2bac 5830 5670 702d d0d8 98b1
000000a0: 696e 3433 e57c a232 4354 59b0 9972 4f28
000000b0: da46 99b1 0637 99ac 4776 1927 bbba db39
000000c0: 5830 1b33 a092 79b5 cf4c b1b4 af11 ce38
000000d0: e491 0934 e546 cd2b 8804 6c3a 46cd 442b
000000e0: c1ab 88aa ba96 d6b7 7535 1e34 f734 8228
000000f0: a084 1e2c 33bb 2134 614e 8c2c ad67 1e33
00000100: ce86 caaa 5ed0 053b 95d7 e137 9169 f4b4
00000110: 0420 452c d383 c9ba 7bf0 75b5 0a73 3a37
00000120: e401 1b2b dfb9 76b1 8cd3 04b3 fbf6 01aa
00000130: a888 e6a7 52ed 9831 9ef7 e3b7 d0b5 92ac
00000140: 1479 2d33 bec9 2aa8 1d2e 0f3b 0c15 2fb3
00000150: e81b 7237 e014 46b6 6136 4baa 702d 6aa8
00000160: c83d 32ae 392c 4a29 0044 c2b9 7d9c 1b34
00000170: 4182 a6a9 c1e8 3129 baed 912c 64ee ba2a
00000180: ff3e 9d2d 8f97 34b3 71d4 1029 47a5 5fb0
00000190: 85b7 5930 d2c4 b139 e51e 71ac 6b84 ac2b
000001a0: 3773 6a29 7950 11b3 ca31 4d29 47d9 30b3
000001b0: 437c 4135 09d8 2f33 f0ce 932c 3a11 0caa
000001c0: 846a 8b31 55d7 37b0 0253 f02f 6c04 b9b2
000001d0: f8d3 00b9 bd22 dfb3 6901 0d34 73f2 1927
000001e0: 0921 e137 c957 a02a 7a32 082a 7cd0 0fbb
000001f0: 14c2 9fa7 8795 deb2 c16f 5cb1 c60e 962c
00000200: 6ee9 5bac 6126 88b2 1b32 51ab fbe6 4f30
00000210: cac6 a4a8 9097 2d33 3f3c 5bb0 d40a 07bb
00000220: 34e0 2234 3549 18b5 6d31 9cac 1cb2 ac28
00000230: afde 21b9 e609 4cb0 97c3 a1b9 a1e9 57b0
00000240: 4e9f 9932 5dd4 5cb1 cf9f 5531 b312 522b
00000250: bd1a 3130 6421 ca39 ad53 9cac 5dc8 e637
00000260: 832f 98b8 20c4 c630 cd10 b7b4 aa9c 9831
00000270: 2153 35b3 9f0f 9cac f390 5c2d b04b 1cb4
00000280: 0d81 aa32 503b 2ba8 2329 08b4 ffb4 4e2b
00000290: a4a0 1bb7 c110 053b 03c8 2034 909b 2d33
000002a0: 3f59 0cb3 c3ef 22ad 0844 9839 5015 722a
000002b0: 2566 29b5 959c 22b1 65cb 8d2d 78fe 6ab3
000002c0: 57c6 a3b7 a4ed 9faa 7a5a 2fb9 37e4 5bb0
000002d0: 071a 0e3b 64c9 2d2c bbd4 db39 9633 39a9
000002e0: 56b0 0d2a f017 39b5 2590 c9ab 444f 82ac
000002f0: b4e4 5635 acae 3533 8821 ebb2 f8ed 7429
00000300: 7ae5 78b4 80f1 d3b7 2235 ea2d 1c2c fcaa
00000310: bcff ddaa ba75 0ea8 4562 6fb7 a4df 47ad
00000320: a6ec 87aa 158b ebb3 361f 31a9 d081 4e33
00000330: afd8 d9b9 6d54 a32b 422c 042b 3ec1 e8aa
00000340: dab5 48ab c9a4 f734 7f93 2ab1 90ed 22b4
00000350: 732a dab9 0eae 0bab 05ce 5c30 b718 91ac
00000360: df4e 07bb 734d 9929 d603 522b 0caa 8932
00000370: f516 332b 6678 1738 cef7 5233 bc3b c529
00000380: 85e4 faa8 ebd1 d731 8241 a9ad f670 0f3b
00000390: e38f 1334 57e1 d9b9 3e15 5830 5103 13ac
000003a0: d39b 4e30 bad4 682c 744c 7da9 9848 a132
000003b0: c1c3 d030 96ef ac29 05b0 5c30 d617 c937
000003c0: 347b 6cb2 2ca4 ceb3 f0dd 11b4 4c95 a529
000003d0: f336 8731 5ce2 55b3 a8e8 04bb 9e34 5da9
000003e0: 569d cea8 badd 3d2b 9f2c 1fb4 664f 182c
000003f0: 5ae6 8eb2 6db7 6637 d825 f330 9475 c8b2

rnn.bias_ih_l0 f4 [48]
0.07627549 0.12388653 0.02225734 0.20644951 -0.046151057 -0.12489544 -0.009434452 0.2176686
0.039829347 0.11471786 0.08057241 -0.31289354 4.659607e-08 1.2807009e-14 2.7105965e-05 -1.3683926e-12
1.13690724e-07 -7.878802e-07 9.232582e-14 -2.7439846e-05 -0.0015583925 3.5226906e-12 -3.1101532e-14 -0.0013396231
-0.332323 0.06875893 0.44471318 -0.16096073 0.07326019 0.02951901 0.3951843 0.3053835
0.38941786 -0.42790717 0.051737193 -0.139841 0.23223002 -0.09333677 0.24598601 -0.34630093
0.05436325 0.058719393 0.3489353 0.18579662 0.23540856 0.33558515 -0.0027712288 -0.010552668
00000000: 5336 9c3d 39b8 fd3d 0655 b63c 8067 533e
00000010: e408 3dbd 2ec9 ffbd f692 1abc 84e4 5e3e
00000020: 1924 233d 33f1 ea3d 2603 a53d 9533 a0be
00000030: ec20 4833 e8b5 6628 9e61 e337 8a95 c0ab
00000040: 2326 f433 b77e 53b5 36e6 cf29 9f2e e6b7
00000050: fa42 ccba 27e3 772c a011 0ca9 4b96 afba
00000060: 3e26 aabe 7bd1 8c3d 72b1 e33e e4d2 24be
00000070: 7009 963d dad1 f13c 9955 ca3e 3a5b 9c3e
00000080: c761 c73e a616 dbbe 61ea 533d 7b32 0fbe
00000090: b5cd 6d3e 5927 bfbd c2e3 7b3e 5b4e b1be
000000a0: 00ac 5e3d bf83 703d a6a7 b23e 7841 3e3e
000000b0: f10e 713e d1d1 ab3e 819d 35bb 19e5 2cbc

rnn.bias_hh_l0 f4 [48]
0.0687016 0.38616887 0.3750579 -0.13028732 -0.08168319 0.252047 -0.05816448 0.26677692
0.4118931 0.35254312 -0.06602346 -0.33120126 2.1803228e-09 -1.818611e-13 3.5226795e-12 7.4257506e-13
-2.07414e-12 -1.279132e-09 -8.0303963e-10 -2.7235634e-05 -2.7129432e-05 -4.5500512e-10 1.6635882e-12 -2.683855e-05
-0.014390275 0.19984251 0.22869533 0.10736075 0.032299355 -0.10439033 0.16091843 0.16589563
0.33365715 0.00029721676 0.15269047 0.11172823 0.050392758 -0.08069993 0.38285574 -0.1367009
-0.012907027 -0.18809293 0.2908643 0.3130869 -0.08836646 0.3242929 -0.092601016 -0.35056543
00000000: 6db3 8c3d edb7 c53e 9707 c03e 0a6a 05be
00000010: 8449 a7bd 4e0c 813e e13d 6ebd fc96 883e
00000020: a7e3 d23e 8880 b43e 4f37 87bd 3693 a9be
00000030: a5d4 1531 e5c1 4caa f4e2 772c 2c04 512b
00000040: 62f4 11ac 75cd afb0 e4bc 5cb0 1478 e4b7
00000050: 0394 e3b7 4724 faaf 1521 ea2b 5923 e1b7
00000060: 30c5 6bbc 84a3 4c3e 1c2f 6a3e f4df db3d
00000070: 544c 043d 99ca d5bd cdc7 243e 8be0 293e
00000080: 1cd5 aa3e c2d3 9b39 e45a 1c3e c5d1 e43d
00000090: a368 4e3d 0146 a5bd ab05 c43e 52fb 0bbe
000000a0: ff77 53bc 6f9b 40be 2aec 943e ed4c a03e
000000b0: 79f9 b4bd b809 a63e 9aa5 bdbd 507d b3be

fc_output.weight f4 [1, 12]
-0.2802907 0.12925866 0.10323029 -0.16089469 0.063928366 0.15067422 0.18332866 0.104673386
0.3085553 -0.23818031 -0.12954551 -0.14391366
00000000: 4382 8fbe 625c 043e 676a d33d 94c1 24be
00000010: e0ec 823d 584a 1a3e 82ba 3b3e 005f d63d
00000020: f6fa 9d3e 8ae5 73be 94a7 04be 1a5e 13be
