model.pth (torch, 173398 bytes, 23 tensors)

cnn.0.weight f4 [16, 10, 3]
00000000: b883 abbc 1693 f3bc 6e02 d3bc cba1 d7bc
00000010: 7d6a eebc 6be2 79bc aa6a 35bd c4c8 00bd
00000020: 793f 04bd 9e80 08bd 9bee e5bc 9bba c1bc
00000030: 44fc 4cba 1f69 49bc 8fff 33bc 7fa7 85bc
00000040: c1f8 95bc b018 ddbc 00d1 f7bc 1c7f 4fbd
00000050: b1dc 22bd 6df4 89bd ca61 25bd 6a4b 86bd
00000060: 3cca 8abc e446 3cbc 557e 7dbc 0e91 5a3c
00000070: f376 88bc 8cba 21bc c48a 6bbc 8709 333d
00000080: 7e17 8abd 9a49 813d 1419 2a3c d87d b03d
00000090: 67db 7fbb 4fd9 ddbc f921 0f3c df69 d5bc
000000a0: 121a be3d 1132 963d 5e8b e7bc b987 eebd
000000b0: e009 06bc 6a8f 84bd f7f8 5fbd 7244 39bd
000000c0: ee0e 36be 680d a33c 884e 94bd 123a 173e
000000d0: 18a5 0f3e 5bd2 913c c0aa 0fbe 225a 26be
000000e0: d645 a4bd 06c0 fb3d 1ae7 273e ca44 3e3c
000000f0: 301b 753d e28e a23d 4bb2 7a3d 2078 6c3d
00000100: a64a 6f3d b692 ba3c a2f5 a63d 7790 b03d
00000110: 0d5e ed3c 5508 773d 436e 8d3d 225b 853c
00000120: 8ebf 213d 0c80 3c3d 7870 e63c 94ec 713c
00000130: c802 5e3d 446d 043d e749 e23c 1d64 8e3b
00000140: 6c1b 92bb 174c 0b3d ccce 793d 4cef c73c
00000150: 14c4 07ba 40e4 193c 9e89 71bc 87dc 993d
00000160: 6525 9e3d 45c1 693d 9476 45bd a807 2abd
00000170: c342 abbc 0bbd 3bbd d43a c3bc 0bce 303c
00000180: c08e 4cbd ea75 54bd f312 36bd 7c07 2dbd
00000190: b5f1 23bd 2300 8fbc 5600 03bd 3cf1 fdbc
000001a0: 0783 1dbc 6046 c63a 7766 383c fb44 393c
000001b0: c69a 04be dc46 d6bd 44a3 a9bd 05bd fc3c
000001c0: 1487 563d 94ea 023d 433f e6bc c994 8d3b
000001d0: 23d6 3c3c 5138 a3bc 388f 13bd 00bc ccba
000001e0: 22e1 9cbd 5f73 5abd b9b1 41bd df40 16bd
000001f0: d1d4 08bd 6a74 96bc b513 9cbd 2961 97bd
00000200: 843b 4fbd e672 43bd 4505 66bd e7d4 1fbd
00000210: c7e3 c5bc 3170 34bd 13d7 0e3b fceb 8ebd
00000220: 7e0a 77bd 1ef7 46bd 9c7c 98bd dc6f 03be
00000230: cdba 45bd a6c1 933d 7fa9 ba3c 378a 5a3c
00000240: c83a 1abd 85c0 dfba 6d4c 583d 6e02 3dbd
00000250: 26fc 69bd 2882 18bd b773 7d3b 171d a83d
00000260: 35f0 15bd 1a82 7b3d 5521 bbbc ad84 1ebd
00000270: cb7d aabb 3797 623d 3163 8cbd 5f0f 433d
00000280: cabb d83b 3d71 b43b a6c8 263d cc0f 78bd
00000290: 7b7f 8cbd b0c5 623a 15d5 8a3d 3499 3a3d
000002a0: 1a66 69be eb77 923b 8fcb 0a3d 3823 a53d
000002b0: ab33 dd3d dc86 233d 8a72 1dbd 5299 8f3d
000002c0: cf86 903d 790c 313d 243d 41bd 146b 2d3d
000002d0: 9615 37bd a49f 093b c45a 0f3d cf5a a4bc
000002e0: fcda 053c 9b02 093d 6be3 4cbd 4069 85bb
000002f0: 3e23 37bd 1fa5 21bd bdf5 1dbc 99a2 403c
00000300: 383f 99bd 9451 07bd b520 96bd 7fbe 89bc
00000310: 5e4b 1c3d ceb3 353d 6f2b d3bc 656f dabd
00000320: 8c26 ae3b cab6 a53d 6c1c 443e 33a4 523e
00000330: 1c54 ad3d 0ddf 49bd 23f2 fbbc 8669 1abe
00000340: fdd3 02be d344 e8bc 9be0 19bd 0fb4 05bd
00000350: 8248 80bd 1d92 5abc 5333 c2bc 2ab7 3abd
00000360: 99a5 87bd ce3c a8bd dcd9 c3bd 5337 43bd
00000370: 849c 4cbd d709 8bbd 255a 72bd 24a2 15bd
00000380: 8d01 38bd e770 c9bc 2145 4abd 81bc 41bd
00000390: 3869 17bc edb4 d1bd 9d1b 5abd c380 ce3c
000003a0: 7b64 5ebc 88cd e9bc 7afc b0bc 9f4e 5c3c
000003b0: 4cb1 2d3c 373a 3abd 321c 93bd 0fac d8bd
000003c0: 0f6b 60bb ddf2 3e3c a861 963b 0d8e f439
000003d0: fc55 92bb 42e5 5fbd a515 0c3c dad6 0dbd
000003e0: 361e 90bd 8fdd 253b 328b 46bd 7008 83bd
000003f0: da15 3fbd 8ccb 3d3c cf70 f6bc c7e9 4b3c
-0.020936832 -0.029733222 -0.025757995 -0.026322266 -0.029103512 -0.015251736 -0.044291176 -0.031441465
-0.032287095 -0.033325784 -0.028067878 -0.02364855 -0.0007819573 -0.012293129 -0.010986223 -0.01631522
-0.018307092 -0.026989311 -0.030251026 -0.05065833 -0.03976125 -0.06736074 -0.040376462 -0.06557353
-0.016942136 -0.011491511 -0.015472014 0.013340248 -0.016658282 -0.009871136 -0.014376346 0.043710258
-0.06742762 0.063128665 0.010381956 0.08617753 -0.0039040686 -0.02708116 0.008736127 -0.02605146
0.09282316 0.07333768 -0.028264698 -0.11646981 -0.008181065 -0.064726666 -0.05468079 -0.04523129
-0.17779133 0.019903854 -0.07241541 0.14768246 0.14027822 0.0178005 -0.1402998 -0.1624532
-0.08021133 0.12292485 0.16396752 0.01161308 0.05984038 0.07937409 0.06120519 0.057731748
0.0584208 0.022775035 0.081523195 0.086213045 0.028975511 0.06031068 0.069057964 0.016278807
0.03948932 0.046020553 0.028129801 0.014765877 0.05420187 0.032330766 0.02762313 0.0043454305
-0.0044588353 0.03400811 0.060988232 0.024406098 -0.0005179059 0.009392798 -0.014742283 0.075127654
0.07721976 0.05706908 -0.048208788 -0.041511208 -0.020905858 -0.045834582 -0.023831762 0.010791312
-0.049940825 -0.051870264 -0.044451665 -0.042243466 -0.04002543 -0.01745612 -0.031982742 -0.030998819
-0.009613759 0.0015127175 0.011254898 0.01130795 -0.12949666 -0.10462734 -0.082830936 0.03085185
0.052374914 0.031961992 -0.028106337 0.004320715 0.011525664 -0.019924315 -0.036025256 -0.0015619993
-0.07660128 -0.053332683 -0.04728863 -0.03668296 -0.033406083 -0.018366057 -0.07620946 -0.07391579
-0.050593868 -0.047716998 -0.05615737 -0.0390214 -0.024156464 -0.044052307 0.0021795675 -0.06978604
-0.06031274 -0.048575513 -0.07445642 -0.1283564 -0.04827385 0.0721467 0.0227859 0.013338617
-0.037653714 -0.0017070925 0.05280726 -0.046144895 -0.057125233 -0.0372335 0.0038673708 0.082086734
-0.036606032 0.06140337 -0.022843042 -0.03870075 -0.005202984 0.05531999 -0.06854857 0.04762208
0.006614183 0.005506663 0.040718697 -0.06056194 -0.068602525 0.00086506736 0.067789234 0.045556262
-0.22792855 0.0044698617 0.033885535 0.08063358 0.108008705 0.039923534 -0.03843931 0.070116654
0.07056963 0.043224785 -0.04717745 0.042338446 -0.04469832 0.0020999694 0.03499867 -0.020062832
0.008169886 0.03344975 -0.05002157 -0.0040713847 -0.044711344 -0.039464112 -0.009641108 0.011757516
-0.07482761 -0.033036783 -0.07330457 -0.016814468 0.038157813 0.04436093 -0.025777547 -0.10665778
0.0053146537 0.08091505 0.19151467 0.2057045 0.08463308 -0.049284983 -0.030755108 -0.15079316
-0.1277618 -0.02835313 -0.037567716 -0.03264242 -0.0626383 -0.0133405 -0.023706114 -0.045584835
-0.06623382 -0.082147226 -0.09563038 -0.047660183 -0.049953952 -0.06788986 -0.059168 -0.036531582
-0.044923354 -0.024589969 -0.049382333 -0.047298912 -0.009241395 -0.10239587 -0.05324899 0.025207883
-0.013573761 -0.028540388 -0.021604765 0.013446479 0.010601353 -0.045465674 -0.07183112 -0.105796926
-0.00342435 0.011654583 0.0045892783 0.00046645143 -0.0044658165 -0.054661997 0.008550082 -0.034628727
-0.07037012 0.0025309061 -0.04847259 -0.06398094 -0.0466517 0.011584174 -0.030083088 0.012445874

cnn.0.bias f4 [16]
00000000: b363 f9b7 3d2f 13b9 aa86 ffb7 29f8 ec38
00000010: 4d14 b8b8 7c20 2039 bebd 21b9 095a bdb8
00000020: 7e69 68b7 2717 0639 2898 3fb8 c720 1c38
00000030: e596 72b9 836a 6338 5514 d438 c328 4438
-2.972954e-05 -0.0001403661 -3.0461077e-05 0.000112995804 -8.777585e-05 0.0001527089 -0.00015424841 -9.028993e-05
-1.3852839e-05 0.00012787861 -4.5679655e-05 3.7223825e-05 -0.00023135131 5.4220214e-05 0.00010112735 4.6768004e-05

cnn.1.weight f4 [16]
00000000: ab9e 353e c6af f63e 7585 aa3e 2277 aa3e
00000010: 98c9 9d3e e1e9 bc3e 6eb4 ca3e fba8 ac3e
00000020: 26cc 9d3e 1951 c63e 7415 d03e ae72 cd3e
00000030: 1098 1c3f 1769 9c3e 5f94 bf3e f3cd 953e
0.17736308 0.4818098 0.33304945 0.33294016 0.30817866 0.36897185 0.39590782 0.33722672
0.30819815 0.38733748 0.40641367 0.40126556 0.6116953 0.30548927 0.37417886 0.2925869

cnn.1.bias f4 [16]
00000000: b859 11be f8c9 a43c b94b a93d c792 983b
00000010: 4e7a 443c 17d5 14ba 71bc 1dbe e6ce eb3b
00000020: 0907 993c 7844 ebbd e46c 9ebd ec4c 67bc
00000030: 8d10 923d 9a54 ddbd edac 2fbd d412 b53d
-0.14194381 0.020115837 0.08266396 0.004656169 0.01199205 -0.0005677505 -0.15403916 0.007196295
0.018680112 -0.11487669 -0.07735613 -0.014117461 0.07132063 -0.10807152 -0.042889524 0.08841482

cnn.1.running_mean f4 [16]
00000000: 426a 92be a873 b63c 3d9d b03e b400 73be
00000010: 414c 9cbe 03cf ae3d c851 db3d fc16 b8be
00000020: 0dde 81be 23c4 96be 2f67 9f3e 1785 aa3d
00000030: ab58 8abe 1680 04be 2673 363e 0ddb 913e
-0.28596693 0.022271946 0.34494963 -0.23730737 -0.30526927 0.08535578 0.10708958 -0.35955036
-0.25364724 -0.29446515 0.3113341 0.08326166 -0.27020773 -0.12939486 0.17817363 0.28487435

cnn.1.running_var f4 [16]
00000000: 8ca4 293b cabd b53a b0e7 ad3b 2139 b33b
00000010: aa9b f13b 942d 883a 9981 2e3b 27b1 eb3b
00000020: 18ca 163b d0c3 ac3b 12b1 bd3b 4ace df3a
00000030: b85d f43b 4779 843b 8c5d 8d3b 5bc0 253b
0.002588543 0.0013865766 0.0053071603 0.005469457 0.007373293 0.001038956 0.002662754 0.007192749
0.002300864 0.005272366 0.0057889307 0.0017075029 0.007457461 0.0040427777 0.00431413 0.0025291655

cnn.4.weight f4 [32, 16, 3]
00000000: 97f4 343d 6b44 83bb 89b9 eebc 3c27 c03c
00000010: f735 7ebd dae2 d63b ec6f bebc a69d 07bd
00000020: 7d37 68bc 8a2d a73d 2bfb bb3d 4f4f 143d
00000030: f1de eb3c 596e 723d d23a 0dbc 96fe 43bc
00000040: 82a4 4cbd a2ec 91bd db56 d7bb 0041 423d
00000050: b5f5 c13d 8955 8e3d 61e9 b63c 6561 e7bc
00000060: 404b 0e3d 5efe 9b3b fc04 493c bf4c ac3d
00000070: c925 2f3c e6db 82bd 6fe7 283d 1a3f cc3c
00000080: 085d b13c 856d c7bc 573e 55bd 0690 88bd
00000090: 65b1 cc3c 288d c93d 9dd1 593c f386 f73b
000000a0: 9153 c1bb e282 8cbc a1b1 1e3c f897 c33c
000000b0: 1bf0 703c 3d8a 063d def9 c53c bcf5 a23c
000000c0: 305a 37bb d2da 81ba eed1 e43c 5a10 573d
000000d0: bd48 a73c e3d5 273c fe65 4bbd 48df 9abb
000000e0: 387c 803d 6b1b d33c f916 373c 7e8a 58bc
000000f0: 0e33 703d 0437 f53a 662d 153b 2efd d13c
00000100: e19f 893c ac8a 95bc decd 983d 5b6a 3bbc
00000110: 32b0 33bd f8b6 103c 03ac 9a3b 3b37 133c
00000120: 5692 ae3c c1cd c33c 1f42 b03c fd86 55bd
00000130: d232 11bd dc35 0e3d dbf5 bf3d e748 1b3e
00000140: ed9d f73d 5d74 f13c d739 1ebc a4ff a4bb
00000150: 17c9 653d 47be 0e3d 30c4 2fbd daf5 9c3d
00000160: 0a69 9d3c e572 47bd 1923 463d e0e9 073d
00000170: ed3c 303d 17f9 82bd 416d 51bd 0d02 e9bc
00000180: f635 963b 25fb 6c3b 54b1 ed3c d1a6 6a3d
00000190: fa20 a73d 03dc ce3d 912c 06bd b015 18bd
000001a0: d7f8 1fbd 62f4 afbd e887 51bd 00e6 053d
000001b0: c44f 43bd ab1e 4cbd 6931 313c 1162 76bd
000001c0: 76af 86bd 5813 11bd 2db2 8eb9 e632 bfbb
000001d0: ab18 8b3d 5963 abbc 45db 203b 1c11 163d
000001e0: 46a7 e33b 6c4d 553d f3e8 023d 7ca5 543b
000001f0: 09e2 a63c 6b32 ba3d 3b54 373b 921e 28bc
00000200: 1456 96bc 58f6 573d c437 a13d bd53 5f3d
00000210: 6f85 d5bd 7f5a 4fbd 7f7a 3d3d 10bf 543d
00000220: 4377 a43c a38a 063d c9d1 2fbd eb8b 82bd
00000230: 0163 25bd 8c5c 47bd f9a8 7dbd 3147 9abd
00000240: e4d3 143d c78a 293d 3e0e 8d3c be78 2f3d
00000250: b526 903d 7384 c73c d15a 1bbd 4156 57bd
00000260: d3eb 6dbd 50e7 503d b1ed a83c 24bf d3bc
00000270: b0fb 8f3d 4765 f73c 8b98 003c 57bc a63d
00000280: d433 953d e957 153d 267f 8b3d 0fd7 ab3d
00000290: 5a66 883c e62d ebbc eb2a f8bc 4055 78bd
000002a0: 02b9 3f3d be1d 1b3d 13ef 8d3c 3d09 503d
000002b0: 9715 ddbc 104f debc e213 383b 63a8 dcbc
000002c0: 73f7 59bc b35c e83b 3436 1d3d 9375 a73c
000002d0: cca4 a03d 8b5c 58bd b923 e1bc 38a9 353d
000002e0: 2289 b63d 114e 523d 5ada ef3c 937b 1bbb
000002f0: b1e5 66bc 0e58 f8bd a775 abbd 92d2 e4bc
00000300: 0ac0 913c 58a2 55bc 7fbb 72bc e7ac f1bc
00000310: 17e8 91bd a85c 0cbd 55fe 02bc 2a51 e03b
00000320: 1ab1 c4b9 2c2a 963d fd3b 293d 9c96 3cbb
00000330: 4c41 af3d 6687 3f3d d0de 0b3d eb1a 233c
00000340: 5daf 43bd 85b8 a1bc 6fd4 b3bc d2a8 a0bc
00000350: e81d 283d 69f5 a53d e34e 343d 18e8 e83c
00000360: 0296 b2bd 7a7a 81bd b465 74bd 4343 a43d
00000370: 64c9 fb3c 01fc 313b f6bb ec3c a541 d73c
00000380: d3eb 2c3d a5dc c8bc a5ce 18bd a5ca f43a
00000390: a72d 863c 4897 403d abc1 6f3c 6f93 c7bb
000003a0: 6913 73b9 ec8b ebbc 231b cdbc 21e7 f23c
000003b0: f3c1 c13d efa6 283d cf93 8c3c f5a2 90bc
000003c0: 7fc8 6dbc 7d69 abbc f4e6 edbc d9d1 02bd
000003d0: e116 aa3b 7a0b 963d 0229 1d3c 033d 503c
000003e0: 3b1a 153c 22ab 863d 0d72 353d 3312 fbbb
000003f0: 7caa 7d3c d3d0 943c 17e1 07bd 737f 6cbc
0.04417857 -0.004005959 -0.029141204 0.023456208 -0.062063184 0.0065578045 -0.023246728 -0.03310933
-0.014173386 0.08162983 0.09178766 0.036208447 0.02879283 0.059187267 -0.008619981 -0.0119625535
-0.049961574 -0.07125212 -0.0065716333 0.04742527 0.09470693 0.06949908 0.02232808 -0.028244684
0.034739733 0.0047605475 0.012269255 0.08413076 0.010690161 -0.063895985 0.041236337 0.024932433
0.021650806 -0.024344215 -0.052061405 -0.06668095 0.024986932 0.098413765 0.013294605 0.007553929
-0.0058998545 -0.017152254 0.009685905 0.023876175 0.014705683 0.032846678 0.024166998 0.019892566
-0.002797734 -0.0009907132 0.027932134 0.05250583 0.020420427 0.010243866 -0.049657814 -0.004726324
0.06273693 0.02576991 0.011174911 -0.013216613 0.05864244 0.0018708413 0.0022762655 0.02563342
0.016799869 -0.0182546 0.07461141 -0.011438931 -0.043869205 0.008832686 0.0047202124 0.008985336
0.021310013 0.023901822 0.021515904 -0.052130688 -0.035448857 0.034719333 0.09373065 0.15164529
0.12090669 0.029474432 -0.009657345 -0.0050353575 0.056099977 0.03484943 -0.04291171 0.0766408
0.019215126 -0.048693556 0.048373315 0.033182025 0.043026853 -0.06395166 -0.051129583 -0.02844336
0.0045840694 0.0036160436 0.02901522 0.057287995 0.08160587 0.10100558 -0.032757346 -0.037130058
-0.03905567 -0.08591534 -0.051155 0.03269005 -0.047683492 -0.049833935 0.010815003 -0.060152117
-0.06576435 -0.03541884 -0.00027217102 -0.005834925 0.067918144 -0.020921396 0.0024544757 0.03663741
0.006947431 0.05207579 0.03196044 0.003244727 0.020371454 0.09091648 0.002797379 -0.010261195
-0.018351592 0.052725166 0.078719646 0.05452322 -0.10425841 -0.050623413 0.0462594 0.051940024
0.0200764 0.032847058 -0.042924676 -0.063743435 -0.04037762 -0.048672244 -0.061928723 -0.0753311
0.036334887 0.041392114 0.017218705 0.042839758 0.07038633 0.024355149 -0.037928406 -0.052572493
-0.058086228 0.051001847 0.020621153 -0.025847979 0.070304275 0.03019966 0.007848869 0.08141392
0.07285276 0.03646079 0.06811361 0.083906285 0.016650368 -0.02870841 -0.030293902 -0.060628176
0.046807297 0.03787016 0.017325914 0.05079006 -0.026987834 -0.02713731 0.0028088023 -0.026935762
-0.013303625 0.0070911287 0.03838177 0.020441806 0.078439325 -0.05282263 -0.027482854 0.044350833
0.08912875 0.05134398 0.029278923 -0.002372478 -0.014092849 -0.1212617 -0.0837205 -0.027932439
0.017791767 -0.013039194 -0.01481521 -0.029501392 -0.07124346 -0.03426805 -0.007995208 0.006845613
-0.00037515984 0.073322624 0.041316975 -0.0028776294 0.08557376 0.046759985 0.034148037 0.009955148
-0.04777466 -0.019741306 -0.021951882 -0.01961175 0.041044146 0.08103449 0.044020545 0.028430983
-0.08720018 -0.06322189 -0.059667304 0.08020642 0.030735679 0.0027158263 0.02889822 0.026276419
0.042217087 -0.024519274 -0.037306447 0.0018676115 0.01637919 0.047019273 0.014633576 -0.0060905735
-0.00023181517 -0.028753243 -0.025037354 0.029651226 0.09460821 0.041174825 0.017160324 -0.017655829
-0.014513134 -0.020924324 -0.029040791 -0.031938408 0.0051907157 0.07326408 0.009592297 0.012709859
0.009100492 0.0657561 0.04429822 -0.0076620816 0.015482541 0.018165981 -0.033173647 -0.014434683

cnn.4.bias f4 [32]
00000000: fe4a 3437 6f11 0db7 0837 1237 c057 ccb5
00000010: 11ff 45b7 8629 8436 bcbd c437 dcef 3737
00000020: 33c7 a837 0949 8cb7 9ec4 a838 ded8 6a38
00000030: 43be 1eb9 41a1 f8b7 3861 8cb5 3a13 ef36
00000040: 4167 dcb7 0f4e d237 cf21 c2b7 2323 bcb7
00000050: 1849 f437 f32b 9f38 d425 3438 cc59 cc37
00000060: 8e03 7bb7 0cb5 0f38 981d 68b7 276d 69b7
00000070: daa5 d4b8 40bd 64b7 5725 fa37 f059 1d37
1.07462965e-05 -8.408314e-06 8.715091e-06 -1.5224723e-06 -1.1801502e-05 3.9387405e-06 2.3453373e-05 1.0963497e-05
2.011992e-05 -1.672331e-05 8.047487e-05 5.599192e-05 -0.00015138932 -2.9638994e-05 -1.0459107e-06 7.1249933e-06
-2.6274125e-05 2.50703e-05 -2.3142346e-05 -2.2427708e-05 2.9121104e-05 7.589897e-05 4.2950574e-05 2.436051e-05
-1.49615935e-05 3.426247e-05 -1.3835168e-05 -1.3913296e-05 -0.0001013984 -1.3633922e-05 2.981971e-05 9.378869e-06

cnn.5.weight f4 [32]
00000000: f00c a13e 555a 9b3e 5534 ba3e 701b b53e
00000010: 149e bb3e 7062 9e3e 74b8 ab3e b689 a93e
00000020: 56df a03e 82cf a93e 17fb b93e b5e5 ab3e
00000030: 2b76 c13e 70e7 b03e 4acb a43e 7703 a63e
00000040: cdb1 d13e 2048 b73e 9779 b13e 270f ad3e
00000050: 6e4f b03e 4768 e43e 8051 b03e 3ced a93e
00000060: 68a1 a33e 2979 c43e c570 9f3e 7b91 9a3e
00000070: 9dfa c03e 2aa1 a43e 078d c43e d05a ac3e
0.31455183 0.30342355 0.3636805 0.35372496 0.36644042 0.30934477 0.33539164 0.33112878
0.31420392 0.33166128 0.3632438 0.3357369 0.37785468 0.34551573 0.32186347 0.32424518
0.40955964 0.35797215 0.34663078 0.33800623 0.344356 0.44610807 0.3443718 0.33188808
0.3195908 0.38373688 0.31140724 0.30189118 0.37691203 0.32154208 0.38388845 0.33663034

cnn.5.bias f4 [32]
00000000: 9f1d 9ebd 748e e5bd d214 6fbd 215d a3bd
00000010: 1233 a8bd b2bc ebbd 57a4 bcbd d788 40bc
00000020: 74b2 56bd 5245 abbd f902 91bc 3dee 37bd
00000030: 818f f4bd fca8 18bd 61d8 3dbd 0db3 c3bd
00000040: 1536 d4bd 9c3b 48bd fe3b a7bd 7c62 8abd
00000050: feb0 aebd 5bf5 e1bd f696 88bd c474 9bbc
00000060: 3aec f0bc 5ee3 1abd d8f3 86bd 880a 75bd
00000070: ddda b2bd 424c 38bd 30f4 2ebd 7c07 c2bc
-0.077204935 -0.112088114 -0.058369465 -0.07976747 -0.08212866 -0.115106 -0.09211033 -0.011751375
-0.05241628 -0.08362831 -0.017701613 -0.044904936 -0.11941434 -0.03727053 -0.046348933 -0.095556356
-0.10361878 -0.048884973 -0.081657395 -0.06757066 -0.08529852 -0.11033126 -0.066694185 -0.018976577
-0.029409517 -0.03781449 -0.06589478 -0.059824497 -0.08733151 -0.0449946 -0.042713344 -0.02368521

cnn.5.running_mean f4 [32]
00000000: b664 833d 35c8 a83d f21a 08bd 1f9a 263d
00000010: 708f 6e3d a647 da3d 42aa 563c 8229 63be
00000020: 2275 4cbd b81b 213e 5734 2fbe 4ddb 0bbe
00000030: 8efc cb3c ed7f 0ebd 8f75 52bd 0e16 5f3e
00000040: b17b b53a d774 98ba cd30 8e3c efaf 123b
00000050: 57d1 32bd b057 a23d 91ea 9fbb 72a8 ddbc
00000060: ce0b a1bd 43e6 8d3d 8f2e 853d f1f1 14bd
00000070: d4ae 24be b067 adbc 928b cbbd f13c ef3d
0.064156935 0.082413115 -0.033228822 0.040674325 0.05824226 0.10658197 0.013102116 -0.22183803
-0.049916394 0.1573323 -0.1710981 -0.13657875 0.0249007 -0.03478997 -0.051381644 0.21785757
0.0013846067 -0.0011631501 0.017357254 0.0022382697 -0.043656673 0.07926881 -0.0048802574 -0.02705786
-0.0786358 0.069286846 0.06503021 -0.036363546 -0.16082317 -0.021167606 -0.0993873 0.116815455

cnn.5.running_var f4 [32]
00000000: c1a1 293c b14c cf3b 85d5 7a3c ddd4 c23c
00000010: 140a ad3b eb07 db3b b501 413c db63 833c
00000020: 89e2 503c 08e6 d73c 8ca3 333c 57e7 3b3c
00000030: a4f8 b93b e4a3 4b3c 7b4e bd3c ebcc 0b3d
00000040: 0b16 883b 8f9b 913b b067 8b3b 98ea 3e3c
00000050: 95ab 413c f57a 473c faac e43b 6960 583c
00000060: 9061 0d3c 9baf 693c 0c06 d53c 832d b63b
00000070: 29af d73b a088 a13b 3723 883c e634 b13b
0.010353507 0.006326281 0.015309696 0.023783142 0.0052807424 0.0066842935 0.011780192 0.016038826
0.012749323 0.026354805 0.010964286 0.01146873 0.005675392 0.012429211 0.023108711 0.034130972
0.0041530184 0.004443593 0.004254304 0.011652611 0.0118206935 0.012175311 0.006978628 0.01320658
0.008629218 0.014263059 0.02600386 0.0055596246 0.00658216 0.004929617 0.016618354 0.0054079173

fc_hidden.0.weight f4 [32, 960]
00000000: 9074 ac3c 8dbe cabb fad8 323c ab89 363c
00000010: a3f4 10bc 5f4f adbc 98f9 22bc 175e 573c
00000020: 64be 073d 9293 bcbc 5d70 b5bc 56b5 dd3b
00000030: 9647 67bb c941 203c 80c3 aebb 4e01 bebb
00000040: e769 51bc f3b4 a3bc 72aa 5f3a 6526 a83a
00000050: 5f5a c1ba 8e6a f2b9 2539 483a cfc0 833a
00000060: b879 f03a ef45 86ba d556 86ba c872 8dba
00000070: a80e 86ba 2bed 33ba 3d2c b5bb 4c10 e1b9
00000080: c049 02bc 2796 9f3c dadc c03b 464e f5bb
00000090: e58d c3bb d380 b33c 5d03 b839 e6fe e3bb
000000a0: 1d05 813b 4029 d2bb 14ec febc 7344 093d
000000b0: 4cdd cabc 8735 d93c 455b 173c be32 013d
000000c0: 0729 313d e266 db3c 5666 283d a7a6 293c
000000d0: 9738 d5bc 2873 31bc f504 fdbc 930d b2bc
000000e0: 3e53 05bd 7118 07bd 96eb b8bc 4e72 88bc
000000f0: e2f2 d93c 6099 b63c d664 80bc 0b70 3c3c
00000100: e377 b2bb 6677 e73c 124f 4e3c 7ebb aa3c
00000110: d165 fcbc c1e4 6cbc 8208 4bbb a244 61bc
00000120: 8531 23bc 99cc 863c 4b2f d1bc 2110 d9bc
00000130: 0119 93bc 1166 2a3c a41f 46bc 93fc b1bc
00000140: 7121 cbbb 98b2 183d 4bdb edbc a04e 70bc
00000150: c45b a93b 09e2 913c bf4a 533a 7c80 d03c
00000160: b86f af3b 433f e2bb 9c45 25bc ba08 1a3c
00000170: 5566 d73c eb2c cc3b c4d9 b63c d6a4 063d
00000180: 013c f0bc 9cd1 93bc 4513 7dbb 8975 fcbb
00000190: 544a 5ebc 16ef f23b ed6b 1b3d d48c 903c
000001a0: d258 cb38 95ba d5bc f052 8fbb c696 22bc
000001b0: 8cf5 66bc d1d9 d2bb e617 a93b 4331 893a
000001c0: 4d17 67bb 5681 c93b 8749 fa3c 9058 d93c
000001d0: ffbd d3bc aef6 c9bc 73fd 28bd 19ee 11bd
000001e0: c668 76bc 6d8b f3bb 20ef 3e3c 8c68 6c3c
000001f0: 2ce6 dbbb d9b6 0dbc 462b aebc 04a1 0a3c
00000200: 2948 273d e30d 91ba 6c36 2fbc 4688 e8bc
00000210: 72d7 b3bb 688d 9f3c 3590 0dbc ac27 683c
00000220: 40fa 2ebc 241f c8bb 5070 9e3b 18be e13b
00000230: 283b 293c 6236 cf3b 6c41 64bc f3d7 62bc
00000240: 64d9 6dbc 43aa 6dbb 75dc 07bd c7f4 41bd
00000250: d02d 9f3c 93fc d9bb 159c d8bb 8da6 0dba
00000260: d139 2b3c bdeb cd3c 4467 53bb 3b54 273c
00000270: b72d 59bc 73fe 973c 5ab7 523c 89a1 0bbc
00000280: a45a bbbc 1e57 0e3c 7131 0e3d 2a7c ecbb
00000290: 1708 32bc dc1d 12bc 652c 8bbb 051f d2ba
000002a0: db47 b2ba 289c b5ba 1f7a 29ba 4d21 c83a
000002b0: 3445 893a ff3a 103b ddce f13a 1e30 0f3b
000002c0: 5f40 10bb 2818 11bb 491a 0839 04b5 8cba
000002d0: 8710 863b f300 d3bc 3439 99bc ea9a 123c
000002e0: 99f6 0d3c 42bf 343d ee02 0cbc 0f1c 2f3d
000002f0: d5ea 36bc b87c 2fbd 1060 03bc cb58 583c
00000300: f8e1 34bc 6932 a0bc db29 59bc c20a 68bc
00000310: 980d 79b9 318c 95ba 8112 86bb ff53 4e3a
00000320: 61f8 a43b ca8a 65bb ca65 c2bb 1172 0c3d
00000330: 0050 063c f7fb cd3c f22c d33b 2911 6e3c
00000340: 55dc 07bc 940e 833c 589a 93bc 8c6c ee3b
00000350: c9ad 443a 390b 9fba 153f b63c 8964 1b3d
00000360: 820f 2e3d a3be d83c 8cf5 e53c 7f9e d5bc
00000370: 607e 6dbc d516 c13c e6c2 a03c 4a70 76bc
00000380: 7f40 383d dbe2 1dbd f367 e0bc 1123 c5bc
00000390: 81f7 72bc 6c93 b2bc 8fcd c0bc bc8e c8bc
000003a0: 2e9b 283d 700d 76bb 6ea7 083d 4e5b 633c
000003b0: 0325 bd3c f7b1 093d 845b 0c3c b382 e63b
000003c0: 6ed1 8dbc b76c bdbb 70c4 bcbb ef52 5ebc
000003d0: 76a5 803a 9229 81bc f244 45bb a947 39bb
000003e0: 982c cabb 2fec 823b 1fc5 cebc bb80 6a3c
000003f0: 099d f03c 4b1e 9b3c d752 a7bc 9a54 b2bc
0.021051675 -0.006187266 0.010915989 0.011141221 -0.008847388 -0.021156011 -0.009947203 0.013144991
0.033140555 -0.023019586 -0.022148306 0.0067660017 -0.0035290471 0.009781309 -0.005333364 -0.0057984954
-0.012781597 -0.019983744 0.0008532173 0.0012828825 -0.0014751664 -0.00046237226 0.000763791 0.0010051968
0.0018346822 -0.001024423 -0.0010249267 -0.0010791654 -0.0010227757 -0.0006863649 -0.0055289553 -0.00042927486
-0.007952154 0.019480778 0.0058857026 -0.0074861376 -0.005967843 0.021912014 0.0003509772 -0.0069578765
0.003937377 -0.006413609 -0.03111843 0.033512544 -0.024763726 0.026514782 0.009238069 0.031542532
0.043252017 0.026782457 0.04111322 0.010354674 -0.02602796 -0.010830678 -0.030886153 -0.021734988
-0.03255009 -0.032982294 -0.022573274 -0.016656067 0.026605073 0.022289932 -0.015673082 0.0115013225
-0.0054464205 0.028255176 0.012592094 0.020841356 -0.030810269 -0.014458836 -0.0030980413 -0.0137492735
-0.009960537 0.016454982 -0.025535246 -0.026496949 -0.017956259 0.010400311 -0.012092505 -0.021726882
-0.006199055 0.037279695 -0.029035231 -0.014667183 0.00516841 0.017807977 0.0008060149 0.025451891
0.005353894 -0.006904514 -0.010087397 0.009401495 0.026293913 0.0062309406 0.022320636 0.032872044
-0.029325487 -0.018044285 -0.0038616222 -0.007704441 -0.013567526 0.007413755 0.037944723 0.017645277
9.6963384e-05 -0.026089946 -0.0043739006 -0.0099236425 -0.014096629 -0.006434657 0.0051603196 0.0010466952
-0.003526169 0.0061494512 0.030552639 0.026531488 -0.025847433 -0.024653759 -0.041257333 -0.03562746
-0.015039628 -0.0074323923 0.0116536915 0.014429223 -0.0067107882 -0.008649551 -0.021260869 0.008461241
0.0408403 -0.0011066761 -0.0106941275 -0.028385293 -0.0054883296 0.019476607 -0.008640339 0.014169615
-0.010679781 -0.006107228 0.004835166 0.006889116 0.010329045 0.0063236216 -0.013931613 -0.013845432
-0.014517162 -0.0036264814 -0.03316923 -0.04735258 0.019431025 -0.0066524236 -0.0066104033 -0.0005403541
0.010450796 0.025136823 -0.0032257596 0.010212953 -0.013255528 0.018553948 0.012861097 -0.0085224
-0.02287037 0.008687763 0.03471512 -0.00721695 -0.010866187 -0.008918252 -0.0042472356 -0.0016030973
-0.0013601737 -0.0013855742 -0.0006465036 0.0015268713 0.0010472895 0.002200782 0.0018448491 0.0021848748
-0.0022011024 -0.0022139642 0.00012979763 -0.0010735099 0.0040913257 -0.025757289 -0.018704034 0.008948067
0.0086647505 0.04412771 -0.00854562 0.042751368 -0.011164387 -0.04284355 -0.008018509 0.013204764
-0.011040203 -0.019555287 -0.013254608 -0.014162721 -0.00023751555 -0.0011409578 -0.0040915613 0.0007870793
0.005034492 -0.0035025352 -0.0059325444 0.03428847 0.008197784 0.02514456 0.006444567 0.0145304585
-0.008292277 0.015998162 -0.018017933 0.0072761234 0.00075027026 -0.0012134082 0.022246877 0.037937675
0.04249526 0.02645809 0.028071187 -0.026076553 -0.014495462 0.023570457 0.019624185 -0.01504142
0.044983383 -0.038546424 -0.027393317 -0.024064573 -0.014829517 -0.021798812 -0.023535518 -0.024482124
0.041163616 -0.003754463 0.0333628 0.013876749 0.023088938 0.033616986 0.008566741 0.0070346235
-0.017311778 -0.005780782 -0.005760722 -0.013569578 0.0009814936 -0.015766893 -0.003010091 -0.0028271473
-0.006169867 0.0039954404 -0.025240479 0.014312918 0.029371755 0.018935343 -0.020425243 -0.021768857

fc_hidden.0.bias f4 [32]
00000000: 9987 63b6 1bd3 acb6 56ef b9b7 6f0b dd37
00000010: 9ab1 edb4 0cd3 b9b4 d38e 7e36 ae81 5136
00000020: ba70 aeb2 71ea 6fb7 beae 3cb7 8923 d935
00000030: d31a 8338 cfa8 2e37 cb3b 2737 2e78 d0b6
00000040: 8745 5836 407e 4a37 3d2f 2235 ad9c 1d37
00000050: cd14 9536 5843 3e36 9107 0ab7 0955 cf35
00000060: 3982 7536 4e41 3638 c2fa 3136 8496 beb5
00000070: b6af 1137 b11c dab6 069e 2b37 c25e 5f38
-3.3904564e-06 -5.1505754e-06 -2.2165168e-05 2.6350577e-05 -4.4273912e-07 -3.4612492e-07 3.7932084e-06 3.121891e-06
-2.0307528e-08 -1.4300095e-05 -1.1246359e-05 1.6178102e-06 6.251563e-05 1.0410512e-05 9.967897e-06 -6.212874e-06
3.2226978e-06 1.2069533e-05 6.0418444e-07 9.394408e-06 4.4429676e-06 2.8351405e-06 -8.227203e-06 1.544745e-06
3.6583644e-06 4.3453e-05 2.6521016e-06 -1.4199909e-06 8.683584e-06 -6.5002464e-06 1.0229187e-05 5.3255593e-05

fc_hidden.1.weight f4 [32]
00000000: f9c4 423f 7fdc 1a3f cc8a 403f 3250 f13e
00000010: aa05 193f 0fe1 373f 85da 093f bd31 2b3f
00000020: 59e7 593f a297 1f3f 1390 283f 3d1a 1c3f
00000030: d954 243f 757e 503f b8e5 223f fa7e 4d3f
00000040: f49a 173f 838f 273f 44f8 353f ed1d 3d3f
00000050: 6c45 1a3f b692 ed3e 37bc 4d3f 37c5 453f
00000060: 9375 1b3f 42f7 543f 47b8 363f fb90 393f
00000070: 8364 153f c8cd 113f 43e8 173f d64e 433f
0.76081806 0.604927 0.7521179 0.47131497 0.5977427 0.7182779 0.5384906 0.6687277
0.85118634 0.6234075 0.6584484 0.60977536 0.6419197 0.8144296 0.63631773 0.80271876
0.59220815 0.65453357 0.7108195 0.7387379 0.6026218 0.46400994 0.8036532 0.7725405
0.6072628 0.83189785 0.71374935 0.7248685 0.58356494 0.5695462 0.5933878 0.7629217

fc_hidden.1.bias f4 [32]
00000000: 6399 a23e fcb5 d23d 467b 8b3e e75b 223e
00000010: 552a 463e 0f79 663e b59e 1f3e 05b3 753e
00000020: 5134 a93e a153 143e 9bc7 853e a32c 8c3e
00000030: 6685 903e de54 d23e 9d69 0a3e f2a2 d03e
00000040: 9ed1 eb3d a318 623e e458 863e 44a8 ba3e
00000050: 9360 6c3e dad6 b73d 63e3 9a3e 337c 9e3e
00000060: eb9d 7e3e 1c06 9a3e 4a91 9f3e cc65 9d3e
00000070: a14c 593e 8b69 043e 45de 343e 6c66 913e
0.3175765 0.10288617 0.27242488 0.1585537 0.19352086 0.22507118 0.15587886 0.23994072
0.33047727 0.14485027 0.2612885 0.27377805 0.28226775 0.41080374 0.13516851 0.40749317
0.11514591 0.2207971 0.26239693 0.364565 0.23083715 0.089765266 0.30251607 0.3095413
0.24864928 0.30082786 0.31165534 0.30741727 0.21220638 0.12930886 0.17662914 0.28398454

fc_hidden.1.running_mean f4 [32]
00000000: 491a 21bd 21db 87be d624 563d ded8 19be
00000010: 5b8c 73be 8a44 bdbc b9bc 18be 9e8e 70be
00000020: eb06 723e 727c 41be 67e2 eebc d8c8 11bf
00000030: 80af 3abf 1f12 2fbe 8ae4 d5bd fc4d d5be
00000040: bb18 993c c4d6 69be c681 b2be 1c11 b4be
00000050: aa56 33be 866a 44be 728d 98be c3ef 69be
00000060: 444f bfbe 538b 16be e97d 49bd f4ee d1bd
00000070: e6cb 01bf 9620 89be f8dd bebd caa2 a5be
-0.039331708 -0.2653437 0.052281223 -0.15024135 -0.2378401 -0.023103971 -0.14915742 -0.23491904
0.23635451 -0.18895128 -0.029160691 -0.5694709 -0.7292404 -0.17096756 -0.10443981 -0.4166106
0.01868855 -0.22835833 -0.34864634 -0.35169303 -0.17513528 -0.1918126 -0.29795414 -0.22845368
-0.37365162 -0.14701585 -0.049192343 -0.10250655 -0.5070175 -0.26782674 -0.09319681 -0.3235076

fc_hidden.1.running_var f4 [32]
00000000: 5f02 d33d 6a8c e43d 800e 213e ccad 973d
00000010: 01bc ba3d 5467 083e 359f fa3d 2724 113e
00000020: caa1 003e 83cf b23d 924d 013e 3a12 223e
00000030: 9011 053e 717e 113e 0e0b ec3d d45f 1f3e
00000040: bcd9 973d f52f f33d 4ac8 093e b5fc 333e
00000050: 2088 e43d 4c8c b83d 7283 033e fc7f 153e
00000060: d022 1f3e cf72 b33d 4a7c 1d3e b011 443e
00000070: dad6 b33d fca4 9e3d f280 cc3d 1aae b73d
0.103031866 0.11159594 0.15728188 0.07406196 0.0911789 0.13320667 0.122373976 0.14173947
0.12561718 0.08730986 0.12627247 0.15827265 0.12994981 0.1420839 0.11525546 0.155639
0.074145764 0.118743815 0.1345531 0.17576869 0.11158776 0.090111345 0.12843111 0.14599603
0.15540624 0.087621324 0.15379444 0.19147372 0.08781214 0.07746312 0.09985532 0.08968754

rnn.weight_ih_l0 f4 [128, 32]
00000000: 15c4 a6bb 5007 0abd 1a78 8bbc 2677 86bc
00000010: 8383 c4ba 2825 95bc 09b6 84bc daad 9bbc
00000020: d4a1 5fbc fa45 5ebc 8f7d 06bb 8e3d 9fbc
00000030: 13ac 0cbc 5a76 5abc 8d79 26bd a6fe beba
00000040: 0032 9438 7734 06bd 2c30 09bb e7e0 4d3c
00000050: a374 28bc 3f40 f8bb b540 2dbc 9f58 1cbd
00000060: d616 d0bb 70b8 66bc ee24 30bc 0bba 3a3b
00000070: a0d6 273c 5cc5 84bb 4e20 e1ba d70e 953b
00000080: 2675 d43d 0ed8 a2bb 451e 853d 7af5 1bbc
00000090: f26c a23d f678 ae3c 408a 003d 3297 54bd
000000a0: a78e c73d 3bce 8a3c 047a 11bd 2cdd cd3d
000000b0: d518 b53d 0ed1 bc3d 6301 b6bc 40ba eb3d
000000c0: f118 02bd 74ac d1bc fa5a b3bc 3eaa 873d
000000d0: cb09 ab3d 0317 c53d 082c e5bb 74b3 a23c
000000e0: e020 6d3c a3f0 333e 0bf2 9a3d 2c62 d73d
000000f0: a144 013e 07d3 dc3d 1bbd f53c b490 fe3a
00000100: 5c2e 0ebd 9902 303c 037a 56bc a238 71bc
00000110: b483 833c f4e5 d0bd 2072 80bd 6961 403c
00000120: d4b1 01be c2ec 98bd fee4 79bd 9130 debd
00000130: 3b69 a0bd 6c97 c3bd 52b7 9dbd 4649 05bd
00000140: 12a6 a6bc c9a7 243d 9bbd a2bd 0208 96bd
00000150: 5f5c b73c 12d0 0a3c 9c44 36bd b0b2 a0bd
00000160: 7335 c0bd 28d3 aebc b087 03be 560d a5bd
00000170: 512b 5dbd 3126 70bc 0784 f6bc 3286 ccbd
00000180: 509a cdbc c2a0 d2bc 30c3 99bc e77a 8dbb
00000190: 772e 3dbb 40a4 62bc b00f 5dbc 602e 54bb
000001a0: 9f46 b2bc cd0f 8fbc 5562 2cbc f259 0bbc
000001b0: 9cb2 4fb9 46ce 01bc 4f86 06bd 37c0 36bc
000001c0: 6ea4 2cbb 2426 34bc 1f39 d2bc 2758 413b
000001d0: c6da 0cbc 37a3 33bc 236d 9cbc 40da c7bc
000001e0: 3d39 543b f880 abbc aaa0 4fbc cf3d 59bc
000001f0: eb51 6ebb 0dc1 8bbc 0a9c 5bbb 64a9 313b
00000200: 2942 27be baff 86bd 6aaa 03be 8f87 bbbd
00000210: 18d8 66bd 462f a7bd e115 e7bd 427e bbbd
00000220: f496 08bd eb4e 86bd d911 8cbd a961 70bd
00000230: a0b0 bcbd fe79 81bd 0aff 97bd 49d2 bebd
00000240: c682 97bc 33bb c2bd 0435 2ebd de9f 66bd
00000250: 0d02 9dbd ba75 d6bc 17f0 64bd 0e52 f2bd
00000260: 7792 90bd a8e1 8ebd 466c 2ebd 3b76 76bd
00000270: 23db 68bd 8933 66bd b142 38bd f68a 9abc
00000280: 953e 66bc cab2 20bd d083 dcbc c429 1abc
00000290: b7b1 da3b 6cc7 e6bc f417 c6bc 1364 46bd
000002a0: 65f8 663a 1843 1cbc 89bd b239 1c55 2bbc
000002b0: 3064 693b d5e6 debc d8a6 31bd 057f f2ba
000002c0: a5af 0bbb 5b24 3ebd ce48 c93b 2c5d 833c
000002d0: ad1a 92bc da5e bebc b84a 32bd 72ef 6dbd
000002e0: a2f7 d33b ab99 00bd b289 0fba 0029 c73a
000002f0: a14d 2d3c dc25 243a d2be 40ba 7d93 d13a
00000300: ed23 b1bc ed41 a5bb d38f 923c bd4d 80bd
00000310: 7d99 d1bd 4b22 863c 2171 82bc 6e16 9e3c
00000320: ac83 febd d94f 83bd c18f b2bd 3eee cebd
00000330: 9812 f0bd c970 2abb 0435 4dbc 1220 2fbe
00000340: 096d bcbd e9ab 033d 8bb0 1dbe 06de 2dbe
00000350: cd4c 5cbc 3a43 eb3c 12eb 063d 725e b7b9
00000360: c794 febd 2709 eabc c95f 23be 0094 12be
00000370: c54e 0abe 961a 133c 8ae2 bdbd a25f c6bd
00000380: f58b 41bd 0df6 14bd 8dbf 02bd d136 1dbc
00000390: 6dc8 29bc 5ba8 f4bc 6e33 71bc 38c5 0bbd
000003a0: 33f6 09bd 86e4 adbc 23a9 6cbc 4fab 9dbc
000003b0: f86e 2fbc c4f0 f0bc 9e0e 08bd 5c72 d4bc
000003c0: 217a 18bc 6836 bdbc 7233 9abb e056 99bb
000003d0: 0a99 f339 17ca fbbb d554 92bc 9226 37bd
000003e0: 5dce c1bb f9c3 bdbc 8a4b 16bd 9f51 16bc
000003f0: 0944 f43b 1472 21bc e93b b3bc fb2f b0b9
-0.005089293 -0.03369838 -0.017025042 -0.016414236 -0.0014992807 -0.018206194 -0.016200082 -0.019003797
-0.013649423 -0.013566488 -0.0020521616 -0.019438531 -0.008585948 -0.013333881 -0.040643264 -0.0014571741
7.066503e-05 -0.032764878 -0.0020933254 0.012565828 -0.010281715 -0.007576018 -0.010574509 -0.038170453
-0.0063503785 -0.014082059 -0.010750992 0.0028492238 0.010244042 -0.0040518474 -0.0017175765 0.004548888
0.10373907 -0.0049696034 0.06499914 -0.009518975 0.07930936 0.021297913 0.031381845 -0.051902004
0.09744006 0.016944041 -0.035516754 0.10051951 0.08842627 0.092195615 -0.022217458 0.11510134
-0.031762067 -0.025594927 -0.021893967 0.06624268 0.08351477 0.0962353 -0.0069937743 0.01986096
0.01447317 0.17572264 0.07565697 0.10516772 0.12623836 0.10782438 0.0299974 0.0019421787
-0.03471218 0.010742807 -0.013090613 -0.014722975 0.016054012 -0.1020011 -0.062717676 0.011741974
-0.12665492 -0.07467033 -0.0610094 -0.10849107 -0.07832571 -0.09550366 -0.07700981 -0.032540582
-0.02034286 0.040199075 -0.079463206 -0.07325746 0.022382913 0.008472459 -0.044499025 -0.07846582
-0.09385195 -0.021340922 -0.1284473 -0.08059184 -0.053996388 -0.014657543 -0.030092252 -0.09986533
-0.025097996 -0.02571142 -0.01876983 -0.0043176296 -0.0028866807 -0.013833106 -0.01349251 -0.0032376274
-0.02176219 -0.01746359 -0.010521491 -0.008505331 -0.00019807596 -0.007922715 -0.03284293 -0.011154226
-0.0026343125 -0.010995422 -0.025662003 0.0029502006 -0.0085970815 -0.010964206 -0.01909501 -0.024396062
0.003238275 -0.02093552 -0.012672583 -0.013259365 -0.0036364745 -0.017059827 -0.0033509755 0.0027109021
-0.16333832 -0.06591745 -0.12857977 -0.09156715 -0.056358427 -0.081633136 -0.1128347 -0.09154941
-0.033347085 -0.06558021 -0.06839342 -0.058686886 -0.09213376 -0.06322096 -0.07421692 -0.093174525
-0.018494975 -0.09508362 -0.04253103 -0.056304805 -0.07666407 -0.026179183 -0.05589303 -0.11832057
-0.07059186 -0.06976634 -0.042583726 -0.060171347 -0.05684961 -0.05620149 -0.044985477 -0.01886509
-0.014053007 -0.039233007 -0.026918322 -0.009409372 0.0066740173 -0.028171264 -0.024181344 -0.048435282
0.00088108174 -0.009537481 0.0003409202 -0.010457303 0.0035612695 -0.027209679 -0.043372005 -0.001850099
-0.002131441 -0.04642139 0.006142712 0.016035639 -0.017834986 -0.023238588 -0.04352829 -0.05808968
0.006468729 -0.03139655 -0.0005475535 0.0015194714 0.01057759 0.0006261745 -0.0007352653 0.001598939
-0.021623576 -0.0050432594 0.017890846 -0.062648274 -0.10234354 0.016373774 -0.015923085 0.019297805
-0.12427458 -0.06411714 -0.08718825 -0.10104035 -0.117222965 -0.0026007167 -0.012524847 -0.17102078
-0.09200484 0.03214637 -0.15399377 -0.16979226 -0.013446045 0.02871858 0.032939024 -0.00034974847
-0.12430721 -0.028568817 -0.15954508 -0.1431427 -0.1350661 0.008978507 -0.092717245 -0.09686209
-0.047252614 -0.036367465 -0.03192096 -0.009595589 -0.010362727 -0.029865434 -0.014721734 -0.03412363
-0.03368206 -0.021227133 -0.014444622 -0.019246725 -0.010707609 -0.029411681 -0.033217065 -0.025933437
-0.009306462 -0.023097232 -0.00470584 -0.0046795458 0.00046462595 -0.007684003 -0.017862717 -0.044714518
-0.005914493 -0.023164736 -0.036693133 -0.009174733 0.0074543995 -0.0098538585 -0.021879153 -0.00033605084

rnn.weight_hh_l0 f4 [128, 32]
00000000: fd67 0200 6375 0600 3eef 0500 08b5 0600
00000010: 064c 0600 3210 0680 237c 0600 6a7b 0600
00000020: 9ece 0680 0ac7 0580 65b7 0180 093a 0180
00000030: 895d 0280 52ba 0580 add0 0580 66ee 0580
00000040: 3161 0500 12a4 0680 bd41 0600 b27d 0600
00000050: 75d7 0500 0677 0200 fb8d 0500 96dc 0580
00000060: 94cc 0600 31a9 0200 aa8e 0600 b042 0500
00000070: 713f 0680 6016 0680 c132 0600 efb0 0680
00000080: 21a8 0500 0e81 0680 4184 0600 7238 0680
00000090: 895d 0400 8116 0600 04c6 0600 b32d 0600
000000a0: 125e 0180 5f89 0680 6429 0600 9ea8 0680
000000b0: 9a08 0400 d0c9 0580 847a 0680 0228 0180
000000c0: de7a 0580 6b51 0600 0b69 0600 d6f5 0580
000000d0: 6d58 0300 f00d 0400 9b69 0500 87c6 0500
000000e0: 9279 0580 2fe0 0580 7c98 0080 c9eb 0500
000000f0: 389b 0280 ce41 0180 49dc 0600 3db9 0600
00000100: db05 0600 a548 0600 5d63 0680 a06f 0680
00000110: 90c5 0680 9e5c 0500 0a7b 0600 58fd 0580
00000120: 1ac0 0600 f22e 0600 3f49 0680 e2f5 0500
00000130: de5b 0580 52dc 0600 faa1 0100 3ad8 0580
00000140: 05c2 0200 e59b 0280 5df3 0480 9be4 0500
00000150: 0f87 0280 ddae 0280 d85f 0580 2c6f 0500
00000160: bd67 0400 2817 0600 79ef 0580 ead0 0680
00000170: b0c3 0680 dd6e 0600 7e8d 0200 63c6 0680
00000180: 7fef 0500 6655 0600 ee59 0580 6176 0480
00000190: 0269 0600 97c0 0280 bd1b 0500 1d03 0300
000001a0: eefe 0400 6b15 0380 05c0 0680 9216 0600
000001b0: 2ceb 0500 b3b8 0500 c0d8 0600 2978 0380
000001c0: f27c 0280 65a8 0280 4aa5 0500 9212 0680
000001d0: 5010 0000 1e76 0500 67da 0200 44ac 0100
000001e0: c48d 0580 6bc5 0600 7b4a 0080 bafc 0500
000001f0: 4e41 0680 57ac 0680 081e 0680 a43d 0280
00000200: 5ac6 0600 e353 0300 2892 0500 886a 0680
00000210: d0b7 0500 429c 0680 4e8d 0480 740f 0000
00000220: d366 0500 5945 0200 2411 0680 43c9 0600
00000230: f476 0600 99b7 0600 3378 0000 304f 0680
00000240: 8458 0500 8f87 0500 543f 0680 ddcc 0400
00000250: af34 0300 42d7 0600 9370 0500 8bc7 0600
00000260: 089a 0580 17c5 0200 b526 0680 8602 0300
00000270: 4ba0 0680 2467 0680 ad7b 0500 d1fb 0180
00000280: f5c8 0600 8af9 0280 a52c 0600 285c 0580
00000290: da7a 0680 effb 0500 8d19 0600 f54a 0680
000002a0: 0712 0600 88c6 0680 e72d 0280 55d2 0580
000002b0: 6761 0000 5d5f 0600 16f7 0480 c61a 0000
000002c0: 0ed3 0680 6da5 0300 9c60 0380 14f2 0200
000002d0: 9b31 0200 ef00 0600 2070 0200 26ba 0600
000002e0: 88de 0500 29aa 0480 b2e5 0580 9954 0000
000002f0: 1e7f 0280 9d88 0680 8ecd 0000 ae98 0600
00000300: a3aa 0600 6539 0680 d7dc 0500 ac6c 0580
00000310: e889 0600 e6ea 0380 a5a1 0500 772b 0000
00000320: c386 0680 662d 0600 f6b6 0680 8ee1 0400
00000330: 46d6 0600 31d0 0280 dd4e 0300 3f9c 0100
00000340: a81a 0600 c28e 0580 2e89 0680 d689 0500
00000350: 1cc7 0680 e904 0180 98d0 0200 0498 0600
00000360: 53bd 0580 2079 0600 8484 0500 dc9d 0600
00000370: cbf6 0500 2847 0480 554e 0600 dbc1 0600
00000380: f2cf 0680 32aa 0300 6c05 0600 df8d 0100
00000390: 06bd 0500 86ab 0300 cc81 0680 8723 0600
000003a0: 13b7 0280 8adb 0080 2dec 0500 80fc 0080
000003b0: bc82 0000 6bcb 0580 a049 0600 12a7 0600
000003c0: 613d 0280 d386 0600 caf9 0580 18ae 0580
000003d0: 3e94 0680 ce3a 0680 5b47 0580 7663 0580
000003e0: 373f 0000 cd74 0500 1288 0580 b2be 0600
000003f0: a385 0600 79dd 0680 5876 0500 b912 0180
2.20975e-40 5.93123e-40 5.45001e-40 6.15955e-40 5.78285e-40 -5.56823e-40 5.95545e-40 5.95286e-40
-6.25133e-40 -5.30579e-40 -1.57625e-40 -1.12655e-40 -2.17225e-40 -5.26017e-40 -5.34036e-40 -5.44699e-40
4.94043e-40 -6.0987e-40 5.74595e-40 5.96104e-40 5.36469e-40 2.26369e-40 5.1011e-40 -5.38309e-40
6.24402e-40 2.44365e-40 6.02191e-40 4.831e-40 -5.73771e-40 -5.5904e-40 5.6922e-40 -6.14485e-40
5.19491e-40 -5.97309e-40 5.98457e-40 -5.71262e-40 4.00896e-40 5.59086e-40 6.22048e-40 5.67407e-40
-1.25582e-40 -6.00292e-40 5.65861e-40 -6.11501e-40 3.70428e-40 -5.31574e-40 -5.94963e-40 -1.06188e-40
-5.03254e-40 5.8022e-40 5.88695e-40 -5.47367e-40 3.07228e-40 3.72342e-40 4.97062e-40 5.30396e-40
-5.02789e-40 -5.396e-40 -5.4701e-41 5.43761e-40 -2.39353e-40 -1.15442e-40 6.30036e-40 6.17464e-40
5.53114e-40 5.77073e-40 -5.86658e-40 -5.91056e-40 -6.21885e-40 4.92402e-40 5.95151e-40 -5.5006e-40
6.19926e-40 5.67854e-40 -5.77289e-40 5.47384e-40 -4.92133e-40 6.30049e-40 1.49942e-40 -5.36745e-40
2.53272e-40 -2.39595e-40 -4.54644e-40 5.41186e-40 -2.32121e-40 -2.464e-40 -4.9356e-40 4.99058e-40
4.04556e-40 5.5932e-40 -5.45084e-40 -6.25957e-40 -6.21212e-40 5.90783e-40 2.34429e-40 -6.22181e-40
5.45092e-40 5.81648e-40 -4.91438e-40 -4.09808e-40 5.88683e-40 -2.52759e-40 4.69128e-40 2.76623e-40
4.58794e-40 -2.8319e-40 -6.19897e-40 5.5911e-40 5.43541e-40 5.25435e-40 6.28768e-40 -3.18612e-40
-2.28493e-40 -2.4408e-40 5.18472e-40 -5.57675e-40 5.852e-42 5.0155e-40 2.62019e-40 1.53633e-40
-5.10033e-40 6.21833e-40 -2.6719e-41 5.49839e-40 -5.7444e-40 -6.12837e-40 -5.61786e-40 -2.05783e-40
6.22168e-40 3.056e-40 5.11608e-40 -5.89229e-40 5.25117e-40 -6.07068e-40 -4.18033e-40 5.544e-42
4.96064e-40 2.08548e-40 -5.57162e-40 6.23212e-40 5.93685e-40 6.16875e-40 4.312e-41 -5.7942e-40
4.90931e-40 5.07807e-40 -5.73731e-40 4.40833e-40 2.94406e-40 6.28233e-40 4.99562e-40 6.22596e-40
-5.14433e-40 2.54374e-40 -5.64898e-40 2.76412e-40 -6.08515e-40 -5.88013e-40 5.03544e-40 -1.8217e-40
6.23103e-40 -2.73189e-40 5.67028e-40 -4.92237e-40 -5.95084e-40 5.49554e-40 5.60179e-40 -5.77902e-40
5.5748e-40 -6.22233e-40 -2.00138e-40 -5.3463e-40 3.4941e-41 5.85223e-40 -4.5598e-40 9.604e-42
-6.26725e-40 3.3485e-40 -3.10163e-40 2.70512e-40 2.01466e-40 5.51348e-40 2.23894e-40 6.1779e-40
5.39007e-40 -4.28384e-40 -5.41577e-40 3.0348e-41 -2.29272e-40 -6.0002e-40 7.3739e-41 6.05784e-40
6.12226e-40 -5.71602e-40 5.384e-40 -4.98162e-40 6.00484e-40 -3.59772e-40 5.17165e-40 1.5592e-41
-5.99356e-40 5.67299e-40 -6.16647e-40 4.48256e-40 6.2788e-40 -2.58356e-40 3.03797e-40 1.47886e-40
5.60575e-40 -5.1039e-40 -6.00224e-40 5.08624e-40 -6.2244e-40 -9.3597e-41 2.585e-40 6.05546e-40
-5.27094e-40 5.94464e-40 5.06715e-40 6.07642e-40 5.4771e-40 -3.92868e-40 5.79113e-40 6.20555e-40
-6.2561e-40 3.36561e-40 5.52958e-40 1.42729e-40 5.26986e-40 3.37038e-40 -5.97575e-40 5.63758e-40
-2.49346e-40 -7.8756e-41 5.43901e-40 -9.058e-41 4.6899e-41 -5.3215e-40 5.77425e-40 6.10947e-40
-2.0569e-40 5.99379e-40 -5.48785e-40 -5.2163e-40 -6.04192e-40 -5.72108e-40 -4.84775e-40 -4.94857e-40
2.2677e-41 5.01078e-40 -5.0799e-40 6.19422e-40 5.98953e-40 -6.30462e-40 5.01631e-40 -9.8552e-41

rnn.bias_ih_l0 f4 [128]
00000000: 7e3d 1a3d 2471 e73c a8e4 b33b 0a88 1ebc
00000010: a297 ac3d ff10 c53c d32b a83d 9e44 8dbc
00000020: 8c15 2d3d 88cf c2bc 26e5 9fbb d9b5 aa3d
00000030: 9db7 253a 0dab c23d c08c bbbd b956 9b3d
00000040: 872b 88bc 6ca1 553c a64e aebd ce6e 5e3d
00000050: 2ad1 f33c 0a99 893a 926b 433d f711 59bd
00000060: f356 243e 4b6f 073c ff5d df3d f23b a23c
00000070: 7d41 9e3d 7743 e83c f583 46bc c547 3abb
00000080: 9c64 0200 87a8 0680 e95f 0580 9ea8 0600
00000090: f386 0680 c45b 0580 fbb2 0680 4a70 0400
000000a0: b0ae 0100 ba8f 0580 c405 0680 2cdb 0680
000000b0: acea 0580 83cc 0600 3258 0680 d9f5 0200
000000c0: fa92 0580 9e17 0280 08c8 0580 f997 0680
000000d0: 4bb0 0600 3fa8 0280 1495 0500 1013 0380
000000e0: 851f 0680 b793 0600 a9d0 0680 c137 0080
000000f0: 35ee 0500 1c69 0500 ec1c 0500 fca0 0680
00000100: 2a73 943d 44f7 903e 236c c73d b467 b33d
00000110: 63ed c9bc 7dd5 abbd 2944 543e 250d 2d3e
00000120: 4a8d 22bd e2b7 113d c1d9 a03d 677b 95bd
00000130: 21de 3fbc 63c7 0bbd b19f f6bd 6bb8 b9be
00000140: 7ce0 42be 0ecb 643e 2564 8f3e 7f43 00be
00000150: d48a 33ba fbd2 003d 63e8 babc 2928 a1bd
00000160: d371 ab3e 2470 3e3d 3a6c eebc 19bf 9c3d
00000170: d5e7 59bd 57ad f7bb 7a3d af3b 6e47 9dbc
00000180: 84a3 ed3c 60dc 193e 74e6 a33d 03dd 2a3c
00000190: 7ba7 bd3d 7c35 8d3c 5c5b 9e3d d399 4f3d
000001a0: d2c2 0f3d a377 bcbc e98b a6bb 7c8a 5f3d
000001b0: fcbd 60ba c195 c03d 46c4 dcbd 68ea 5fbc
000001c0: d323 f2bc 5439 903d f1e3 503c 1ea9 353d
000001d0: b4ff c03c 5ae8 e2b9 ca09 bd3c 84fb f23b
000001e0: ed4e 1e3e d458 7d3c 54ee db3d 4b13 793c
000001f0: f033 723d f98c bc3c 006c 32bc b66f 5fbb
0.0376563 0.028252192 0.0054899044 -0.009675989 0.08427359 0.024055956 0.08211484 -0.017244633
0.042256877 -0.0237806 -0.0048796115 0.08335466 0.0006321611 0.095052816 -0.09157705 0.075849004
-0.016622318 0.013038974 -0.08511095 0.05430489 0.029762823 0.001049788 0.04771001 -0.05299565
0.16048793 0.00826628 0.109066 0.019803975 0.07727335 0.028352482 -0.012116422 -0.0028424126
2.19763e-40 -6.11469e-40 -4.93584e-40 6.11501e-40 -5.99424e-40 -4.92097e-40 -6.15219e-40 4.07624e-40
1.54502e-40 -5.10737e-40 -5.53081e-40 -6.29637e-40 -5.43362e-40 6.24378e-40 -5.82651e-40 2.71865e-40
-5.11903e-40 -1.92143e-40 -5.30935e-40 -6.0553e-40 6.14255e-40 -2.44026e-40 5.12657e-40 -2.82345e-40
-5.6232e-40 6.04003e-40 -6.25866e-40 -2.0001e-41 5.4463e-40 4.96884e-40 4.69553e-40 -6.08763e-40
0.07248528 0.2831365 0.09737422 0.08760014 -0.024649328 -0.08390329 0.20729126 0.16899545
-0.039685525 0.035575755 0.07854033 -0.07298928 -0.0117106745 -0.034125697 -0.120421775 -0.36273512
-0.19030946 0.22343084 0.28006092 -0.12525748 -0.0006848995 0.031451207 -0.022815889 -0.07868988
0.33485278 0.046493664 -0.02910434 0.076536365 -0.053199608 -0.0075585055 0.0053479047 -0.0191991
0.029008634 0.15025473 0.0800294 0.01042867 0.0926046 0.017237417 0.07732269 0.050683808
0.035097905 -0.023006266 -0.0050825966 0.05457543 -0.0008573232 0.09403563 -0.10779624 -0.013666727
-0.029558098 0.070421845 0.012749658 0.044350736 0.023559429 -0.00043279195 0.023075957 0.007415237
0.15459795 0.015463073 0.10738817 0.015202354 0.059131563 0.02301644 -0.010890007 -0.0034093685

rnn.bias_hh_l0 f4 [128]
00000000: 7d3d 1a3d a9f7 8f3d 0fe6 833c 6367 1abc
00000010: 02b0 be3d 4a2f c63c 76cf 893d b693 883c
00000020: ce07 2b3d 71c4 c2bc 1a24 90bb df51 963d
00000030: 70fb fc39 f18c c23d 52b3 be3d 5960 f0bc
00000040: b936 a93d d506 2c3d bdaa a3bc 0168 5e3d
00000050: 3ed1 f33c 8796 8a3a cf5f 453d d62d f2bb
00000060: 8ff9 3c3e 066d ad3c c25d df3d 4b36 983c
00000070: 8902 8a3d 7943 e83c 224f 4cbd 1d48 3abb
00000080: cf1d 0680 6951 0600 b305 0100 edb0 0600
00000090: f32a 0680 4be1 0500 989f 0580 4376 0500
000000a0: 7f7c 0580 9594 0180 1a42 0100 2580 0000
000000b0: 8946 0600 3164 0580 f613 0600 e96a 0600
000000c0: 0555 0180 28d9 0500 8e97 0600 f679 0580
000000d0: d699 0680 5902 0180 c692 0680 689d 0280
000000e0: 9953 0600 a379 0380 79d9 0680 01a8 0580
000000f0: f7b7 0600 182f 0600 da1d 0200 3ead 0600
00000100: 1915 be3d a681 733e c6bd c23e cab5 063e
00000110: e5f7 c63c f349 8f3c 274f 303e f5f2 233e
00000120: 03a1 18bd 6931 f9bd 1261 abbd e8b4 e83d
00000130: 12f1 fa3c a5a5 83bd 2ae7 84be 8f1f 06be
00000140: c2d5 06be 9d92 1c3e 9a4b 3b3e 8aa9 5ebd
00000150: ab92 32bd 6413 37bc 1207 273e a073 6bbd
00000160: fa47 993e f10d be3d 7061 42bd e0fb 34bd
00000170: 52a8 fdbb 664f 5a3b d0f3 86be 6f60 17bc
00000180: b7a1 ed3c a747 4f3e 61ba 3abb 5f13 b93b
00000190: 9dd1 b23d 6534 8b3c 542b 4fbd ef37 45bc
000001a0: 5271 113d e267 bcbc ef8c 8abb 9428 003d
000001b0: 4b13 ccb9 eba4 c03d e5f5 81bd 4070 a63d
000001c0: 79b8 983d 7e0b 93bd 4ade 053d 8f72 363d
000001d0: a1ff c03c 4d9c 6bb8 df89 e93c af4a 3ebc
000001e0: ca6e ccbd f038 7b3c c4ee db3d 9f9f 5c3c
000001f0: a807 833d f88c bc3c 498d 48ba f66c 5fbb
0.037656296 0.07029659 0.016100911 -0.009424063 0.093109146 0.024192471 0.06729023 0.016671997
0.04175549 -0.023775311 -0.004398835 0.073398344 0.0004825252 0.09499539 0.093115464 -0.029342817
0.08262391 0.041998703 -0.019978875 0.054298405 0.02976286 0.0010573425 0.048187073 -0.007390718
0.18454574 0.02117015 0.10906555 0.018580576 0.06738765 0.028352486 -0.049880154 -0.002842433
-5.61706e-40 5.80217e-40 9.388e-41 6.14482e-40 -5.6642e-40 5.39997e-40 -5.16429e-40 5.01602e-40
-5.03838e-40 -1.45137e-40 1.15548e-40 4.597e-41 5.76316e-40 -4.9512e-40 5.58174e-40 5.89365e-40
-1.22335e-40 5.37078e-40 6.0538e-40 -5.02929e-40 -6.06199e-40 -9.2678e-41 -6.03665e-40 -2.40138e-40
5.81002e-40 -3.19142e-40 -6.29027e-40 -5.19446e-40 6.17007e-40 5.67907e-40 1.9438e-40 6.1316e-40
0.09281368 0.23779926 0.3803541 0.13155285 0.024288127 0.017491316 0.17217694 0.1601065
-0.037262928 -0.12167627 -0.08368124 0.1136263 0.03063253 -0.064280786 -0.25957614 -0.13097976
-0.1316748 0.15290304 0.18290558 -0.054360904 -0.043596905 -0.011174057 0.16311291 -0.057483315
0.29937726 0.09280003 -0.047456205 -0.04418552 -0.0077410126 0.0033311485 -0.2635789 -0.0092393
0.029007776 0.20242177 -0.0028492438 0.005648061 0.08731387 0.016992757 -0.05057843 -0.012037261
0.03550846 -0.022998754 -0.0042282264 0.0312887 -0.00038924286 0.094064556 -0.06345729 0.08126879
0.0745706 -0.07179926 0.032682694 0.044542845 0.023559393 -5.6173933e-05 0.028508125 -0.011614486
-0.09982069 0.015333399 0.107389 0.013465791 0.06397945 0.023016438 -0.00076504477 -0.0034092045

fc_output.weight f4 [1, 32]
00000000: f61a 063d 6343 313e 7e77 083e bdfc a33c
00000010: 23b7 4f3e 9469 ecbc add0 8b3d 2a15 d23c
00000020: 4840 36bd 1f8f d8bc 2670 7c3c c528 8a3d
00000030: 7def 663c 70e8 4a3d 08fc ffbd b75f 17be
00000040: 254d 7ebd c9e6 063e eda8 a33d 90ea 3dbd
00000050: b997 1ebd 9acb cdbc b591 163d 4e9e ebbd
00000060: c409 d33d 260e c63c a065 393e 9b25 053d
00000070: 54cb 99bd 905c 2fbd df8f efbc 08f2 853c
0.032740556 0.17310862 0.13326833 0.020017976 0.20284705 -0.028858937 0.06826911 0.025644857
-0.044494897 -0.026435433 0.015407598 0.067460574 0.014095184 0.049538076 -0.12499243 -0.14782606
-0.06208529 0.13173975 0.079912044 -0.046366274 -0.038718913 -0.025121499 0.03676005 -0.115048036
0.10304597 0.024176668 0.18105173 0.032506566 -0.07509485 -0.042812884 -0.029243408 0.016350761
