model.pth (torch, 25174 bytes, 23 tensors)

cnn.0.weight f4 [16, 10, 1]
0	0x3de83766	0.113386914
1	0xbce867ed	-0.028369868
2	0xbe737ad8	-0.2377733
3	0x3e626af5	0.22111113
4	0x3daaf664	0.083477765
5	0x3d534560	0.051579833
6	0x3e19af3a	0.1500825
7	0x3e0239b5	0.12717326
8	0x3c8b56e0	0.017009199
9	0x3d92125b	0.07132407
10	0xbe44c181	-0.19214441
11	0xbdcd3aa9	-0.10020954
12	0x3bba5ec9	0.005687569
13	0xbd916942	-0.071001545
14	0x3dfa142f	0.12210881
15	0xbe23664d	-0.15956993
16	0x3cc751c7	0.024330987
17	0xbd9f5149	-0.07779176
18	0xbd66c4b6	-0.056339942
19	0x3e996193	0.29957256
20	0xbd7d8072	-0.061890073
21	0xbbbcc79c	-0.0057611
22	0x3dd09d2a	0.10186227
23	0x3e798dfe	0.24370572
24	0x3e9e3765	0.30901638
25	0x3e3c31a7	0.18378316
26	0x3bc6285a	0.0060472907
27	0xbd1ad46f	-0.03780025
28	0x3eb08419	0.34475783
29	0x3e15ed85	0.14641388
30	0x3dfe610f	0.12420856
31	0xbed3a223	-0.41334638
32	0xbde0172c	-0.1094192
33	0xbe76a58d	-0.2408659
34	0xbd452b33	-0.0481369
35	0x3db8a01c	0.090149134
36	0xbc007c96	-0.007842204
37	0x3d3d375f	0.046195384
38	0xbe1d8b29	-0.15385117
39	0x3df6b1d4	0.12045637
40	0xbd8246b0	-0.06361139
41	0xbe240d3d	-0.16020675
42	0xbeef9244	-0.4679128
43	0xbe4091cc	-0.18805617
44	0x3d20d536	0.039265834
45	0xbcb337f7	-0.021877272
46	0x3d9c6dca	0.07638128
47	0xbeab867f	-0.3350105
48	0x3d973283	0.07382681
49	0xbb26eccb	-0.002547073
50	0xbdf16578	-0.11786932
51	0x3d52b46e	0.051441602
52	0xbd94d12d	-0.072664596
53	0x3e7d9dd9	0.24767245
54	0x3e625dd4	0.22106105
55	0xbde15206	-0.11001973
56	0x3d4df275	0.050280053
57	0x3dff7bd4	0.1247479
58	0x3e997697	0.2997329
59	0xbdcd5f95	-0.100279965
60	0x3e6c4c24	0.2307592
61	0xbd1e43db	-0.03863893
62	0xbe178c9e	-0.14799735
63	0x3e48b822	0.19601491
64	0xbd9af091	-0.07565416
65	0x3dcc777b	0.099837266
66	0xbe40e567	-0.1883751
67	0xbb28e8ff	-0.0025773642
68	0xbda4b1b5	-0.080417074
69	0x3d90351c	0.0704138
70	0x3e788733	0.24270324
71	0xbe5e595a	-0.21713772
72	0x3e37b303	0.17939381
73	0x3c828a50	0.015935093
74	0xbdb87e7f	-0.09008502
75	0x3c1b082c	0.009462398
76	0xbdbad7c3	-0.091231845
77	0x3dd21303	0.102575324
78	0xbe349608	-0.17635357
79	0x3df27f6e	0.118407115
80	0x3d8afcf5	0.06786529
81	0xbdd3dd7b	-0.103449784
82	0xbe930264	-0.2871276
83	0xbec1eca7	-0.37875864
84	0xbb52d8b0	-0.0032172613
85	0x3dd23279	0.10263533
86	0x3c5764c0	0.013146579
87	0x3d3513cf	0.044208344
88	0xbd1531b1	-0.036424343
89	0x3a4c672d	0.0007797357
90	0x3dca255f	0.09870409
91	0x3e10543d	0.14094634
92	0x3bc5f875	0.0060415813
93	0x3dd81f5f	0.105528586
94	0xbd77da18	-0.060510725
95	0xbe7c9bce	-0.2466881
96	0xbe17d212	-0.14826229
97	0xbde40746	-0.111342
98	0xbc524b66	-0.012835359
99	0xbdb61065	-0.08889846
100	0xbbdfa777	-0.0068253833
101	0xbcc222a5	-0.02369816
102	0xbd644f07	-0.05573943
103	0xbe871e9a	-0.26390535
104	0x3e3f3de2	0.1867595
105	0x3e0934d0	0.13399053
106	0x3c0217ce	0.007940246
107	0xbd78d169	-0.060746584
108	0x3e85ee3e	0.26158327
109	0xbdb6c688	-0.089245856
110	0xbdca1a40	-0.09868288
111	0x3e622cdf	0.2208743
112	0x3c085ec3	0.008323374
113	0xbe4b3a5e	-0.19846484
114	0xbb12159e	-0.0022290717
115	0xbe2141bf	-0.15747736
116	0xbd2e5188	-0.042558223
117	0xbe21bf5d	-0.15795656
118	0xbe12c15e	-0.14331576
119	0x3dfe5578	0.124186456
120	0x3caa7263	0.020806497
121	0xbd28dc6a	-0.04122583
122	0xbe76e8e7	-0.24112283
123	0x39f8ad25	0.0004743125
124	0x3dc89854	0.09794679
125	0x3e07b861	0.13253929
126	0xbd57f47e	-0.0527234
127	0x3da3497c	0.079730004
128	0xbd5b88dd	-0.05359732
129	0x3e664a29	0.22489227
130	0xbe2cad77	-0.16863047
131	0xbd233e71	-0.03985447
132	0x3e37d5f6	0.17952713
133	0xbdc07e9c	-0.09399149
134	0xbd9b27be	-0.075759396
135	0xbe8f41b8	-0.27979827
136	0xbc969664	-0.018382259
137	0xbd9f55f9	-0.0778007
138	0xbcdd3431	-0.027002426
139	0x3dc0adca	0.09408148
140	0x3e36883b	0.17825405
141	0x3e10c44b	0.1413738
142	0x3e0a6df7	0.13518511
143	0xbe86e652	-0.26347595
144	0x3d100768	0.035163313
145	0xbd7007a7	-0.058601048
146	0x3d6dcad9	0.05805478
147	0xbcf75bc6	-0.030195128
148	0xbd9524f0	-0.07282436
149	0x3d1508a7	0.036385205
150	0x3e1039d3	0.14084558
151	0xbcc8474a	-0.024448056
152	0xbe5e27e1	-0.216949
153	0xbdd2ad6c	-0.10286984
154	0xbc375dce	-0.011191798
155	0xbdbd35f5	-0.09238807
156	0x3df561c6	0.119815394
157	0x3e74c4a6	0.2390314
158	0x385acb70	5.2164716e-05
159	0x3d5d2a1f	0.053995248

cnn.0.bias f4 [16]
0	0xb88a31de	-6.589641e-05
1	0x376443ed	1.3605674e-05
2	0x3a00105a	0.0004885249
3	0x38effd56	0.000114435956
4	0x3a403d66	0.0007333368
5	0x393be88f	0.00017920345
6	0x383910de	4.4123146e-05
7	0x3862b29e	5.404895e-05
8	0xb9232da2	-0.00015561891
9	0x398172f6	0.0002469045
10	0xb96171ee	-0.00021500114
11	0x39617b6c	0.0002150365
12	0x38828c10	6.224972e-05
13	0xb8dc14bf	-0.00010494282
14	0xb9125299	-0.00013954415
15	0xb8876a70	-6.457127e-05

cnn.1.weight f4 [16]
0	0x3e803e83	0.25047693
1	0x3ebd22b3	0.36940536
2	0x3ed33e60	0.41258526
3	0x3e93d14c	0.28870618
4	0x3f1d8293	0.61527365
5	0x3ecbe802	0.39825445
6	0x3ecb2e48	0.39683747
7	0x3ec455c2	0.38346678
8	0x3f25e81f	0.64807314
9	0x3ecd79d4	0.4013201
10	0x3f0e6faf	0.55639166
11	0x3eed52ef	0.46352336
12	0x3e7f8eb0	0.24956775
13	0x3ed88673	0.42290077
14	0x3eba89d4	0.3643328
15	0x3ebc9f9c	0.36840522

cnn.1.bias f4 [16]
0	0xbdf6cba8	-0.12050563
1	0xbe762e86	-0.24041185
2	0xbd21f47f	-0.03953981
3	0x3e12baf3	0.14329128
4	0xbe022aee	-0.12711689
5	0xbe3a866a	-0.18215337
6	0xbd88ba25	-0.06676129
7	0x3db3211f	0.08746552
8	0xbdc186a2	-0.09449507
9	0xbe4563cb	-0.19276349
10	0xbe07975e	-0.13241336
11	0xbdeb224c	-0.11481151
12	0xbda092d6	-0.07840507
13	0xbdd32fa1	-0.10311819
14	0xbda0b7a1	-0.078475244
15	0xbe78b3a3	-0.24287276

cnn.1.running_mean f4 [16]
0	0x3e95de71	0.29271272
1	0xbcfb2cee	-0.030661073
2	0x3ee6afee	0.450561
3	0xbddc220f	-0.10748684
4	0xbe332864	-0.17495877
5	0x3e7bf6ff	0.2460594
6	0x3d97b620	0.074077845
7	0xbcd08403	-0.025453573
8	0xbe09e949	-0.13467897
9	0xbe45b8e2	-0.19308808
10	0x3ca6d41e	0.020364817
11	0xbe710e49	-0.23540606
12	0x3e2882da	0.16456166
13	0xbe708c8b	-0.23491113
14	0xbdee62f8	-0.116399705
15	0x3d386b8c	0.04502444

cnn.1.running_var f4 [16]
0	0x3a37c11e	0.00070096727
1	0x3aec1826	0.0018012568
2	0x3abdab09	0.0014470528
3	0x3b2a3097	0.0025968903
4	0x3a4ee658	0.00078926
5	0x3a30d7cd	0.0006746024
6	0x3a606063	0.00085592846
7	0x3a82a012	0.0009965918
8	0x3a7238e0	0.00092400424
9	0x3ac1251e	0.0014735793
10	0x39f062f7	0.00045850102
11	0x3a9b5e6d	0.0011853703
12	0x39a53919	0.00031513794
13	0x3b3967a1	0.0028290527
14	0x3a18ad7b	0.00058241904
15	0x3a18d6a9	0.00058303267

cnn.4.weight f4 [32, 16, 4]
0	0xbddfff95	-0.1093742
1	0x3dac9b73	0.08428087
2	0x3dd903a2	0.10596396
3	0xbce77812	-0.028255496
4	0xbc187dff	-0.009307384
5	0x3d5bad67	0.053632166
6	0x3e2b10cb	0.16705625
7	0x3c9e8a51	0.019353064
8	0xbd6d024f	-0.05786353
9	0x3b9ca259	0.0047800955
10	0x3cdef3e5	0.027215907
11	0x3cdd256d	0.026995385
12	0xbd346757	-0.044043865
13	0xbd5ff877	-0.054680314
14	0xbcbcfc59	-0.023069547
15	0xbe4bb913	-0.19894819
16	0xbe161e48	-0.14659989
17	0x3aaeacb0	0.0013326611
18	0x3db3c835	0.08778421
19	0x3d01a7a0	0.031654
20	0xbe4a2629	-0.1974112
21	0xbe04a4ef	-0.12953542
22	0xbc5f80c2	-0.013641538
23	0x3d8be867	0.068314366
24	0xbe157b89	-0.14597906
25	0xbc24b56f	-0.010053023
26	0x3e0099e7	0.12558709
27	0x3cabf143	0.020989066
28	0x3d6793e4	0.056537524
29	0xbd0b0a79	-0.033945534
30	0xbdae4ef1	-0.08511151
31	0xbdd36d42	-0.10323574
32	0x3e10885f	0.14114521
33	0xbd4e9027	-0.050430443
34	0x3ca56459	0.020189451
35	0xbdb1a917	-0.086748295
36	0xbab84796	-0.001405942
37	0xbcff260b	-0.03114607
38	0x3d3718d0	0.044701397
39	0xbc18aab8	-0.009318046
40	0x3dbd8c00	0.092552185
41	0xbd6bd51a	-0.057576276
42	0x3c014971	0.007891045
43	0xbd35a562	-0.044347174
44	0xbdb5e9bc	-0.08882472
45	0x3de04a33	0.109516524
46	0x3daf900d	0.085723974
47	0x3e0fe869	0.14053501
48	0xbe1bb145	-0.15204342
49	0x3d94bd2b	0.072626434
50	0x3d765485	0.060139198
51	0xbd5fdb3f	-0.05465245
52	0x3d072f91	0.033004347
53	0x3e15fde7	0.14647637
54	0xbe42b162	-0.19012979
55	0x3e1523d6	0.14564452
56	0x3da8b7f2	0.0823821
57	0x3d9d1ca5	0.07671479
58	0x3dc4a01a	0.096008494
59	0x3d522ee1	0.05131424
60	0xbc54e10f	-0.012993111
61	0xbdc6d061	-0.09707714
62	0x3e2772d2	0.16352394
63	0x3d1a00d9	0.037598465
64	0x3db48639	0.088146634
65	0x3c0a5bc2	0.008444728
66	0xbce8a4aa	-0.02839883
67	0x3db1511d	0.08658049
68	0x3cfc631c	0.030808978
69	0xbd03da59	-0.032190654
70	0xbce17c8c	-0.027525209
71	0xbbece020	-0.007228866
72	0x3d227427	0.039661553
73	0x3d452829	0.048134003
74	0xbbc31160	-0.005952999
75	0x3d9b0d7c	0.07570931
76	0x3b5b328a	0.0033446872
77	0x3d4380ea	0.047730364
78	0xbcca1183	-0.024666553
79	0x3c177cf6	0.009246102
80	0xbca04512	-0.019564185
81	0x3d1cb214	0.038255766
82	0x3d567b9f	0.052363988
83	0x3c8b482e	0.017002191
84	0xbe266a87	-0.16251574
85	0x3d75cf3f	0.0600121
86	0x3db98221	0.09058023
87	0xbd26c438	-0.040714473
88	0x3e0ce051	0.13757445
89	0x3b866080	0.004100859
90	0xbd48dc99	-0.049038503
91	0x3e097df8	0.1342696
92	0x3c168a86	0.0091883
93	0xbc527f05	-0.012847667
94	0x3b7424cf	0.0037253385
95	0xbc2de7a2	-0.010614308
96	0x3d0b2341	0.033969168
97	0x3d4dd453	0.050251316
98	0x3caf5f5e	0.02140778
99	0x3de138f8	0.10997194
100	0xbdbc01e8	-0.09180051
101	0xbda825fe	-0.082103714
102	0xbc37779c	-0.011197951
103	0xbd27d3cb	-0.040973466
104	0x3cd1abc2	0.025594596
105	0x3bf2b76a	0.0074071186
106	0x3c4e7547	0.012601203
107	0x3bdb7317	0.0066970694
108	0xbe1ca124	-0.15295845
109	0x3da7d932	0.081957236
110	0x3c4c01ab	0.01245157
111	0xbdf31c5c	-0.118706435
112	0x3db57294	0.08859745
113	0x3b1ffe5f	0.0024413092
114	0x3cdf3bde	0.027250227
115	0xbc93fecb	-0.01806583
116	0xbd101c9e	-0.03518354
117	0xbd8d8d7b	-0.06911751
118	0x3c0aeeb9	0.0084797675
119	0xbd56ac7f	-0.0524106
120	0xbdd1b100	-0.10238838
121	0x3cf3c40a	0.029756565
122	0xbd6cece8	-0.05784312
123	0xbccaeabc	-0.024770133
124	0xbd416966	-0.047219656
125	0xb81ed95f	-3.7872578e-05
126	0xbd57962c	-0.05263345
127	0x3c8762dd	0.016526634
128	0x3c8c9594	0.017161168
129	0x3dd4a17f	0.103823654
130	0x3d9f10c2	0.07766868
131	0xbd72dba2	-0.05929149
132	0x3c704b4d	0.014666391
133	0xbda4aa49	-0.08040292
134	0xbd6e4714	-0.058173254
135	0x3e1ffaf4	0.15623075
136	0x3ddc47b6	0.10755865
137	0x3d6b8189	0.05749658
138	0x3d898eb7	0.06716674
139	0x3ccb3492	0.02480534
140	0x3cd929a9	0.026509123
141	0x3d88cf95	0.06680218
142	0x3e37875b	0.17922728
143	0xbe2765b9	-0.16347398
144	0xbbc6ce55	-0.006067077
145	0x3d9b05d4	0.07569471
146	0x3d9705a6	0.07374124
147	0xbd2970e0	-0.04136741
148	0x3cc00902	0.023441795
149	0xbe099fe7	-0.13439904
150	0xbdc370b4	-0.09542981
151	0x3dfaab7c	0.12239739
152	0xbd70d9e3	-0.058801543
153	0x3d23528e	0.039873652
154	0x3e1a3415	0.1505893
155	0xbd6de276	-0.058077298
156	0x3d382dfa	0.04496572
157	0x3cb72689	0.022357242
158	0x3d2fd6d1	0.042929474
159	0x3c1a9dc8	0.009437032
160	0x3d9afaaa	0.075673416
161	0x3d05c2fe	0.032656662
162	0x3e33d123	0.17560248
163	0xbe303c3d	-0.17210479
164	0xbddbf481	-0.10739995
165	0xbd9c492a	-0.076311424
166	0xbab2ecb0	-0.0013650861
167	0x3d995dd3	0.07488599
168	0x3d9adbbb	0.075614415
169	0x3e248253	0.1606534
170	0x3cf2da1d	0.02964502
171	0xbe17c1f4	-0.14820081
172	0xbdf93b5e	-0.121695265
173	0x3d8ef5ca	0.06980474
174	0x3caa3b7c	0.020780317
175	0x3e5a18cb	0.2129852
176	0x3b41dcb6	0.0029581017
177	0x3e409651	0.18807341
178	0xbc0f8a31	-0.008760975
179	0x3cc8ddf9	0.024519907
180	0x3d09d1f2	0.033647485
181	0xbe249470	-0.1607225
182	0xbe17abaa	-0.14811578
183	0x3d40e23d	0.047090758
184	0xbd41ee4c	-0.0473464
185	0xbda5616d	-0.08075223
186	0x3d0d5a26	0.0345098
187	0x3d8acca4	0.06777313
188	0x3d1d0615	0.03833588
189	0xbdbc143a	-0.091835454
190	0x3e73c0ff	0.23804091
191	0x3d3fa915	0.04679211
192	0xbbe8288a	-0.0070849108
193	0xbb7f70ab	-0.0038977067
194	0xbcf23619	-0.029566811
195	0xbca576e2	-0.02019829
196	0x3d33d2c8	0.04390219
197	0xbb8c710d	-0.0042859376
198	0xbbbacdde	-0.005700811
199	0x3b6768b3	0.0035310208
200	0xbd49dfa1	-0.049285535
201	0x3c1b7e2b	0.00949053
202	0x3b223407	0.002475025
203	0xbe18900b	-0.14898698
204	0x3d86b91d	0.06578276
205	0xbb867a59	-0.0041039404
206	0x3a45d2aa	0.0007546345
207	0xbc05512e	-0.0081370305
208	0x3cb8a992	0.022541795
209	0x3c13e3c4	0.0090264715
210	0x3c2628b5	0.010141541
211	0xbc9585d4	-0.01825229
212	0x3ab65ce5	0.0013913183
213	0x3c4d6ad2	0.012537675
214	0xbc03c432	-0.008042382
215	0xbbc43045	-0.0059871995
216	0x3b328e5a	0.0027245493
217	0x3b86525a	0.0040991725
218	0xbd280c90	-0.041027606
219	0xbd1705b8	-0.03687069
220	0x3b0b251f	0.0021231843
221	0xbc897218	-0.016778037
222	0xbce67c5b	-0.02813547
223	0x3dbd9db6	0.092585966
224	0x3dd7d944	0.10539487
225	0x3ab0cc2a	0.001348858
226	0x3a88f1bc	0.0010448019
227	0x3a660363	0.00087743084
228	0x3c2915f3	0.0103201745
229	0x3cd1c7f9	0.02560805
230	0xbb013baf	-0.0019719412
231	0xbac6e5d2	-0.0015174693
232	0x3c52bbd6	0.012862166
233	0xbd029645	-0.03188159
234	0x3ca4657f	0.020067928
235	0xbc9e9d5a	-0.01936214
236	0x3a3fc974	0.00073160906
237	0xbcbbc977	-0.022923214
238	0x3c2fa928	0.010721482
239	0xbb67fb51	-0.00353976
240	0xbb4d9699	-0.003137028
241	0xbca0d15e	-0.019631084
242	0x39dfc861	0.00042683168
243	0x3b2faf01	0.0026807191
244	0xbb14ee52	-0.0022725058
245	0x3c06ddb0	0.008231565
246	0x3bbcb154	0.005758444
247	0x3d88c94a	0.06679018
248	0x3e0aff3b	0.13573925
249	0xbd17b49a	-0.03703747
250	0xbc0e3a3c	-0.008680876
251	0x3c8fb7cc	0.017543696
252	0x3ac024e3	0.0014659431
253	0x3e1235c2	0.1427832
254	0x3bb12461	0.005405948
255	0xba706bfc	-0.00091713644

cnn.4.bias f4 [32]
0	0xb78417ad	-1.5746651e-05
1	0x35dfe332	1.6680917e-06
2	0x378a35e0	1.647597e-05
3	0xb6cf8b72	-6.1853143e-06
4	0x3617922d	2.258584e-06
5	0x37b732e7	2.1839003e-05
6	0x38164579	3.582749e-05
7	0xb56c48c0	-8.8022716e-07
8	0x36b6394b	5.4306925e-06
9	0x353b2049	6.970991e-07
10	0x35c9fd4d	1.5049387e-06
11	0x3736634c	1.0871165e-05
12	0xb68128da	-3.8492553e-06
13	0xb6ca1e27	-6.0235793e-06
14	0x37bf98c3	2.284011e-05
15	0xb53d0ce4	-7.0426745e-07
16	0x343ea0a6	1.7753572e-07
17	0x36047a63	1.9740771e-06
18	0x3671a45b	3.6007466e-06
19	0x35b1163c	1.3193999e-06
20	0x33c136c2	8.997223e-08
21	0x360e5eab	2.1214753e-06
22	0xb8433f88	-4.655079e-05
23	0x371f2bc5	9.487329e-06
24	0xb56de2eb	-8.861959e-07
25	0x3734bf51	1.077338e-05
26	0x355c93e8	8.217162e-07
27	0x37951847	1.777349e-05
28	0xb720330c	-9.548628e-06
29	0xb7b42a10	-2.1477259e-05
30	0x38313543	4.2249692e-05
31	0xae8942ae	-6.2418834e-11

cnn.5.weight f4 [32]
0	0x3e23d166	0.15997848
1	0x3e52bf96	0.20580897
2	0x3e85d736	0.26140755
3	0x3e6787ff	0.22610472
4	0x3e308d3e	0.1724138
5	0x3e684a66	0.22684631
6	0x3e870818	0.26373363
7	0x3e5aecf0	0.21379447
8	0x3dbd7fa2	0.0925286
9	0x3e243ccc	0.16038817
10	0x3dff3058	0.12460393
11	0xbde6e02d	-0.11273227
12	0x3d0b379c	0.03398858
13	0x3e4aca15	0.1980365
14	0xbd673e27	-0.056455757
15	0x3da08441	0.078377254
16	0x3e19e54f	0.1502888
17	0x3e7eec17	0.24894749
18	0x3e49a198	0.1969055
19	0x3e5a1a26	0.21299037
20	0x3e275636	0.1634148
21	0x3e27278f	0.16323684
22	0xbd89e830	-0.067337394
23	0x3e59813b	0.21240704
24	0x3e55f8c8	0.20895684
25	0xbdb7f866	-0.08982925
26	0x3e43d38d	0.19123669
27	0x3e4f7f26	0.20263347
28	0xbc81c05b	-0.015838793
29	0x3e61cfb4	0.22051889
30	0x3e5ac2bf	0.21363352
31	0x3d5b0aee	0.05347722

cnn.5.bias f4 [32]
0	0xbe6f0e60	-0.23345327
1	0xbed80767	-0.42193148
2	0xbec1f210	-0.37879992
3	0xbee5e62f	-0.4490218
4	0xbe914d01	-0.28379062
5	0xbedd005c	-0.43164337
6	0xbee81270	-0.45326567
7	0xbed86906	-0.42267627
8	0xbe0d50a4	-0.13800293
9	0xbea5e0c6	-0.3239805
10	0xbebef5e9	-0.3729699
11	0xbe18d017	-0.1492313
12	0xbcc49b99	-0.023999976
13	0xbecc5ec2	-0.39916044
14	0xbd80601b	-0.06268331
15	0xbe005401	-0.12532045
16	0xbeb7caec	-0.35897005
17	0xbee2514d	-0.44202653
18	0xbebc8972	-0.36823612
19	0xbe9179f6	-0.2841336
20	0xbeb63868	-0.3558991
21	0xbeb17984	-0.34663022
22	0xbdac21e3	-0.08404901
23	0xbedacec5	-0.42735878
24	0xbebdfeb3	-0.37108383
25	0xbdf0a53a	-0.117502645
26	0xbee96bf8	-0.45590186
27	0xbe9f8b96	-0.31161183
28	0x3b9e2ad1	0.0048268815
29	0xbea546c6	-0.32280558
30	0xbea4af99	-0.3216522
31	0xbe3f1550	-0.18660474

cnn.5.running_mean f4 [32]
0	0xbcbf6d84	-0.02336765
1	0x3d2f7055	0.042831738
2	0x3e149989	0.14511694
3	0x3cea813a	0.028626073
4	0xbd36b667	-0.044607546
5	0x3e4c04e1	0.19923736
6	0xbdfc7e44	-0.12328771
7	0x3d959f93	0.07305827
8	0xbda52350	-0.08063376
9	0xbc3adc43	-0.011405054
10	0x3d4094ab	0.04701678
11	0x3e0a0405	0.13478096
12	0xbd9f4e01	-0.0777855
13	0x3dd7113d	0.10501335
14	0x3da3b418	0.079933345
15	0x3d933610	0.07188046
16	0x3d0c0e0c	0.034193084
17	0xbd9c9613	-0.07645812
18	0x3e39ba0b	0.18137376
19	0xbe84aa71	-0.25911286
20	0xbd248d53	-0.04017384
21	0x3d944f40	0.07241678
22	0x3deb0c89	0.11477
23	0x3cbada6a	0.022809226
24	0xb8c94667	-9.59754e-05
25	0x3daea987	0.085284285
26	0x3d7be9af	0.061502155
27	0xbd5f22f6	-0.0544767
28	0xbc7168e6	-0.014734482
29	0x3e4046d1	0.18777014
30	0x3e38a5cf	0.18032001
31	0xb9a10199	-0.00030709503

cnn.5.running_var f4 [32]
0	0x3c81ef88	0.015861288
1	0x3c6906dd	0.014222828
2	0x3d19e917	0.037575807
3	0x3b9dc2d9	0.0048144874
4	0x3bcbd1c0	0.0062200725
5	0x3c45597f	0.012045263
6	0x3c599d74	0.013282169
7	0x3ca59931	0.020214649
8	0x3c04c996	0.008104702
9	0x3c279e8c	0.010230672
10	0x3bdd7843	0.006758721
11	0x3ba53d88	0.0050427355
12	0x3b0c7a8c	0.0021435348
13	0x3c2cbbdf	0.010542839
14	0x3b8b7ca9	0.004256804
15	0x3bc50a8e	0.006013221
16	0x3b64389c	0.003482378
17	0x3c69b2b2	0.014263796
18	0x3cb78c27	0.022405697
19	0x3ca5bd73	0.020231938
20	0x3b351fe1	0.002763741
21	0x3bf8ee8c	0.0075967964
22	0x3c367403	0.011136058
23	0x3c512455	0.01276501
24	0x3cbb70f9	0.022881018
25	0x3c51c8e2	0.012804242
26	0x3c968d73	0.018377995
27	0x3bba20a0	0.0056801587
28	0x38806013	6.121411e-05
29	0x3c766a2f	0.015039965
30	0x3c7deaee	0.015497906
31	0x3974337b	0.00023288831

fc_hidden.0.weight f4 [12, 64]
0	0x3cd7724d	0.02629962
1	0xbd3ed4d8	-0.046589702
2	0x3df1282f	0.117752425
3	0xbb5ba6f2	-0.0033516255
4	0x3d207859	0.039177272
5	0xbc1d2b99	-0.009592914
6	0xbb91c491	-0.0044484814
7	0xbab9d031	-0.0014176426
8	0x3cef5a99	0.029218005
9	0xbb22252e	-0.00247414
10	0x3d5c606a	0.053802885
11	0x3bd61834	0.006533647
12	0x3add7ce4	0.0016898182
13	0xbd1b9142	-0.037980326
14	0x3d033745	0.03203513
15	0xbb12cc40	-0.0022399575
16	0xbd3a0954	-0.045419052
17	0x3be6a614	0.007038841
18	0x3c5a6718	0.0133302435
19	0x3a8e92c2	0.0010877477
20	0x3864f859	5.4590728e-05
21	0x39847057	0.00025260702
22	0x3b2ebf7e	0.0026664431
23	0xbb472264	-0.0030385489
24	0x3bb2577a	0.005442557
25	0x3cb8775c	0.022517852
26	0x3dbd6338	0.0924744
27	0x3c95034b	0.018190047
28	0x3cda7090	0.026665002
29	0x3d963409	0.07334144
30	0x3dcb5758	0.09928769
31	0x3cbaed49	0.022818225
32	0xb411af7d	-1.356802e-07
33	0xbb9834f5	-0.004644985
34	0x3d7e9260	0.062151313
35	0xbc3bd313	-0.011463898
36	0x3c8d8c2d	0.017278755
37	0xbceea420	-0.029130995
38	0x3dfe1667	0.12406617
39	0x3a921241	0.0011144356
40	0x392e79e8	0.00016639347
41	0x39722cc5	0.00023095596
42	0x3cc6bc50	0.024259716
43	0x3bfc7b27	0.0077051106
44	0xbc067bfd	-0.008208272
45	0x3cf6c7e0	0.030124605
46	0x3ca1928c	0.0197232
47	0xbc6cbce2	-0.01444933
48	0x3dbb5b02	0.09148218
49	0x3aaf3c17	0.0013369349
50	0xbcde5cee	-0.027143922
51	0x3e2fdc59	0.171739
52	0x3b8ee688	0.0043609776
53	0x3b59ec75	0.0033252512
54	0xbb9767ec	-0.0046205427
55	0x3cc9733c	0.02459108
56	0xbbe85874	-0.0070906226
57	0xbaeb6358	-0.0017958684
58	0x3dd39650	0.10331404
59	0xbb79b416	-0.0038101724
60	0x3d068f00	0.03285122
61	0x3d46c102	0.04852391
62	0x1d4bea37	2.6987913e-21
63	0x393cdd45	0.00018011506
64	0xbdb4ffc3	-0.08837845
65	0xbd96f8fd	-0.073717095
66	0x3b51a90b	0.0031991627
67	0x3356f71d	5.0050506e-08
68	0xbe884312	-0.2661367
69	0xba86c54c	-0.0010282188
70	0x361182bc	2.1682781e-06
71	0x3894e346	7.099523e-05
72	0xbbc88d49	-0.006120358
73	0xbcb87e14	-0.022521056
74	0xbb514806	-0.0031933798
75	0xbd7a7a5e	-0.061151855
76	0xbb82b064	-0.0039883126
77	0xbbb5235c	-0.005527897
78	0xb8e376ad	-0.000108463086
79	0x3b5369fb	0.0032259214
80	0xbc89b862	-0.016811553
81	0xbd8124ee	-0.06305872
82	0x3b6a034a	0.0035707527
83	0xbbf3a88e	-0.007435865
84	0xb69f01e3	-4.738789e-06
85	0x31cfb415	6.044966e-09
86	0xba134bdc	-0.0005618909
87	0xbbb34659	-0.0054710326
88	0x3bdf5ca6	0.0068164645
89	0x3b88621c	0.004162086
90	0xbba1fa5d	-0.0049431757
91	0xbb833af5	-0.004004831
92	0x3c086780	0.008325458
93	0x3c746c46	0.0149183925
94	0x3d14eb0d	0.036356974
95	0xbc9ef32d	-0.019403065
96	0x323b7596	1.09115685e-08
97	0xbb2c59d3	-0.0026298657
98	0xbd777a1d	-0.06041919
99	0xb9f1c864	-0.00046116405
100	0xbcc907c0	-0.024539828
101	0xbb608086	-0.0034256293
102	0xbc50ab30	-0.012736127
103	0xbba6c58a	-0.0050894665
104	0x356237dc	8.4272847e-07
105	0x3b954542	0.0045553753
106	0x38e7c2d4	0.00011051228
107	0xba7f7751	-0.00097452576
108	0xbd40e4fe	-0.047093384
109	0xbe1178d4	-0.14206249
110	0xbd8c0d8a	-0.0683852
111	0xbd31e894	-0.043434694
112	0xbc952773	-0.018207287
113	0xbdafc077	-0.08581632
114	0xbab8aef7	-0.001409023
115	0x3c211116	0.009830734
116	0xb857df77	-5.1468112e-05
117	0x3c2089ad	0.009798449
118	0xbc15fd9e	-0.009154705
119	0x3b36c456	0.0027888021
120	0x3adc2f3c	0.0016798745
121	0x3b569a17	0.0032745653
122	0xbd61d2d9	-0.05513272
123	0x3bde4a20	0.0067837387
124	0x391ea388	0.00015128974
125	0xbd7227a7	-0.059119847
126	0xafb24bb2	-3.2431796e-10
127	0xb3017278	-3.013926e-08
128	0x3d0e0c34	0.034679607
129	0xbdd838b2	-0.10557689
130	0x3ca727b7	0.02040468
131	0xbc00697b	-0.0078376485
132	0xbcadf7df	-0.021236358
133	0xbddb4db4	-0.1070818
134	0xbb8c1baa	-0.0042757588
135	0x39841ade	0.0002519702
136	0x3bb6fd46	0.0055843918
137	0xbd2db0b2	-0.042404838
138	0xbce75de7	-0.028243018
139	0xbc8f388a	-0.017483015
140	0xbaccea8a	-0.0015633863
141	0xbcd96d5c	-0.026541404
142	0xbdafdc4b	-0.085869394
143	0xbb4a192e	-0.0030837762
144	0xbdb4d5f1	-0.088298686
145	0xbd86755a	-0.06565352
146	0xbd2faa3f	-0.04288697
147	0x3bafc164	0.00536363
148	0xbb9a95be	-0.0047175577
149	0xbca88339	-0.020570384
150	0x3bba0e33	0.005677962
151	0x3add0a5a	0.0016864047
152	0xbb1850fb	-0.0023241627
153	0x3c825538	0.015909776
154	0x3ce80316	0.028321784
155	0xbd0ee2a0	-0.034884095
156	0x3b8e81bb	0.004348961
157	0x3abf25a4	0.0014583361
158	0xbc9c4186	-0.019074213
159	0xbe148d61	-0.14507057
160	0xb2d1c80d	-2.4421775e-08
161	0xbb0867e9	-0.0020813888
162	0xbdf7c49a	-0.12098046
163	0xbc08635e	-0.008324472
164	0xbc8e2aa5	-0.017354319
165	0xbbf8250f	-0.007572777
166	0x3ca466d0	0.020068556
167	0xbceb073f	-0.028689979
168	0xbb9b0408	-0.004730705
169	0x3b3b18d9	0.0028548746
170	0xbbf2c209	-0.0074083847
171	0xbb2600e0	-0.0025330111
172	0xbd5c0f26	-0.053725384
173	0xbe1ef4bc	-0.15523046
174	0xbd5ee8f5	-0.054421384
175	0xbd34a7c0	-0.04410529
176	0xbb621c5f	-0.0034501774
177	0xbdee8ee8	-0.11648351
178	0x3caeece7	0.021353198
179	0xba6ffabf	-0.00091544905
180	0xba4af2aa	-0.0007741848
181	0xbac603be	-0.0015107316
182	0xbd31ae3a	-0.043379046
183	0xbb9d5206	-0.0048010377
184	0x3c116149	0.008873292
185	0x3c3eadf1	0.011638151
186	0x3c86e372	0.016465876
187	0xbd8612d8	-0.06546563
188	0xbd0bd9bc	-0.034143195
189	0xbb46eda7	-0.0030354054
190	0xb0b5fb0c	-1.3240835e-09
191	0x39a71dbc	0.00031874876
192	0xbcd29ce9	-0.025709586
193	0x3da8399c	0.08214113
194	0x3d8cc278	0.068730295
195	0xbd296354	-0.041354492
196	0x3d18ec46	0.037334703
197	0x3d0a292b	0.033730667
198	0x3cf154a7	0.02945931
199	0xbbb17ae0	-0.005416259
200	0xbc2223e3	-0.009896251
201	0x3d94bd11	0.07262624
202	0xbccfda74	-0.025372721
203	0xbd90c898	-0.0706951
204	0xbd6e181e	-0.05812847
205	0x3dc1b6f6	0.09458725
206	0x3c64fa29	0.013975658
207	0xbd4d2294	-0.050081804
208	0x3db9d80d	0.090744115
209	0x3dfc27a0	0.12312245
210	0x3d7e8010	0.06213385
211	0xbe4ab3e1	-0.19795181
212	0x3bdcc56f	0.006737403
213	0x3d496210	0.049165785
214	0x3b611066	0.003434205
215	0xbb9edf3e	-0.00484839
216	0x3cdfbfcf	0.027313141
217	0xbd46ed48	-0.048566133
218	0xbd8776ed	-0.0661448
219	0xbd92b1ba	-0.07162805
220	0x3ccbff58	0.02490203
221	0xbd6fd075	-0.05854841
222	0x3d12fc8b	0.035885375
223	0x3e124e48	0.14287674
224	0x30668aaa	8.3870566e-10
225	0x3d5bc45f	0.05365407
226	0x3d450276	0.04809805
227	0x3d997674	0.07493296
228	0x3cd4bbb4	0.02596841
229	0x3b44b4e4	0.0030015046
230	0x3b71be5f	0.0036887152
231	0x3d4075bb	0.046987277
232	0xbb676024	-0.0035305107
233	0xbb881d35	-0.0041538724
234	0x3a82132d	0.0009923928
235	0x3bfb759e	0.007673933
236	0x3d3cd7fa	0.04610441
237	0x3d9f5054	0.07778993
238	0x3d3ab443	0.045582067
239	0x3df6bdf9	0.12047953
240	0x3c984763	0.018588727
241	0xbd2d3fa6	-0.042297028
242	0xbd88515f	-0.06656145
243	0xbd9c7f87	-0.076415114
244	0xbcb5d901	-0.022198202
245	0x3b0356bb	0.002004071
246	0xbcfd7184	-0.030937918
247	0x3c8c9c01	0.017164232
248	0xbbd9ef71	-0.006650858
249	0x3c2248bd	0.0099050375
250	0x3aa372e0	0.0012470149
251	0xbcaa90b0	-0.020820946
252	0xbc3038c4	-0.0107557215
253	0xbddf79b0	-0.10911882
254	0x35afd27d	1.3099776e-06
255	0x36216c55	2.4053927e-06

fc_hidden.0.bias f4 [12]
0	0x399a4fdd	0.00029432672
1	0x383be1e0	4.4794637e-05
2	0xb8a3bce7	-7.8076315e-05
3	0xb8b73edd	-8.737829e-05
4	0x3907d2c6	0.00012953122
5	0x3966cc05	0.00022010512
6	0x390d4622	0.00013472934
7	0xb173bc57	-3.5468213e-09
8	0xb89aa8b5	-7.3747164e-05
9	0x38c1d3fa	9.242441e-05
10	0xb8d379d9	-0.0001008396
11	0x38cce29e	9.769689e-05

fc_hidden.1.weight f4 [12]
0	0xbe76dcfe	-0.2410774
1	0x3ef156c2	0.47136503
2	0x3ea54e65	0.32286373
3	0xbe7f9907	-0.24960719
4	0xbe438ed0	-0.19097447
5	0x3f1e11e0	0.61746025
6	0xbe3c1bea	-0.18370023
7	0x3e2fca76	0.17167076
8	0x3e819f7c	0.2531699
9	0x3edfa60c	0.4368137
10	0x3ea94eae	0.3306784
11	0x3ed0543b	0.40689263

fc_hidden.1.bias f4 [12]
0	0xbe3c7eef	-0.18407796
1	0xbea80005	-0.32812515
2	0xbe31f097	-0.17376934
3	0x3d75ad82	0.059979923
4	0xbe08ce0d	-0.13359852
5	0xbe55e46f	-0.20887922
6	0xbdbede15	-0.093197025
7	0xbde88fb8	-0.11355537
8	0x3d2bb318	0.041918844
9	0xbe196298	-0.14979017
10	0xbe3bf14f	-0.1835377
11	0xbe86e83e	-0.26349062

fc_hidden.1.running_mean f4 [12]
0	0x3ba35047	0.004983935
1	0xbbba1912	-0.005679258
2	0xbbd13fb0	-0.006385766
3	0xbaabd163	-0.0013108667
4	0x3b8d3685	0.0043094778
5	0xbb9c7ec7	-0.004775855
6	0x3b32b66b	0.0027269374
7	0xbb26fe76	-0.002548126
8	0x3ace332f	0.0015731807
9	0xbb7b7717	-0.0038370544
10	0xbb6ff647	-0.0036615299
11	0xbc1de806	-0.009637838

fc_hidden.1.running_var f4 [12]
0	0x391ba7d8	0.00014844479
1	0x393914aa	0.00017650673
2	0x393820c8	0.0001755982
3	0x3956ded1	0.00020491636
4	0x389abdee	7.3786694e-05
5	0x3979ea09	0.00023833675
6	0x38e04971	0.00010694832
7	0x38b6622f	8.6967244e-05
8	0x39265c34	0.00015865342
9	0x390bbe83	0.00013327044
10	0x3907be17	0.00012945417
11	0x3a3468a5	0.00068820483

rnn.weight_ih_l0 f4 [48, 12]
0	0x3afaf78e	0.0019147263
1	0xbdb1a21f	-0.086735
2	0xbe0561d4	-0.130256
3	0xbdbb6f7e	-0.09152125
4	0x3c0aed02	0.008479359
5	0xbde02b64	-0.10945776
6	0xbe1053be	-0.14094445
7	0xbcdaa3fc	-0.026689522
8	0xbdbc73fb	-0.09201809
9	0xbe02b148	-0.1276294
10	0x3ab31126	0.0013661727
11	0xbe3b7134	-0.18304902
12	0x3d1fd17a	0.03901813
13	0xbd14bcfd	-0.036313046
14	0xbd43bf92	-0.047790118
15	0xbd074548	-0.033025056
16	0x3c30c877	0.010789982
17	0xbd5e8972	-0.054330297
18	0xbd025709	-0.031821284
19	0xb69eb960	-4.7303474e-06
20	0xbda91df9	-0.0825767
21	0xbda2d209	-0.07950217
22	0xbd7c0cd6	-0.06153568
23	0xbd8bf672	-0.06834115
24	0x3d2e3773	0.04253335
25	0x3d035176	0.03206011
26	0xbcc78d67	-0.024359418
27	0xbc6af7ac	-0.014341276
28	0x3d314915	0.043282587
29	0xbd937b07	-0.072012
30	0xbc3f649c	-0.011681702
31	0x38235917	3.89452e-05
32	0x3c414317	0.011795781
33	0x3b91c84a	0.004448925
34	0x3d2dbdd7	0.042417374
35	0xbd19839b	-0.037479024
36	0x3d5bbdb8	0.053647727
37	0xbc686b72	-0.014185773
38	0xbcf53772	-0.029933665
39	0xbe01f18b	-0.12689798
40	0x3adc4005	0.0016803747
41	0xbdbc1c7e	-0.09185122
42	0xbd84a55f	-0.064768545
43	0x32e5f358	2.6769769e-08
44	0xbd89e93a	-0.067339376
45	0xbdbfeede	-0.09371732
46	0xbe11666d	-0.14199229
47	0xbcdf4bdf	-0.027257858
48	0x3d9fe772	0.078078166
49	0xbc82f14d	-0.015984202
50	0xbd21a2dc	-0.039461955
51	0xbe53edb2	-0.20696142
52	0xbc1f00d6	-0.009704789
53	0xbe50bc82	-0.2038441
54	0xbdbe6992	-0.0929748
55	0xb8d68fc6	-0.00010231095
56	0xbe09a707	-0.13442622
57	0xbde7bf50	-0.11315787
58	0xbe3c6dfd	-0.18401332
59	0xbd0893a9	-0.033343945
60	0xb7b30269	-2.1339585e-05
61	0xb81a4a50	-3.678567e-05
62	0xb99e6313	-0.00030209924
63	0x3a7caf68	0.00096391747
64	0x380f77c9	3.4205415e-05
65	0x3ac7fd79	0.0015258036
66	0x3a2c7940	0.0006579347
67	0xb640b20a	-2.8713862e-06
68	0xb902136f	-0.00012405006
69	0xb93f3323	-0.0001823423
70	0x38c10d53	9.205439e-05
71	0x3913560d	0.00014051069
72	0xbbf82b20	-0.0075735003
73	0x3bb7d2b2	0.0056098336
74	0x3bc87075	0.0061169215
75	0x3b60baa6	0.0034290939
76	0xbacbca2e	-0.0015547925
77	0xbcb23fca	-0.021758933
78	0x3c3c607d	0.011497614
79	0x35a8065c	1.2518826e-06
80	0xbbea471f	-0.0071495916
81	0xbc54d440	-0.0129900575
82	0xbc73a9f6	-0.014872065
83	0x3c1c397f	0.0095351925
84	0x3db51510	0.08841908
85	0xbdad3dec	-0.08459076
86	0xbdc7a4fe	-0.09748267
87	0xbeff8e03	-0.49913034
88	0x3a6b361a	0.00089726003
89	0xbebcbac1	-0.36861232
90	0xbe4cf6a4	-0.20015961
91	0xbb1d2187	-0.0023976283
92	0xbea62cea	-0.32456142
93	0xbec129b6	-0.37727135
94	0xbe6e98c3	-0.23300461
95	0xbd8c750a	-0.06858261
96	0xba214b53	-0.0006152887
97	0x3bab59ea	0.0052292245
98	0x3b5c7871	0.0033641125
99	0x3b4c46c7	0.0031170116
100	0xb9ac6870	-0.00032884208
101	0x3c4f7bdd	0.012663809
102	0x3b671840	0.0035262257
103	0x382ee6a8	4.1699648e-05
104	0x3b068fd8	0.0020532515
105	0x3b18aef8	0.002329765
106	0xbb8fb7af	-0.0043859105
107	0x3b544c57	0.0032394135
108	0x3cb99e68	0.022658542
109	0x3cc9a0f4	0.024612881
110	0x3c0c5efc	0.008567568
111	0x3b42ef3d	0.0029744648
112	0x3ad68f73	0.0016369655
113	0xbcb7399a	-0.022366334
114	0x3cab4fba	0.02091204
115	0xb90da318	-0.00013507565
116	0xbd1526f7	-0.036414113
117	0xbd07b673	-0.03313298
118	0x3bdac830	0.0066766962
119	0x3be6aa41	0.007039339
120	0x3b893975	0.0041877576
121	0x3d76d254	0.06025918
122	0xbc9ce445	-0.019151816
123	0x3da2021c	0.079105586
124	0x3c4fab02	0.012675049
125	0x3d835953	0.064135216
126	0x3d38b55a	0.045094825
127	0x3a404bc3	0.0007335508
128	0xbd634eae	-0.055494957
129	0x3d7113d1	0.05885679
130	0x3df4d04f	0.11953794
131	0xbbfee33a	-0.0077785524
132	0x3d3919b1	0.045190517
133	0xbccce735	-0.025012592
134	0xbcd6eb27	-0.026235176
135	0xbdf85374	-0.121252924
136	0x3c3e466d	0.0116134705
137	0xbd97bc67	-0.07408982
138	0xbd9cbfcb	-0.07653769
139	0x373cc60d	1.12517855e-05
140	0xbdb6b181	-0.08920575
141	0xbdc8b2bf	-0.09799718
142	0xbdc25f80	-0.094908714
143	0xbd740f9f	-0.05958521
144	0x8006725c	-5.92037e-40
145	0x8005fa27	-5.48915e-40
146	0x800587f4	-5.07948e-40
147	0x8005b7eb	-5.25155e-40
148	0x8005bb3e	-5.26347e-40
149	0x0005b0e2	5.22631e-40
150	0x00069000	6.0267e-40
151	0x0006dad5	6.29515e-40
152	0x00066c07	5.89766e-40
153	0x80061143	-5.57205e-40
154	0x8005bf60	-5.2783e-40
155	0x000693c9	6.04028e-40
156	0x00059053	5.10951e-40
157	0x80056ee0	-4.98952e-40
158	0x80056d60	-4.98414e-40
159	0x00063bf8	5.72526e-40
160	0x80059fce	-5.16505e-40
161	0x00060cd2	5.55612e-40
162	0x0006d85c	6.28628e-40
163	0x00060334	5.52162e-40
164	0x00058dbf	5.10026e-40
165	0x800589fc	-5.08677e-40
166	0x00061bc6	5.60976e-40
167	0x0005bc7e	5.26796e-40
168	0x8005e7c2	-5.42317e-40
169	0x00062bd1	5.66731e-40
170	0x80060428	-5.52504e-40
171	0x00059eb8	5.16115e-40
172	0x0005ec62	5.43976e-40
173	0x0005f885	5.4833e-40
174	0x00058c5e	5.09532e-40
175	0x8006cce4	-6.24514e-40
176	0x00055844	4.90841e-40
177	0x00055798	4.906e-40
178	0x8006c9d2	-6.23412e-40
179	0x8005c779	-5.30735e-40
180	0x80059a0f	-5.14443e-40
181	0x00055e4d	4.93006e-40
182	0x00066fc8	5.91113e-40
183	0x00064491	5.7561e-40
184	0x8006bcda	-6.1876e-40
185	0x00058e0c	5.10134e-40
186	0x8005f6d6	-5.47726e-40
187	0x0006ba77	6.17904e-40
188	0x800611c6	-5.57389e-40
189	0x8006b5c7	-6.16222e-40
190	0x80057dd0	-5.0431e-40
191	0x80065dd6	-5.84675e-40
192	0x0005f017	5.45305e-40
193	0x00061934	5.60054e-40
194	0x00061a4f	5.60451e-40
195	0x0005ae47	5.21696e-40
196	0x000672d5	5.92207e-40
197	0x000613ac	5.5807e-40
198	0x00063dcd	5.73183e-40
199	0x0005aff8	5.22303e-40
200	0x8005dd5f	-5.3859e-40
201	0x0005c7c3	5.30838e-40
202	0x8005ed5b	-5.44325e-40
203	0x8006b50b	-6.15959e-40
204	0x0005b94e	5.25652e-40
205	0x80063c5a	-5.72663e-40
206	0x0005a1e5	5.17254e-40
207	0x00058329	5.06229e-40
208	0x800621f3	-5.63192e-40
209	0x80061eca	-5.62058e-40
210	0x800679a3	-5.94648e-40
211	0x800608a1	-5.54108e-40
212	0x800616cc	-5.59191e-40
213	0x8006158e	-5.58745e-40
214	0x00069a7b	6.0643e-40
215	0x0006154d	5.58654e-40
216	0x0005e1a8	5.40128e-40
217	0x000668e6	5.88643e-40
218	0x00058d2c	5.0982e-40
219	0x80055808	-4.90757e-40
220	0x8005df3f	-5.39263e-40
221	0x8005ead0	-5.43412e-40
222	0x80062232	-5.6328e-40
223	0x8005a4e6	-5.18332e-40
224	0x000566bd	4.96033e-40
225	0x00063c60	5.72671e-40
226	0x800632fb	-5.69301e-40
227	0x8005b3fe	-5.23747e-40
228	0x00056c8f	4.98121e-40
229	0x0006a8fc	6.11633e-40
230	0x000598a2	5.13932e-40
231	0x00066173	5.85971e-40
232	0x80056e0b	-4.98653e-40
233	0x0006bc38	6.18533e-40
234	0x80063bb6	-5.72433e-40
235	0x8005d116	-5.34183e-40
236	0x8006a9d3	-6.11934e-40
237	0x00064f2d	5.79416e-40
238	0x8006cb27	-6.2389e-40
239	0x0005a2bc	5.17556e-40
240	0x0005ce53	5.33193e-40
241	0x0005b619	5.24502e-40
242	0x00068271	5.97807e-40
243	0x8005b2e4	-5.23351e-40
244	0x800584d3	-5.06826e-40
245	0x80059c84	-5.15325e-40
246	0x00058058	5.05219e-40
247	0x0006ceac	6.25153e-40
248	0x00067f70	5.96729e-40
249	0x8005e029	-5.39591e-40
250	0x8005ad8f	-5.21439e-40
251	0x00066d3d	5.902e-40
252	0x8005d2de	-5.34822e-40
253	0x0005c7f9	5.30914e-40
254	0x0006b77c	6.16835e-40
255	0x0005ad5c	5.21367e-40

rnn.weight_hh_l0 f4 [48, 12]
0	0x00058ebc	5.10381e-40
1	0x0006036c	5.5224e-40
2	0x80059d64	-5.15639e-40
3	0x000613f8	5.58176e-40
4	0x00066d37	5.90192e-40
5	0x8005fa2b	-5.48921e-40
6	0x0006136d	5.57982e-40
7	0x0005caa7	5.31875e-40
8	0x8005c296	-5.28982e-40
9	0x8006b347	-6.15326e-40
10	0x80069e26	-6.07746e-40
11	0x800598be	-5.13971e-40
12	0x80067ad7	-5.9508e-40
13	0x80064fcc	-5.79639e-40
14	0x0005a925	5.19855e-40
15	0x80057643	-5.01602e-40
16	0x00066448	5.86987e-40
17	0x8005b408	-5.2376e-40
18	0x000575f1	5.01487e-40
19	0x8005ff0b	-5.5067e-40
20	0x8006b406	-6.15593e-40
21	0x8005d90d	-5.3704e-40
22	0x8005ef8e	-5.45114e-40
23	0x0006b662	6.1644e-40
24	0x8005f680	-5.47605e-40
25	0x80066024	-5.85502e-40
26	0x8006bd28	-6.1887e-40
27	0x0005c0e7	5.28378e-40
28	0x8006d086	-6.25817e-40
29	0x800581de	-5.05765e-40
30	0x800607cd	-5.53811e-40
31	0x8006447c	-5.7558e-40
32	0x8005685a	-4.96612e-40
33	0x8005cc18	-5.32393e-40
34	0x00064e2c	5.79056e-40
35	0x80055ca4	-4.9241e-40
36	0x000565e6	4.95732e-40
37	0x8005eba8	-5.43715e-40
38	0x0005fba6	5.49452e-40
39	0x0004e616	4.49881e-40
40	0x0005b1c4	5.22948e-40
41	0x0006d0d0	6.25921e-40
42	0x800687a4	-5.99672e-40
43	0x800579da	-5.0289e-40
44	0x00055ccb	4.92465e-40
45	0x8006c2b9	-6.20866e-40
46	0x800694fd	-6.0446e-40
47	0x0005cd92	5.32922e-40
48	0x0005b9c3	5.25816e-40
49	0x0006881c	5.9984e-40
50	0x00061a9e	5.60561e-40
51	0x8006a02a	-6.08469e-40
52	0x8006a95d	-6.11769e-40
53	0x00067edf	5.96526e-40
54	0x00067ffa	5.96922e-40
55	0x8006765c	-5.93472e-40
56	0x80067c0b	-5.95511e-40
57	0x0006ab4c	6.12463e-40
58	0x00063f44	5.73708e-40
59	0x00058d96	5.09969e-40
60	0x00061d0c	5.61433e-40
61	0x800580f8	-5.05443e-40
62	0x000663dc	5.86836e-40
63	0x000593e8	5.12236e-40
64	0x8006cbd9	-6.2414e-40
65	0x0005c6ad	5.30449e-40
66	0x8006da56	-6.29337e-40
67	0x00063eb6	5.7351e-40
68	0x000645a9	5.76002e-40
69	0x8006ab6b	-6.12506e-40
70	0x0005d5d6	5.35887e-40
71	0x0005cc5a	5.32485e-40
72	0x8005c75c	-5.30694e-40
73	0x8006a35f	-6.0962e-40
74	0x8006a046	-6.08508e-40
75	0x8006c84d	-6.22867e-40
76	0x00062bce	5.66727e-40
77	0x000593af	5.12156e-40
78	0x0006be38	6.1925e-40
79	0x0005bc0b	5.26635e-40
80	0x80063b6c	-5.7233e-40
81	0x0006bdc5	6.1909e-40
82	0x800644fa	-5.75757e-40
83	0x800644e3	-5.75725e-40
84	0x80058dd8	-5.10061e-40
85	0x8005d8f4	-5.37006e-40
86	0x8006ba47	-6.17837e-40
87	0x8005e2af	-5.40496e-40
88	0x0006ce6d	6.25065e-40
89	0x8005a9b2	-5.20053e-40
90	0x0005b2b2	5.23281e-40
91	0x0005dace	5.3767e-40
92	0x0005e142	5.39985e-40
93	0x80061013	-5.5678e-40
94	0x8005f9a8	-5.48737e-40
95	0x00066b24	5.89448e-40
96	0x0005a76c	5.19237e-40
97	0x00062ea9	5.67751e-40
98	0x00068f86	6.025e-40
99	0x8005934c	-5.12018e-40
100	0x80061191	-5.57315e-40
101	0x0006733a	5.92348e-40
102	0x8006188d	-5.5982e-40
103	0x80061cfc	-5.6141e-40
104	0x800593b7	-5.12168e-40
105	0x000578e3	5.02543e-40
106	0x8006c81f	-6.22803e-40
107	0x8005c61e	-5.30249e-40
108	0x800681c3	-5.97563e-40
109	0x800571de	-5.00025e-40
110	0x80058033	-5.05167e-40
111	0x80058394	-5.06379e-40
112	0x0005d521	5.35634e-40
113	0x80064c37	-5.78354e-40
114	0x80067be8	-5.95462e-40
115	0x0005cbb4	5.32252e-40
116	0x0004669e	4.04154e-40
117	0x00067fbc	5.96835e-40
118	0x0006869d	5.99303e-40
119	0x0005ac45	5.20976e-40
120	0x8006a472	-6.10005e-40
121	0x0005e130	5.3996e-40
122	0x80061d8e	-5.61615e-40
123	0x0006a1eb	6.09098e-40
124	0x800557c6	-4.90665e-40
125	0x00055dc8	4.9282e-40
126	0x00067a6c	5.9493e-40
127	0x800580be	-5.05361e-40
128	0x800581a4	-5.05684e-40
129	0x80060f4a	-5.56498e-40
130	0x800567f5	-4.9647e-40
131	0x8006ac62	-6.12852e-40
132	0x800607d7	-5.53825e-40
133	0x0005cae5	5.31962e-40
134	0x0005f92c	5.48564e-40
135	0x800598ae	-5.13949e-40
136	0x0005eff3	5.45255e-40
137	0x00065bdc	5.83966e-40
138	0x000587c6	5.07884e-40
139	0x8005da25	-5.37433e-40
140	0x8005d230	-5.34579e-40
141	0x800694bd	-6.0437e-40
142	0x800688f6	-6.00145e-40
143	0x8006007b	-5.51185e-40
144	0x0006c4df	6.21637e-40
145	0x80063995	-5.7167e-40
146	0x00060628	5.53221e-40
147	0x80058202	-5.05815e-40
148	0x80059cf9	-5.15489e-40
149	0x8006d583	-6.27607e-40
150	0x0006ad0b	6.13089e-40
151	0x800689cf	-6.0045e-40
152	0x0006a00c	6.08427e-40
153	0x80056ba4	-4.97792e-40
154	0x0005b34f	5.23501e-40
155	0x8005d72b	-5.36365e-40
156	0x80066f6f	-5.90988e-40
157	0x00056634	4.95841e-40
158	0x000605a1	5.53032e-40
159	0x000681e1	5.97605e-40
160	0x80064273	-5.7485e-40
161	0x80065b30	-5.83725e-40
162	0x8005d9b8	-5.3728e-40
163	0x80063530	-5.70093e-40
164	0x8006b964	-6.17519e-40
165	0x00059966	5.14206e-40
166	0x8005d32b	-5.3493e-40
167	0x8005f0d2	-5.45568e-40
168	0x000611fc	5.57465e-40
169	0x80056cf1	-4.98258e-40
170	0x8005fe16	-5.50326e-40
171	0x000559ca	4.91388e-40
172	0x00059534	5.12701e-40
173	0x0005c796	5.30775e-40
174	0x0005ad55	5.21357e-40
175	0x8006963e	-6.0491e-40
176	0x8006aa85	-6.12184e-40
177	0x800659ba	-5.83201e-40
178	0x00066cc3	5.9003e-40
179	0x00062872	5.65522e-40
180	0x8005c8b8	-5.31182e-40
181	0x00065b09	5.8367e-40
182	0x8006aba4	-6.12586e-40
183	0x00066c83	5.8994e-40
184	0x80065d88	-5.84566e-40
185	0x8006342a	-5.69726e-40
186	0x800566c4	-4.96043e-40
187	0x80055d78	-4.92708e-40
188	0x0006d9c5	6.29134e-40
189	0x0005a1a1	5.17159e-40
190	0x800676b2	-5.93593e-40
191	0x0005ba3d	5.25987e-40
192	0x00060f12	5.56419e-40
193	0x0006a4bc	6.10109e-40
194	0x8005632a	-4.94751e-40
195	0x80066c42	-5.89849e-40
196	0x80056ff8	-4.99344e-40
197	0x80068cc9	-6.01517e-40
198	0x8005833f	-5.0626e-40
199	0x0005806d	5.05248e-40
200	0x00060468	5.52594e-40
201	0x80066834	-5.88394e-40
202	0x0005ed78	5.44365e-40
203	0x0006d618	6.27815e-40
204	0x000617f1	5.59602e-40
205	0x0005d087	5.33983e-40
206	0x80068293	-5.97854e-40
207	0x000634ec	5.69998e-40
208	0x00067dca	5.96138e-40
209	0x80063c11	-5.72561e-40
210	0x800662f3	-5.86509e-40
211	0x80067f68	-5.96718e-40
212	0x8005a263	-5.17431e-40
213	0x80059937	-5.1414e-40
214	0x0005873c	5.0769e-40
215	0x0005d8a4	5.36893e-40
216	0x8005a484	-5.18195e-40
217	0x8006589c	-5.828e-40
218	0x8005bcc2	-5.26891e-40
219	0x8005ad76	-5.21404e-40
220	0x8005a09e	-5.16796e-40
221	0x00059dd6	5.15798e-40
222	0x8006557c	-5.81679e-40
223	0x00059669	5.13134e-40
224	0x80059abb	-5.14684e-40
225	0x0006690d	5.88698e-40
226	0x8005eb78	-5.43648e-40
227	0x0006ce4a	6.25016e-40
228	0x8005db02	-5.37743e-40
229	0x0006a6ad	6.10805e-40
230	0x00058f23	5.10525e-40
231	0x80061f3a	-5.62215e-40
232	0x8005a87c	-5.19618e-40
233	0x0005d787	5.36494e-40
234	0x0004e135	4.48131e-40
235	0x800648cf	-5.77132e-40
236	0x00065aec	5.8363e-40
237	0x00069d9c	6.07553e-40
238	0x0006a254	6.09245e-40
239	0x000623b3	5.6382e-40
240	0x8005943d	-5.12355e-40
241	0x0005f137	5.45709e-40
242	0x8006ca69	-6.23624e-40
243	0x8005a9dd	-5.20113e-40
244	0x0005f056	5.45394e-40
245	0x0005af56	5.22076e-40
246	0x0005b7c6	5.25103e-40
247	0x00065cdc	5.84325e-40
248	0x8006430c	-5.75065e-40
249	0x00059561	5.12765e-40
250	0x80068914	-6.00187e-40
251	0x00067caa	5.95734e-40
252	0x8005a0e3	-5.16893e-40
253	0x00055d9e	4.92761e-40
254	0x0005b849	5.25287e-40
255	0x00066c82	5.89938e-40

rnn.bias_ih_l0 f4 [48]
0	0x3e0ed52b	0.13948505
1	0x3e28fb12	0.16502026
2	0x3e19790f	0.14987586
3	0xbcb2a547	-0.021807326
4	0x3cdb8b11	0.02679971
5	0x3a02a799	0.00049840804
6	0xbca52974	-0.020161368
7	0xbcaebbe3	-0.021329826
8	0x3bd8f6e9	0.006621231
9	0x399bedf8	0.00029741204
10	0x3e233bda	0.159408
11	0xbc27d3c9	-0.010243365
12	0x0006034d	5.52197e-40
13	0x0005d30e	5.3489e-40
14	0x0006d6ee	6.28115e-40
15	0x000626f0	5.64981e-40
16	0x0006b378	6.15394e-40
17	0x00060cd8	5.5562e-40
18	0x800692ca	-6.03671e-40
19	0x80069d0f	-6.07355e-40
20	0x800673a5	-5.92498e-40
21	0x80067b79	-5.95307e-40
22	0x8005c354	-5.29248e-40
23	0x80055832	-4.90816e-40
24	0xbc53357c	-0.01289117
25	0xbe707861	-0.23483421
26	0xbeb6bf71	-0.35692933
27	0xbdc75972	-0.09733857
28	0x3d023ea2	0.031798013
29	0x3dc80662	0.097668424
30	0xbc60cf26	-0.013721263
31	0x3d7b02c0	0.06128192
32	0x3c627ec0	0.013824165
33	0x3e0c09e9	0.13675655
34	0x3e3e6d87	0.18596469
35	0xbe54d3f0	-0.20783973
36	0x3e60d2da	0.21955433
37	0x3ea4f0fb	0.32215104
38	0x3e1fb5f4	0.15596753
39	0xbc8b4c60	-0.017004192
40	0x3c9886a8	0.018618897
41	0x3a02bbeb	0.00049871084
42	0xbca3501d	-0.019935662
43	0x3b1b7330	0.002371978
44	0x3bd8f0ef	0.0066205184
45	0x3c5a23f0	0.013314232
46	0x3eadd646	0.3395254
47	0xbc05bb9c	-0.008162405

rnn.bias_hh_l0 f4 [48]
0	0x3e3e0dc5	0.1855994
1	0x3e3a3af3	0.1818655
2	0x3e6e2f28	0.23260176
3	0xbbae7f65	-0.005325245
4	0x3cada0ed	0.0211949
5	0x3a02a799	0.00049840804
6	0xbca2a8c2	-0.01985586
7	0xbbb15281	-0.0054114466
8	0x3bd8f6e9	0.006621231
9	0xbb82b8a7	-0.0039892974
10	0x3ebcaafd	0.36849204
11	0x3b47d188	0.003048988
12	0x80064207	-5.74699e-40
13	0x8006bdca	-6.19096e-40
14	0x8005b954	-5.2566e-40
15	0x8005d0fc	-5.34147e-40
16	0x000562d5	4.94632e-40
17	0x80069778	-6.0535e-40
18	0x0006d258	6.2647e-40
19	0x00056cef	4.98255e-40
20	0x0006c3b4	6.21218e-40
21	0x0006c849	6.22862e-40
22	0x80068b74	-6.0104e-40
23	0x0006922c	6.0345e-40
24	0x3ea2378d	0.31683007
25	0xbd033307	-0.032031085
26	0xbed88614	-0.42289793
27	0xbe27f360	-0.16401434
28	0xbdea5c9d	-0.11443446
29	0xbdbb61bc	-0.09149501
30	0xbd48b97c	-0.049005017
31	0x3d3109da	0.043222286
32	0x3c1a014c	0.009399723
33	0x3e037b10	0.12839913
34	0x3dfb431e	0.12268661
35	0xbe6b2e98	-0.22966993
36	0x3e1280d0	0.1430695
37	0x3e70ddcb	0.23522107
38	0x3e78517d	0.24249835
39	0x3b784c08	0.0037887115
40	0xbd04156f	-0.032247003
41	0x3a02bbeb	0.00049871084
42	0xbca91034	-0.020637609
43	0xbbd22be5	-0.006413924
44	0x3bd8f0f0	0.006620519
45	0xbbe14343	-0.0068744733
46	0x3ebf9b09	0.3742297
47	0x3dd8eeae	0.105923995

fc_output.weight f4 [1, 12]
0	0x3f0e1005	0.55493194
1	0xbf07238d	-0.5278862
2	0xbef7333c	-0.48281276
3	0xbe8cbfa8	-0.27489972
4	0xbed3c0e5	-0.41358104
5	0x3b1764b6	0.00231008
6	0xbd9a40cc	-0.0753189
7	0x3ec2652f	0.37967822
8	0x3cd917a8	0.026500538
9	0x3e4790ce	0.19488832
10	0x3f0b568f	0.5442895
11	0xbebd2bc5	-0.36947456
