model.pth (torch, 25174 bytes, 23 tensors)

cnn.0.weight f4 [16, 10, 1]
0	0xbdcee34f	-0.101019494
1	0x3e50e849	0.2040111
2	0xbe5d720e	-0.2162554
3	0x3dd3d2eb	0.10342964
4	0xbe14f760	-0.14547491
5	0xbe0d67d7	-0.13809143
6	0x3e560c38	0.20903099
7	0xbced1260	-0.028939426
8	0x3df33841	0.11875964
9	0xbe69021b	-0.2275471
10	0x3d8370f2	0.06418027
11	0xbd8ab68e	-0.06773101
12	0xbe35e745	-0.17764004
13	0xbda3d017	-0.07998674
14	0xbdb3bee3	-0.08776643
15	0xbda2d181	-0.07950116
16	0x3e42215e	0.18958041
17	0xbe7e8716	-0.24856219
18	0x3dff8030	0.12475622
19	0x3e133e77	0.14379297
20	0xbe8aa933	-0.27082214
21	0xbd8e6fc3	-0.069549106
22	0xbe2722a9	-0.16321816
23	0x3dd5664d	0.10419903
24	0x3e32cf16	0.1746181
25	0x3eaffede	0.34374136
26	0x3dddbd2c	0.10827097
27	0x3e16ad3e	0.14714524
28	0xbe396ff0	-0.18109107
29	0xbd1eed8d	-0.038800765
30	0xbe444fa2	-0.19171003
31	0x3e7a8225	0.24463709
32	0xbe480520	-0.19533205
33	0xbe22f13d	-0.15912338
34	0x3e78eac0	0.243083
35	0xbead7287	-0.3387644
36	0x3e42ca0d	0.19022389
37	0x3dbb31c8	0.091403544
38	0xbe3d1398	-0.18464506
39	0xbe2093b8	-0.1568135
40	0x3e366b71	0.17814423
41	0xbe069e49	-0.13146318
42	0x3e85f39d	0.26162425
43	0xbe100432	-0.140641
44	0x3e241064	0.16021878
45	0xbe725eff	-0.2366905
46	0x3ea7c7bb	0.3276957
47	0xbe96d899	-0.29462126
48	0x3d15db9b	0.036586385
49	0xbe9c7000	-0.305542
50	0xbc5a5db6	-0.0133280065
51	0x3de044a7	0.109505944
52	0x3cc29525	0.023752758
53	0x3dbb8755	0.09156672
54	0x3e22cfe7	0.15899621
55	0xbe4bbb3a	-0.1989564
56	0x3e4c7b9e	0.19969031
57	0x3d2b4150	0.041810334
58	0xbbb28500	-0.0054479837
59	0x3deda9a0	0.11604619
60	0xbd87e02c	-0.06634554
61	0xbe2fc061	-0.1716323
62	0xbe7e8281	-0.24854471
63	0x3d29ec11	0.041484896
64	0xbd606ec3	-0.05479313
65	0xbcc7c942	-0.02438796
66	0x3d0e6b54	0.034770325
67	0x3e229f26	0.15881023
68	0x3dd26641	0.1027341
69	0x3dfef5d1	0.124492295
70	0x3e5f7a6d	0.21824045
71	0x3e53acf0	0.20671439
72	0x3eab5695	0.33464494
73	0x3d29a167	0.04141369
74	0xbe6af81a	-0.22946206
75	0xbe89d6ad	-0.26921597
76	0x3e7c9a49	0.2466823
77	0x3d6815cf	0.056661423
78	0xbcf024d3	-0.029314434
79	0xbd9a0403	-0.075202964
80	0x3d10481d	0.035225023
81	0xbe272531	-0.16322781
82	0xbeb0276c	-0.34405077
83	0xbe9f65a5	-0.31132236
84	0xbe4bbb98	-0.1989578
85	0x3e13b50b	0.14424531
86	0x3e99452e	0.29935592
87	0x3e78cbd6	0.24296507
88	0x3b5d51f5	0.0033770774
89	0xbe2a78b4	-0.16647607
90	0xbea41708	-0.3204882
91	0x3ca13e7d	0.019683117
92	0x3d7da644	0.06192614
93	0x3c22bab0	0.009932205
94	0xbe46a776	-0.19399819
95	0xbe2bff65	-0.16796644
96	0x3d682eed	0.056685377
97	0xbe0295f5	-0.12752517
98	0x3e2025ae	0.15639374
99	0xbe594892	-0.2121909
100	0x3e5a0f08	0.21294796
101	0xbe0c4611	-0.13698603
102	0x3e19c402	0.15016177
103	0xbe4784b8	-0.19484222
104	0x3db7c5b5	0.089732565
105	0x3e8537ae	0.26019043
106	0xbe895c42	-0.268282
107	0x3dc42d8d	0.095790006
108	0xbd09d598	-0.033650964
109	0x3d16c247	0.03680637
110	0x3ead6f86	0.33874148
111	0x3d1f5406	0.03889849
112	0xbd747a69	-0.059687052
113	0x3ebc1a1c	0.3673867
114	0xbc356403	-0.011071208
115	0xbe4089f8	-0.18802631
116	0x3e3e7edb	0.18603079
117	0xbe79848b	-0.24366967
118	0xbd75c8ad	-0.060005832
119	0xbe79beff	-0.24389265
120	0x3e80bdde	0.25144857
121	0xbd7e413d	-0.062073935
122	0xbe8d10fa	-0.27552015
123	0xbe7308fa	-0.23733893
124	0x3dadaf39	0.08480687
125	0x3d9d12a9	0.07669575
126	0x3de10552	0.10987343
127	0x3e4f9f35	0.20275576
128	0x3eae7ac9	0.34078053
129	0x3d706180	0.058686733
130	0x3e98af06	0.29821032
131	0xbe0c7e20	-0.13719988
132	0xbc1c5a85	-0.009543066
133	0x3e4583d2	0.19288567
134	0x3ce9dbad	0.028547132
135	0xbde804f2	-0.11329068
136	0x3e269de4	0.16271168
137	0xbdccef7d	-0.10006616
138	0xbd3d34a5	-0.046192784
139	0x3d861c40	0.06548357
140	0x3e489982	0.19589809
141	0xbddd8b2b	-0.1081756
142	0xbe226659	-0.15859355
143	0xbe87dce6	-0.2653572
144	0xbea3cd90	-0.3199277
145	0x3e8d25df	0.27567956
146	0xbd0cc179	-0.034364197
147	0xbd31d0be	-0.043411963
148	0xbcb558df	-0.022137104
149	0x3e25888f	0.16165374
150	0x3ea188a0	0.3154955
151	0x3d0f0849	0.03492001
152	0xbd8083d4	-0.06275144
153	0xbe868bb2	-0.26278454
154	0x3e46d13b	0.19415753
155	0xbda31eff	-0.079648964
156	0xbdb31be7	-0.08745556
157	0x3d1d3b66	0.038386725
158	0xbe385bc1	-0.18003751
159	0xbe9b7476	-0.3036229

cnn.0.bias f4 [16]
0	0xb9306276	-0.00016821348
1	0x3842cb9b	4.6442827e-05
2	0xb738c13d	-1.1012246e-05
3	0xb81602d3	-3.5765417e-05
4	0x384dcc5f	4.9066144e-05
5	0x37686d01	1.3853657e-05
6	0xb841958a	-4.6154055e-05
7	0xb799b831	-1.8324792e-05
8	0xb895c5b0	-7.141696e-05
9	0xb85dfd56	-5.2926443e-05
10	0xb91dabd6	-0.000150367
11	0xb8d61907	-0.00010208977
12	0x375491ad	1.26701025e-05
13	0x3651196a	3.115822e-06
14	0x37871220	1.6101694e-05
15	0x380fa726	3.4249526e-05

cnn.1.weight f4 [16]
0	0x3f6b6c6f	0.9196233
1	0x3f7563ec	0.95855594
2	0x3f84253b	1.0323862
3	0x3f6fed1e	0.9372119
4	0x3f647f4f	0.8925676
5	0x3f619dce	0.88131416
6	0x3f7b1156	0.9807333
7	0x3f829fbb	1.0204996
8	0x3f7ced17	0.9879927
9	0x3f80a6d0	1.0050907
10	0x3f8b9a63	1.090649
11	0x3f551fb8	0.83251524
12	0x3f813312	1.009371
13	0x3f51abb7	0.8190264
14	0x3f7fb0ce	0.9987916
15	0x3f5563a3	0.8335516

cnn.1.bias f4 [16]
0	0x3e1e2f9e	0.15447852
1	0x3d05235f	0.032504436
2	0x3e1b2094	0.15149146
3	0xbca04171	-0.019562455
4	0x3de0dd9b	0.10979768
5	0xbe1877ac	-0.14889401
6	0xbcc4c3b9	-0.02401911
7	0x3db8c287	0.09021478
8	0xbd38fa70	-0.04516071
9	0xbc82d77f	-0.015971897
10	0xbd23366a	-0.039846815
11	0xbd563225	-0.052293915
12	0x3d521a52	0.051294632
13	0xbc49cfef	-0.012317642
14	0xbcbc4979	-0.022984253
15	0xbe0fa2ef	-0.14026998

cnn.1.running_mean f4 [16]
0	0xbe4d16b2	-0.20028189
1	0xbe041f5a	-0.12902585
2	0xbd788b6e	-0.060679846
3	0xbe5f7b89	-0.21824469
4	0x3da40491	0.080086835
5	0x3e74230a	0.23841491
6	0xbdd2adfb	-0.102870904
7	0x3e561f4b	0.20910375
8	0xbec6a921	-0.3880091
9	0xbe67eb35	-0.22648318
10	0x3e26cfdd	0.16290231
11	0xbd8a8efa	-0.06765552
12	0x3e6446ca	0.22292629
13	0x3dac75f3	0.084209345
14	0xbe8ce1c1	-0.27515987
15	0xbe311aa2	-0.17295316

cnn.1.running_var f4 [16]
0	0x3b37372a	0.0027956464
1	0x3af582d7	0.001873101
2	0x3ba0b7d7	0.004904728
3	0x3b6c38de	0.0036044638
4	0x3bc94e01	0.006143332
5	0x3c0b3819	0.008497261
6	0x3b5b98a0	0.003350772
7	0x3c56ff66	0.013122415
8	0x3bbeeb11	0.005826362
9	0x3c7252ad	0.014790219
10	0x3a301229	0.0006716573
11	0x3c0fdc99	0.008780622
12	0x3c59668f	0.013269081
13	0x3b93502a	0.0044956403
14	0x3b5617cc	0.0032667993
15	0x3b7a77f6	0.0038218475

cnn.4.weight f4 [32, 16, 4]
0	0xbe04ddf0	-0.12975287
1	0xbd429a40	-0.047510386
2	0x3d6d587e	0.05794572
3	0x3d8866ed	0.066602565
4	0xbd99dacf	-0.075124376
5	0x3db1c244	0.08679631
6	0x3d9f6658	0.077831924
7	0xbc163bee	-0.009169562
8	0x3d8dbd78	0.06920904
9	0x3b90dc9e	0.004420831
10	0x3d349e5f	0.044096347
11	0x3d32d350	0.043658555
12	0x3c85a847	0.016315592
13	0xbb78fb0d	-0.0037991435
14	0xbdd1a9a9	-0.10237438
15	0xbc501c28	-0.0127020255
16	0xbd4523fb	-0.048130017
17	0x3c1865f8	0.009301655
18	0x3d94c37a	0.07263847
19	0xbb50d354	-0.0031864243
20	0x3a0d8004	0.0005397799
21	0xbcf0e860	-0.02940768
22	0x3dc3cf04	0.095609695
23	0xbb78cafc	-0.0037962785
24	0xbd9b5f0a	-0.07586487
25	0xbc1394d7	-0.009007654
26	0xbdcd6721	-0.10029436
27	0x3da64971	0.081194766
28	0xbddeea91	-0.10884584
29	0x3dc99892	0.098435536
30	0xbd390134	-0.045167163
31	0x3be0c9db	0.0068600005
32	0xbd0febbf	-0.035136934
33	0x3d37fcd7	0.04491886
34	0xbdc8a412	-0.09796919
35	0x3c9041fd	0.01760959
36	0xbda32abb	-0.079671346
37	0xbdb2cd10	-0.08730519
38	0x3da35f9e	0.07977222
39	0x3c7200b6	0.014770677
40	0x3b72086f	0.0036931296
41	0x3deff17f	0.117159836
42	0xbe26a16a	-0.16272512
43	0xbc7ded52	-0.015498476
44	0xbc6ce750	-0.014459446
45	0xbd14edf7	-0.036359753
46	0xbcfb4fff	-0.030677794
47	0xbbdeb4e9	-0.0067964685
48	0x3d8e6d8f	0.069544904
49	0x3d2cc971	0.042184297
50	0x3e142ed1	0.14470984
51	0xbd946763	-0.07246282
52	0xbe12150c	-0.14265841
53	0x3d1a57cb	0.037681382
54	0x3d66d557	0.0563558
55	0x3ddc0524	0.10743168
56	0x3b9d39d4	0.0047981534
57	0x3d8494a9	0.06473667
58	0xbdfa0170	-0.122073054
59	0x3dadc023	0.08483913
60	0x3d22c31d	0.039736856
61	0x3db19c1f	0.08672356
62	0xbce8879d	-0.028384978
63	0x3dfdc9dd	0.12392018
64	0x3dc01759	0.09379453
65	0x3d464197	0.048402395
66	0x3c56c1a8	0.013107695
67	0xbd4bf886	-0.049797557
68	0xbbf5f195	-0.0075056055
69	0x3cd553b9	0.026040899
70	0xbca7d9e7	-0.020489646
71	0x3de7dc6e	0.113213405
72	0xbdd6e725	-0.10493306
73	0x3d9ddc1c	0.07707998
74	0xbe139b3d	-0.14414687
75	0x3d9549f7	0.07289498
76	0x3d794f1f	0.06086647
77	0x3db19262	0.086704984
78	0xbd08eaf5	-0.033427197
79	0x3db34f52	0.087553635
80	0xbcc15c37	-0.023603542
81	0x3de0b6e9	0.10972387
82	0xbd1be7e8	-0.03806296
83	0x3d8d65a0	0.06904149
84	0x3aa2f9ce	0.0012434067
85	0x3d0157cc	0.03157787
86	0xbdc84bdb	-0.09780093
87	0x3bae39c7	0.005316946
88	0x3d3a7328	0.045519978
89	0x3dbfaaf1	0.09358776
90	0xbd95877c	-0.07301232
91	0x3d39cbcd	0.045360375
92	0xbe12ac23	-0.14323477
93	0x3e17a4fe	0.14809033
94	0x3d8c2a1f	0.068439715
95	0x3c4be8ed	0.012445671
96	0xbc79e7e3	-0.01525304
97	0x3e5342c3	0.20630936
98	0x3d4615c2	0.048360594
99	0x3d3533ef	0.04423898
100	0x3dbc214c	0.091860384
101	0xbcdf1400	-0.027231216
102	0x3c0fb46a	0.008771041
103	0xbd0548ee	-0.032540254
104	0x3dd359f8	0.103198946
105	0x3d788808	0.060676605
106	0x3db58b5a	0.0886447
107	0xbc6cfc6b	-0.014464478
108	0xbb055341	-0.0020343813
109	0x3cb60bc3	0.022222405
110	0xbe177b37	-0.14793096
111	0x3d718445	0.058964033
112	0x3d60a72c	0.054846928
113	0x3d9aa1da	0.07550402
114	0x3ce92e06	0.028464328
115	0x3d9b095e	0.07570146
116	0xbda1208e	-0.078675374
117	0xbc192f67	-0.0093496805
118	0x3b82201a	0.003971112
119	0xbca86514	-0.02055601
120	0xbdd3ed7b	-0.1034803
121	0x3dc77caf	0.097405784
122	0xbd280b27	-0.04102626
123	0x3d7194c3	0.05897976
124	0xbdd5496a	-0.10414393
125	0x3c611d79	0.013739937
126	0xbc66693c	-0.014063176
127	0x3db5e9db	0.08882495
128	0xbc345073	-0.011005509
129	0x3cc4fb28	0.024045542
130	0x3dc87740	0.0978837
131	0x3dde9c28	0.10869628
132	0xbd924288	-0.07141596
133	0xbd9b6f33	-0.07589569
134	0xbd635ea0	-0.055510163
135	0x3e1d6333	0.15369873
136	0xbdabc65a	-0.08387442
137	0xbd389f7b	-0.045073967
138	0x3d938396	0.072028324
139	0x3d262699	0.040564153
140	0x3db99fe3	0.09063699
141	0x3c27db2d	0.010245127
142	0x3d7f4b9a	0.06232796
143	0x3dc04418	0.09387988
144	0xbc4eb814	-0.01261713
145	0x3cc2e57a	0.023791064
146	0xbd8397d9	-0.06425447
147	0x3ca2bc3d	0.01986515
148	0xbd601eee	-0.054716997
149	0xbd2c6a6d	-0.042093683
150	0xbc30a6f7	-0.010781995
151	0xbcd74605	-0.026278505
152	0xbcfccf1f	-0.030860482
153	0x3d91df98	0.07122725
154	0x3d8b2e8c	0.067959875
155	0x3e71a32b	0.235974
156	0xbba513c9	-0.005037759
157	0x3ca47732	0.020076368
158	0xbd0bfb54	-0.034175232
159	0x3dac2c18	0.08406848
160	0x3bdfbd42	0.006827981
161	0x3ddc7dd6	0.10766189
162	0xbcc169d7	-0.023610039
163	0x3d1b2cd7	0.03788456
164	0x3dc618ad	0.09672675
165	0x3de4a0cb	0.11163481
166	0xbd025b50	-0.031825364
167	0x3bf5e786	0.0075044064
168	0xbc5c11e8	-0.013432004
169	0x3d257927	0.040398743
170	0x3d7a9991	0.06118161
171	0x3d8477ac	0.06468138
172	0xbda76d3a	-0.0817513
173	0x3e030b4c	0.12797278
174	0x3dcc7073	0.099823855
175	0x3d7946d5	0.060858566
176	0x3d245c0a	0.040126838
177	0x3df1498a	0.117816046
178	0x3df41c58	0.11919469
179	0xbcb037c2	-0.021510962
180	0xbe0b63b6	-0.13612255
181	0x3d204023	0.039123666
182	0x3d992238	0.0747723
183	0xbd7ebff7	-0.06219479
184	0xbd869e43	-0.06573155
185	0x3c85e9a8	0.016346768
186	0x3de6e718	0.112745464
187	0x3e1070fc	0.141056
188	0x3d692858	0.05692324
189	0x3db90a6b	0.0903519
190	0xbd5c4650	-0.053777993
191	0x3d2e54ae	0.042561226
192	0x3d9a072f	0.075209014
193	0x3d9d2b3f	0.07674264
194	0xbd369bab	-0.04458205
195	0x3d103b6c	0.03521292
196	0x3d3a4a81	0.04548121
197	0xbb037979	-0.0020061417
198	0xbaad7adc	-0.0013235467
199	0x3d91568b	0.07096585
200	0x3bcc33bc	0.006231753
201	0xbdd06461	-0.10175396
202	0xbdc758e7	-0.09733754
203	0x3e047971	0.12936951
204	0x3d8f4be0	0.06996894
205	0xbd9ab9c3	-0.075549625
206	0xbdc4a03c	-0.09600875
207	0x3d8e8bc1	0.0696025
208	0xbd0f9b52	-0.035060234
209	0xbc50324d	-0.012707305
210	0x3db86750	0.0900408
211	0xbce15145	-0.027504573
212	0x3dc0464f	0.0938841
213	0x3ae4c3aa	0.0017453332
214	0x3d676e9e	0.056501977
215	0xbd07c598	-0.033147424
216	0xbcfdd726	-0.03098638
217	0x3dd48491	0.103768475
218	0xbdec78f4	-0.115465075
219	0x3e299c06	0.16563424
220	0xbd81bfd8	-0.063354194
221	0x3dd858af	0.1056379
222	0x3b8ac59b	0.004234982
223	0xbce21960	-0.02759999
224	0x3d4554b5	0.048176486
225	0x3e03f2e8	0.1288563
226	0x3c86a104	0.0164342
227	0x3e1c2c6e	0.15251324
228	0x3df09802	0.11747743
229	0x3c4f68eb	0.012659292
230	0xbc4f0209	-0.012634763
231	0x3bc25674	0.005930716
232	0xbdaaadbc	-0.083339185
233	0x3d6fa93d	0.058511008
234	0x3d1f2eb5	0.038862903
235	0x3db49f86	0.08819489
236	0x3a9da58f	0.001202749
237	0x3db42958	0.08796948
238	0xbd5f6445	-0.054538984
239	0x3d8887a4	0.066664964
240	0xbd6ae3c8	-0.057346135
241	0x3e0d4a1c	0.13797802
242	0x3db2ca83	0.08730032
243	0xbc081d8f	-0.008307829
244	0xbd7af9a4	-0.061273232
245	0xbd865e4a	-0.06560953
246	0x3d996cc6	0.0749145
247	0xbd167a33	-0.036737632
248	0xbe4da1bf	-0.20081232
249	0x3d1d9f4d	0.038482
250	0xbda16ae3	-0.07881715
251	0x3e0f74ea	0.14009443
252	0xbdcee8ca	-0.10102995
253	0x3dcd96f6	0.10038559
254	0x3c075eff	0.008262395
255	0x3d8e08ab	0.06935247

cnn.4.bias f4 [32]
0	0x35314933	6.604416e-07
1	0x37917213	1.7338467e-05
2	0x36092935	2.0438576e-06
3	0x36c7782c	5.944652e-06
4	0x370fb60c	8.56585e-06
5	0xb5fbff8e	-1.8775334e-06
6	0xb7d10cdb	-2.4920728e-05
7	0xb6b5e990	-5.4214106e-06
8	0x34a5817d	3.082786e-07
9	0xb6151106	-2.221264e-06
10	0x370f1178	8.5275315e-06
11	0x367774ce	3.6873857e-06
12	0xb6ffa2af	-7.618531e-06
13	0xb5158685	-5.5702577e-07
14	0xb6a4340f	-4.8936413e-06
15	0xb58b72a3	-1.0389671e-06
16	0xb68373f3	-3.9176025e-06
17	0x37387131	1.0993609e-05
18	0x36077ef4	2.0190464e-06
19	0x36474f95	2.9699634e-06
20	0x36c9666d	6.0021907e-06
21	0xb6765f32	-3.6712268e-06
22	0x3716c8f6	8.987487e-06
23	0x360c9810	2.0950138e-06
24	0x36877892	4.0373498e-06
25	0xb64232fe	-2.8937934e-06
26	0x363c4e1a	2.8059644e-06
27	0xb69ec479	-4.7316394e-06
28	0x36b1aabe	5.294888e-06
29	0xb7757564	-1.463047e-05
30	0x364f6bc6	3.0908136e-06
31	0xb76b1a00	-1.4013145e-05

cnn.5.weight f4 [32]
0	0x3f505d1a	0.8139206
1	0x3f76dc72	0.9643012
2	0x3f75d187	0.9602284
3	0x3f6f2179	0.9341045
4	0x3f56d9e6	0.83926237
5	0x3f4ba4de	0.7954844
6	0x3f7a2185	0.97707397
7	0x3f545bae	0.8295239
8	0x3f4ff3bc	0.81231284
9	0x3f58e5ea	0.8472582
10	0x3f664b5e	0.8995875
11	0x3f4777b5	0.77917033
12	0x3f51bed7	0.81931823
13	0x3f809fde	1.0048788
14	0x3f5d37dd	0.86413366
15	0x3f781811	0.9691172
16	0x3f559edd	0.8344553
17	0x3f49d981	0.7884751
18	0x3f508c17	0.8146376
19	0x3f6823ca	0.9067961
20	0x3f5766dd	0.8414133
21	0x3f728a26	0.9474205
22	0x3f6dc9d7	0.9288611
23	0x3f57a3f8	0.8423457
24	0x3f6158c6	0.8802608
25	0x3f65c86d	0.8975895
26	0x3f5c7382	0.8611375
27	0x3f658fe6	0.89672697
28	0x3f671fe3	0.9028303
29	0x3f5b756e	0.8572606
30	0x3f584b60	0.84490013
31	0x3f6586de	0.89658916

cnn.5.bias f4 [32]
0	0xbe1c5d68	-0.15270007
1	0xbe8bd91d	-0.27314082
2	0xbe1c7ae2	-0.15281251
3	0xbe3cd684	-0.18441206
4	0xbe21e481	-0.15809824
5	0xbe58ae93	-0.21160345
6	0xbe4e7a7d	-0.20163913
7	0xbe32390e	-0.17404577
8	0xbe043fc5	-0.12914951
9	0xbdd07140	-0.10177851
10	0xbe184ee9	-0.14873852
11	0xbe248d91	-0.16069628
12	0xbde2ee71	-0.11080635
13	0xbde6ec14	-0.11275497
14	0xbda6b2a3	-0.08139541
15	0xbdfdf672	-0.12400521
16	0xbe2eab9e	-0.17057654
17	0xbe364f19	-0.17803611
18	0xbe266b7c	-0.1625194
19	0xbe37c024	-0.1794439
20	0xbe1c885b	-0.1528639
21	0xbe2743af	-0.16334413
22	0xbe0e4ee3	-0.1389728
23	0xbdbdc7cd	-0.092666246
24	0xbe0983ea	-0.13429227
25	0xbddbf1c6	-0.10739474
26	0xbe1b273a	-0.15151682
27	0xbdfeeaf2	-0.12447156
28	0xbe6bb865	-0.2301956
29	0xbe5dd8a6	-0.21664676
30	0xbe56f557	-0.20992027
31	0xbe47ad99	-0.19499816

cnn.5.running_mean f4 [32]
0	0x3d482017	0.04885873
1	0x3ec4b235	0.3841721
2	0x3efecaf3	0.49764213
3	0x3eb84e8c	0.35997427
4	0x3e9bc5bc	0.30424297
5	0x3f1c11c5	0.60964614
6	0x3e443e6f	0.19164442
7	0x3ee40f26	0.44542807
8	0xbda55b5b	-0.08074065
9	0x3ea20534	0.31644595
10	0x3e8be4e0	0.27323055
11	0x3c388841	0.011262954
12	0xbde24aea	-0.11049445
13	0x3d8df615	0.06931702
14	0xbca45869	-0.020061688
15	0x3e2a04ec	0.1660344
16	0x3e12c757	0.14333855
17	0xbd853eb2	-0.06506099
18	0xbc860c71	-0.016363354
19	0xbe233eff	-0.15942
20	0x3df34588	0.118784964
21	0x3f008673	0.50205153
22	0x3df0140b	0.11722573
23	0xbde3938d	-0.111121275
24	0xbcef024d	-0.029175902
25	0x3dce9f0b	0.10088929
26	0x3f062bda	0.5241066
27	0x3e58c074	0.21167165
28	0x3ef8b9bb	0.485792
29	0x3e752e63	0.23943476
30	0xbdb95088	-0.09048563
31	0x3d28e6c6	0.041235708

cnn.5.running_var f4 [32]
0	0x3d689cd6	0.056790195
1	0x3d4ba7f7	0.04972073
2	0x3def9e09	0.11700065
3	0x3ddd3d8c	0.10802755
4	0x3d382602	0.044958122
5	0x3d580087	0.052734878
6	0x3d1509cb	0.036386292
7	0x3cff41a5	0.031159231
8	0x3e0042f9	0.12525548
9	0x3dd2dcd3	0.10296025
10	0x3ce89755	0.028392473
11	0x3d2fc8ae	0.042915992
12	0x3d4ae637	0.049535956
13	0x3d08a4ee	0.033360414
14	0x3d52de7b	0.051481705
15	0x3e087d5f	0.13329075
16	0x3d8e64aa	0.06952794
17	0x3ca8523f	0.02054703
18	0x3d633d7b	0.055478554
19	0x3cc28ffc	0.023750298
20	0x3d831399	0.06400222
21	0x3d8e48e1	0.06947494
22	0x3d9e4701	0.07728387
23	0x3d1258af	0.035729107
24	0x3d29b01f	0.041427728
25	0x3db52938	0.088457525
26	0x3da2c97c	0.07948586
27	0x3d228d10	0.03968531
28	0x3d8adc66	0.06780319
29	0x3d2c8734	0.042121127
30	0x3d8a13c0	0.06742048
31	0x3d103a3e	0.035211794

fc_hidden.0.weight f4 [12, 64]
0	0x3daed04c	0.08535823
1	0xbcf3c5e5	-0.02975745
2	0xbd13d319	-0.03608999
3	0x3cdfa176	0.02729867
4	0xbe09091a	-0.13382378
5	0x3d2cd743	0.042197477
6	0xbe3d024a	-0.18457904
7	0x3d97d242	0.0741315
8	0xbc192883	-0.009348038
9	0x3dd56074	0.104187876
10	0x3d766143	0.06015135
11	0xbd053d78	-0.032529324
12	0x3c53fe64	0.012939069
13	0x3c28fc37	0.010314039
14	0xbcea46f2	-0.028598282
15	0x3cd03184	0.025414236
16	0xbcecee50	-0.02892223
17	0x3cc9bf0f	0.024627237
18	0x3bb1c445	0.0054250085
19	0x3e4c9a3d	0.19980712
20	0xbda54b5c	-0.08071014
21	0x3d111e7f	0.035429474
22	0x3da51d73	0.080622576
23	0xbcdb4687	-0.026767028
24	0x3d6e77e6	0.058219813
25	0xbc443c10	-0.011977211
26	0x3c8d6e6c	0.017264567
27	0xbcf48592	-0.029848848
28	0xbc9d3790	-0.019191533
29	0xbbe670b4	-0.007032478
30	0x3deba826	0.11506681
31	0xbcd524b5	-0.02601848
32	0xbda32f97	-0.079680614
33	0x3db784f4	0.08960906
34	0xbd4f70df	-0.05064475
35	0x3ce92809	0.028461473
36	0xbd56b2bf	-0.05241656
37	0x3d3f7cb9	0.046749804
38	0xbc8756c2	-0.016520862
39	0x3dd993c4	0.10623887
40	0x3d40c985	0.047067184
41	0x3c00eb2b	0.007868568
42	0xbe30ab88	-0.17252934
43	0x3da3ec2c	0.080040306
44	0x3dd8d995	0.105883755
45	0xbc3b9086	-0.011448031
46	0xbcb16314	-0.02165369
47	0x3d929469	0.07157213
48	0x3c743f79	0.014907711
49	0xbccf0538	-0.025271043
50	0xbe396811	-0.18106104
51	0x3d3f2313	0.04666431
52	0xbcaf8112	-0.02142385
53	0xbe07685c	-0.13223404
54	0x3b883f59	0.0041579423
55	0xbc49c579	-0.012315148
56	0xbda1d4a6	-0.079018876
57	0xbca96f12	-0.020682845
58	0xbba2f82d	-0.0049734325
59	0xbdd67ac8	-0.104726374
60	0x3c99f8a1	0.018795313
61	0xbbba4bc4	-0.0056853015
62	0x3bb38860	0.0054789037
63	0x3babdc36	0.005244757
64	0x3a051c8d	0.0005077802
65	0x3db83305	0.08994106
66	0x3d3f03ad	0.046634365
67	0xbd7aafe6	-0.061202906
68	0xbd742ba2	-0.059611924
69	0xbd607f00	-0.054808617
70	0x3d172ddc	0.03690897
71	0xbcca84f9	-0.02472161
72	0xbc5bed60	-0.013423294
73	0x3dbdba5b	0.0926406
74	0xbc5c927f	-0.013462662
75	0x3d34236b	0.04397909
76	0x3d036b67	0.03208485
77	0xbdc2aa7c	-0.095051736
78	0x3e2c1ba0	0.16807413
79	0xbbe29639	-0.0069148806
80	0xbda1e740	-0.079054356
81	0xbd102333	-0.03518982
82	0x3d9c71d0	0.076388955
83	0x3e1951cc	0.1497261
84	0x3d78d81e	0.06075298
85	0x3d676b44	0.05649878
86	0x3b674aeb	0.0035292457
87	0xbce32a52	-0.02773014
88	0xbc1337bb	-0.008985455
89	0x3d14b180	0.03630209
90	0xbd412c3e	-0.047161333
91	0x3a54b253	0.00081137306
92	0xbc776895	-0.015100618
93	0x3d8f1261	0.069859274
94	0x3dfbd9eb	0.12297424
95	0x3c3d3166	0.011547422
96	0xbcb56994	-0.02214507
97	0x3dd9de62	0.10638119
98	0xbd4934a5	-0.04912247
99	0x3ca91888	0.02064158
100	0x3d2ff011	0.042953555
101	0x3e050747	0.12991057
102	0xb92722df	-0.00015939352
103	0x3dc2dea7	0.09515124
104	0xbb803689	-0.003912751
105	0xbd281e79	-0.041044686
106	0xbd62ab87	-0.055339362
107	0xbd88843b	-0.06665846
108	0x3b1b6ff9	0.0023717864
109	0xbd98c33c	-0.07459113
110	0x3cf2b351	0.02962652
111	0x3de51d46	0.11187224
112	0x3d80da81	0.06291676
113	0xbda2c714	-0.079481274
114	0xbd18f778	-0.03734538
115	0xbde2f7b1	-0.110824
116	0x3d32e312	0.043673582
117	0xbd5eb1a7	-0.05436864
118	0x3aa59ff3	0.001263617
119	0x3dbd3f62	0.09240605
120	0x3d963028	0.07333404
121	0xbd7d9511	-0.06190974
122	0xbcd4b142	-0.02596343
123	0x3b59bcca	0.00332241
124	0x3c18f313	0.009335297
125	0xbd16c7eb	-0.03681175
126	0x3b923853	0.004462281
127	0xbc1c5823	-0.009542498
128	0x3d1368b7	0.035988536
129	0xbd039d7f	-0.03213262
130	0xbd1ae440	-0.037815332
131	0x3e096162	0.13416055
132	0xbc1ea36a	-0.009682516
133	0x3e0dfa15	0.1386493
134	0xbde6a218	-0.11261386
135	0x3c638b8e	0.013888253
136	0xbce9a916	-0.02852301
137	0xbd2ae5b0	-0.041722953
138	0xbcfb4cc2	-0.03067625
139	0xbdcc1c16	-0.099662945
140	0xbd8c22d9	-0.06842584
141	0x3df3e41e	0.11908744
142	0xbe2efd82	-0.17088893
143	0x3c5ed756	0.013601145
144	0x3da79c6a	0.081841305
145	0xb98fe7ba	-0.00027447735
146	0xbe08d99c	-0.13364261
147	0xbe06f5fd	-0.13179775
148	0x3b3a0047	0.0028381513
149	0xbe290c47	-0.1650859
150	0xbccf59a2	-0.025311295
151	0x3d04e137	0.032441344
152	0x3d81eaa1	0.0634358
153	0xbe258c39	-0.16166772
154	0x3e2fffc1	0.17187406
155	0x3bea5da0	0.0071522743
156	0x3e0486e0	0.12942076
157	0xbe1ad160	-0.15118933
158	0xbe4684e3	-0.1938663
159	0xbd3d03a0	-0.046146035
160	0x3b4ba605	0.0031074297
161	0xbdc199d6	-0.0945317
162	0x3d7fa62f	0.062414344
163	0xbd88a51a	-0.066721156
164	0xbd9618ed	-0.07328973
165	0xbddcad66	-0.107752606
166	0xbcdf8771	-0.027286263
167	0xbbcb7ad7	-0.006209712
168	0xbce97433	-0.02849779
169	0x3bae3c8d	0.005317277
170	0xbdc8d08d	-0.09805403
171	0x3e17733c	0.14790052
172	0x3d2ff4c3	0.042958032
173	0x3c2cd1f9	0.010548108
174	0xbd8cfef7	-0.06884568
175	0xbd8de281	-0.06927968
176	0xbde3b637	-0.11118739
177	0x3ce229ef	0.027607886
178	0x3b92c6e7	0.0044792774
179	0x3d87ca1f	0.066303484
180	0x3c7df786	0.015500909
181	0x3c3174eb	0.010831098
182	0x3d50f36f	0.051013406
183	0xbe11c394	-0.14234763
184	0x3bca0102	0.006164671
185	0x3df27844	0.11839345
186	0x3d893c53	0.06700959
187	0x3c001f3f	0.00781995
188	0xbcc6c9c1	-0.024266126
189	0x3dae2ec1	0.08505011
190	0x3dac242f	0.08405339
191	0xbb5b8926	-0.0033498495
192	0x3d3c6375	0.045993287
193	0xbcf22818	-0.029560134
194	0xbdf00a8d	-0.117207624
195	0x3e58dc9e	0.21177909
196	0x3c0b94d7	0.008519373
197	0x3dc6a99b	0.097003184
198	0x3d2b6e5a	0.041853286
199	0x3e15ed07	0.146412
200	0x3d48b554	0.049001053
201	0xbcc47a4e	-0.0239841
202	0x3d5a94f9	0.053364728
203	0xbd39be9c	-0.045347795
204	0x39ac57f2	0.0003287192
205	0x3c3e5612	0.0116172
206	0xbac8c4f2	-0.0015317483
207	0xbd1a50bb	-0.037674647
208	0x3a9250a6	0.0011162951
209	0xbca0fd47	-0.019652022
210	0xbb7dc8d8	-0.0038724449
211	0xbc3323ce	-0.0109338295
212	0xbd440187	-0.04785302
213	0x3c599c12	0.013281839
214	0x3c99a82a	0.018756945
215	0xbd5e51f0	-0.05427736
216	0x3c8bf5ff	0.017085074
217	0xbc5c5e12	-0.0134501625
218	0x3cf77b6c	0.03021022
219	0xbdd7fca7	-0.105462365
220	0x3d9b8c7c	0.07595155
221	0x3c06a79a	0.00821867
222	0x3c801c8e	0.015638616
223	0x3b4d0cba	0.0031288103
224	0x3dc12b5c	0.09432098
225	0xbbc4e794	-0.0060090516
226	0x3e020155	0.1269582
227	0xbd09fa99	-0.033686254
228	0x3bea0380	0.0071415305
229	0xbb4c5a69	-0.0031181818
230	0x3d6094e5	0.054829497
231	0xbdd70328	-0.10498649
232	0x3c5b37d6	0.013380012
233	0xbe1bcc95	-0.1521476
234	0x3ca71926	0.020397734
235	0x3d1ba4bf	0.03799891
236	0x3d6763b4	0.05649157
237	0xbe01c9da	-0.12674657
238	0x3a3af51f	0.0007131863
239	0xbd961e4d	-0.07329998
240	0xbb6149dd	-0.0034376301
241	0xbde88080	-0.113526344
242	0x3aa9c956	0.001295368
243	0xbd63e030	-0.055633724
244	0xbdd41cb3	-0.103570364
245	0x3d7e4d6a	0.062085547
246	0x3cc149b6	0.023594718
247	0x3d00f63f	0.03148484
248	0xbe1a1b7e	-0.1504955
249	0x3df8fbc8	0.121573985
250	0x3e2021da	0.15637913
251	0xbd4028de	-0.046913974
252	0xbcdfec04	-0.02733422
253	0x3daa04c7	0.083016925
254	0x3e585ad0	0.21128392
255	0xbd438da9	-0.04774252

fc_hidden.0.bias f4 [12]
0	0xb5d6301c	-1.5958244e-06
1	0xb5236fc0	-6.088485e-07
2	0xb50eeedd	-5.3246714e-07
3	0x36b3e318	5.361053e-06
4	0x367476e5	3.642804e-06
5	0xb671f59b	-3.605476e-06
6	0xb685ca9c	-3.9872957e-06
7	0x3679d7d1	3.7229513e-06
8	0x3666cde4	3.4392515e-06
9	0x3774c874	1.4590205e-05
10	0x36347003	2.688729e-06
11	0x36a24b71	4.8367588e-06

fc_hidden.1.weight f4 [12]
0	0x3f77eee0	0.9684887
1	0x3f71558e	0.9427117
2	0x3f8ea9fc	1.1145625
3	0x3f84ce9b	1.0375551
4	0x3f864c76	1.0492084
5	0x3f8ec0fd	1.1152645
6	0x3f38bd53	0.72163886
7	0x3f91b628	1.1383715
8	0x3f8e959c	1.1139407
9	0x3f7c3082	0.9851152
10	0x3f84c134	1.0371461
11	0x3f879eea	1.0595372

fc_hidden.1.bias f4 [12]
0	0x3db383d9	0.08765382
1	0x3d2cdb92	0.042201586
2	0x3e2cd376	0.16877541
3	0x3e2b0bc5	0.16703708
4	0x3df93a34	0.121693045
5	0x3dc8cf3d	0.098051526
6	0xbd4edb61	-0.050502185
7	0x3de08915	0.10963646
8	0x3e24e0f6	0.16101441
9	0x3dccefe1	0.10006691
10	0x3d9b84ce	0.0759369
11	0x3e0bd6f0	0.13656211

fc_hidden.1.running_mean f4 [12]
0	0xbe0ea354	-0.13929492
1	0x3e39c542	0.18141654
2	0xbeae3712	-0.3402639
3	0xbd63e082	-0.05563403
4	0xbd9d2e44	-0.0767484
5	0xbea49bed	-0.32150212
6	0xbd42c63e	-0.04755234
7	0xbb80b47d	-0.003927766
8	0xbe4a7549	-0.19771303
9	0xbe8f9d4c	-0.28049695
10	0xbd0786f3	-0.033087682
11	0xbda55e51	-0.0807463

fc_hidden.1.running_var f4 [12]
0	0x3e887338	0.26650405
1	0x3e557e40	0.20848942
2	0x3ee40bae	0.4454016
3	0x3e8652d1	0.2623506
4	0x3ec041c8	0.37550187
5	0x3eacbe78	0.33739066
6	0x3d5ff9b3	0.05468149
7	0x3e55651c	0.20839351
8	0x3ea24308	0.31691766
9	0x3ec08986	0.37604922
10	0x3e6b75e4	0.2299419
11	0x3e931f90	0.28735018

rnn.weight_ih_l0 f4 [48, 12]
0	0x3ba81ea6	0.0051306067
1	0xbe1d9c88	-0.15391743
2	0x3d080606	0.03320887
3	0x3b9bdde3	0.0047566756
4	0xbd2cb28b	-0.04216246
5	0x3e2c9be4	0.16856343
6	0x3e6676da	0.22506276
7	0x3d70c20e	0.058778815
8	0xbe49f294	-0.19721442
9	0xbe399e66	-0.1812683
10	0x3d48a7e9	0.048988257
11	0x3e1458a9	0.14486946
12	0xbe3c3c2e	-0.18382332
13	0xbe2e5913	-0.17026167
14	0xbedb4d3e	-0.4283237
15	0xbebbc638	-0.36674666
16	0x3b86e685	0.0041168355
17	0xbe3d7a19	-0.18503608
18	0x3e436284	0.1908055
19	0xbe4e4448	-0.20143235
20	0xbe69452f	-0.22780298
21	0xbe85e9f2	-0.2615505
22	0xbe47150d	-0.19441624
23	0xbe922dd0	-0.28550577
24	0xbe28563f	-0.1643915
25	0x3bce9659	0.006304544
26	0x3e3ddc1b	0.18540995
27	0x3e1f7e89	0.15575613
28	0x3dfbf5e0	0.12302756
29	0xbe21629a	-0.1576027
30	0x3d31e975	0.043435533
31	0x3e3711dd	0.17877908
32	0xbd3a9809	-0.04555515
33	0xbde97010	-0.11398327
34	0x3e918b60	0.28426647
35	0xbe007a05	-0.12546547
36	0xbe05f213	-0.13080625
37	0x3e64841e	0.22316024
38	0x3df407e8	0.119155705
39	0x3d08d04c	0.033401772
40	0x3e2e0cd9	0.16997088
41	0xbd178c25	-0.036998887
42	0x3c274a9a	0.0102106575
43	0xbe9d3188	-0.30701852
44	0xbdc012bb	-0.093785726
45	0xbccf6dd9	-0.025320934
46	0x3de4a5f5	0.11164466
47	0xbcce8192	-0.025208268
48	0x3b9eb59d	0.0048434273
49	0x3a022453	0.0004964519
50	0x3e05437a	0.13014022
51	0x3e26c290	0.16285157
52	0xbcd5f484	-0.02611757
53	0x3e32ecde	0.1747317
54	0x3df18a49	0.11793954
55	0x3d5f5785	0.054526825
56	0xbdbdd3bf	-0.09268903
57	0xbda7bb13	-0.081899785
58	0x3d2ec034	0.042663768
59	0x3d6fc1bd	0.058534373
60	0xbdbf6497	-0.09345358
61	0x3d42335c	0.04741226
62	0xbde2b76c	-0.11070141
63	0xbbb1340d	-0.0054078163
64	0xbdbee33a	-0.09320684
65	0xbe0591cb	-0.13043897
66	0xbe140e02	-0.14458469
67	0xbe61bf0d	-0.22045536
68	0xbd5919d0	-0.053003132
69	0xbe3353ad	-0.17512389
70	0x3d494885	0.049141426
71	0xbe0ed61f	-0.13948868
72	0xbb860a04	-0.0040905494
73	0x3e50fc8e	0.20408842
74	0x3e0d2ce8	0.13786662
75	0xbddb3b7c	-0.10704705
76	0x3c514e17	0.012774966
77	0xbd3f3469	-0.04668084
78	0xbe20dbc3	-0.15708832
79	0xbe039736	-0.12850651
80	0x3e93e823	0.28888044
81	0xbd813daa	-0.063105896
82	0x3e81caf9	0.25350168
83	0x3da8caff	0.082418434
84	0xbca33c5b	-0.01992624
85	0xbdd38c24	-0.10329464
86	0x3b4f196a	0.0031600841
87	0x3e40c70b	0.18825929
88	0xbcd71fea	-0.026260335
89	0xbd96ac34	-0.07357064
90	0x3dbb6f1c	0.09152052
91	0xbe554053	-0.20825319
92	0x3d75c244	0.05999972
93	0x3cc1591d	0.023602063
94	0xbe65b7f0	-0.22433448
95	0xbdff440a	-0.12464149
96	0x3e097ea1	0.13427211
97	0xbc4da5c9	-0.012551733
98	0xbd1afb9f	-0.03783762
99	0x3dd3fb85	0.10350708
100	0xbd9048cc	-0.07045135
101	0xbde59690	-0.11210358
102	0x3dbb9345	0.09158949
103	0xbd89efea	-0.06735213
104	0x3b9d87b1	0.0048074354
105	0x3d0d76e2	0.034537204
106	0x3e2e45ca	0.1701881
107	0x3e45bf5b	0.19311278
108	0x3e4c7912	0.1996806
109	0x3e14d199	0.1453308
110	0xbb1d9c54	-0.0024049478
111	0x3d8647aa	0.065566376
112	0x3dd841cb	0.10559424
113	0x3e5d4718	0.21609151
114	0x3e10cd67	0.14140855
115	0x3e889c79	0.2668188
116	0x3e73b1c0	0.23798275
117	0x3e45ef98	0.19329679
118	0x3d9bcfaf	0.07607972
119	0xbda45a00	-0.08024979
120	0xbde77544	-0.113016635
121	0x3dec8ca4	0.115502626
122	0x3e6cf026	0.23138484
123	0x3dff9459	0.12479467
124	0xbe44ebb0	-0.19230533
125	0xbe2a68cb	-0.16641538
126	0xbc43413d	-0.0119174095
127	0x3e60e3b0	0.21961856
128	0x3c547fd2	0.012969928
129	0xbe0a8a3b	-0.13529293
130	0x3dd88a11	0.10573209
131	0xbe083b92	-0.13303974
132	0x3e1b6b12	0.15177563
133	0xbe0d744c	-0.13813895
134	0x3e2b3ef6	0.16723236
135	0xbdb46980	-0.08809185
136	0xbecf10d4	-0.40442526
137	0xbdae8d6c	-0.08523068
138	0xbe0bfd81	-0.13670923
139	0xbda7bed5	-0.08190695
140	0xbe30a619	-0.17250861
141	0x3e20e405	0.15711983
142	0x3e242799	0.1603073
143	0xbd420de8	-0.047376543
144	0x000558b9	4.91005e-40
145	0x00055c37	4.92258e-40
146	0x8005755c	-5.01278e-40
147	0x800118a7	-1.00679e-40
148	0x80017f9f	-1.37617e-40
149	0x00056027	4.9367e-40
150	0x80007ceb	-4.4812e-41
151	0x80019e22	-1.48563e-40
152	0x000560cf	4.93906e-40
153	0x000567b5	4.9638e-40
154	0x80017c00	-1.36318e-40
155	0x800561cb	-4.94259e-40
156	0x8005445f	-4.83704e-40
157	0x000578e9	5.02552e-40
158	0x0004043d	3.68862e-40
159	0x0004902b	4.1906e-40
160	0x8000afda	-6.3084e-41
161	0x0000b80f	6.6028e-41
162	0x00028227	2.30361e-40
163	0x000479f8	4.11096e-40
164	0x00057593	5.01355e-40
165	0x80056d69	-4.98426e-40
166	0x00056321	4.94738e-40
167	0x8003d53b	-3.51999e-40
168	0x8000237f	-1.2734e-41
169	0x00055f8b	4.93452e-40
170	0x80040c15	-3.71676e-40
171	0x0005581c	4.90785e-40
172	0x8004c90b	-4.39463e-40
173	0x800033cf	-1.8585e-41
174	0x8005638d	-4.9489e-40
175	0x800107d3	-9.4642e-41
176	0x800580e6	-5.05418e-40
177	0x80055a3c	-4.91547e-40
178	0x800574a3	-5.01019e-40
179	0x800038ed	-2.0421e-41
180	0x80047225	-4.0829e-40
181	0x0000f279	8.6983e-41
182	0x000201af	1.84275e-40
183	0x00055da2	4.92767e-40
184	0x800478d0	-4.10681e-40
185	0x80044650	-3.92565e-40
186	0x8003dcc3	-3.54701e-40
187	0x80057d99	-5.04233e-40
188	0x00055d51	4.92653e-40
189	0x8004ced5	-4.4154e-40
190	0x800579d1	-5.02877e-40
191	0x8005663a	-4.9585e-40
192	0x0003f4b2	3.63287e-40
193	0x000559ce	4.91393e-40
194	0x800410a2	-3.73309e-40
195	0x00010340	9.3001e-41
196	0x0004868d	4.1561e-40
197	0x0000001c	3.9e-44
198	0x0005589f	4.90969e-40
199	0x8004a267	-4.25601e-40
200	0x800578e8	-5.0255e-40
201	0x800012cb	-6.742e-42
202	0x0005c346	5.29228e-40
203	0x80004328	-2.4091e-41
204	0x80002ac2	-1.5339e-41
205	0x8006790d	-5.94438e-40
206	0x00055c15	4.9221e-40
207	0x00057948	5.02685e-40
208	0x8001e9c6	-1.75698e-40
209	0x8000cafb	-7.2816e-41
210	0x80057999	-5.02799e-40
211	0x00044640	3.92543e-40
212	0x80045622	-3.9824e-40
213	0x00002fa6	1.7093e-41
214	0x00003b58	2.1289e-41
215	0x80056a0e	-4.97223e-40
216	0x80068ad2	-6.00812e-40
217	0x0005f1fc	5.45985e-40
218	0x8000aaa2	-6.1212e-41
219	0x000001c2	6.3e-43
220	0x8000db7b	-7.8735e-41
221	0x000313a1	2.82548e-40
222	0x00067308	5.92278e-40
223	0x800557f7	-4.90733e-40
224	0x00056ea8	4.98873e-40
225	0x00055ebd	4.93163e-40
226	0x800698c5	-6.05816e-40
227	0x80046908	-4.0502e-40
228	0x80057b11	-5.03325e-40
229	0x8001d127	-1.66865e-40
230	0x80057881	-5.02406e-40
231	0x00055feb	4.93586e-40
232	0x800180ae	-1.37997e-40
233	0x80017097	-1.32225e-40
234	0x00057540	5.01239e-40
235	0x80057662	-5.01645e-40
236	0x00056907	4.96854e-40
237	0x800568ac	-4.96727e-40
238	0x8005b40d	-5.23768e-40
239	0x800579c6	-5.02862e-40
240	0x80056949	-4.96947e-40
241	0x8001d13f	-1.66899e-40
242	0x00056408	4.95062e-40
243	0x800568c6	-4.96763e-40
244	0x00037723	3.18245e-40
245	0x8002e1dd	-2.64695e-40
246	0x0000a8dc	6.0575e-41
247	0x8005ea8f	-5.43321e-40
248	0x8002972c	-2.37901e-40
249	0x0001275c	1.05955e-40
250	0x80035ece	-3.09516e-40
251	0x0000f4ce	8.782e-41
252	0x800108d2	-9.5e-41
253	0x00001789	8.443e-42
254	0x00055c14	4.92209e-40
255	0x0004283e	3.81778e-40

rnn.weight_hh_l0 f4 [48, 12]
0	0x000574a5	5.01022e-40
1	0x8005b897	-5.25396e-40
2	0x800348f1	-3.01673e-40
3	0x80055f1a	-4.93293e-40
4	0x00055d0c	4.92556e-40
5	0x0000a6a2	5.9777e-41
6	0x80056f6a	-4.99145e-40
7	0x00042798	3.81546e-40
8	0x000432a7	3.85513e-40
9	0x8004289a	-3.81907e-40
10	0x80055e5e	-4.9303e-40
11	0x80014772	-1.17465e-40
12	0x80056979	-4.97014e-40
13	0x000485c4	4.15328e-40
14	0x80056129	-4.94032e-40
15	0x80056bba	-4.97822e-40
16	0x8002357f	-2.02862e-40
17	0x0002f985	2.73182e-40
18	0x000596db	5.13294e-40
19	0x00055b3d	4.91908e-40
20	0x0001d0d2	1.66746e-40
21	0x80017024	-1.32064e-40
22	0x8004c36b	-4.37445e-40
23	0x8005696d	-4.96997e-40
24	0x8001b281	-1.5587e-40
25	0x00055840	4.90836e-40
26	0x00056cdb	4.98227e-40
27	0x80056587	-4.95599e-40
28	0x80003dae	-2.2127e-41
29	0x8004d0c9	-4.4224e-40
30	0x000567d5	4.96425e-40
31	0x8000a22d	-5.8178e-41
32	0x0006cb6c	6.23987e-40
33	0x00055f81	4.93438e-40
34	0x8005715d	-4.99845e-40
35	0x80028bc9	-2.33816e-40
36	0x800475b8	-4.09572e-40
37	0x80057dbe	-5.04285e-40
38	0x000407b5	3.70107e-40
39	0x000565d2	4.95704e-40
40	0x8004d0a2	-4.42185e-40
41	0x80057b27	-5.03356e-40
42	0x8002619e	-2.1869e-40
43	0x80018236	-1.38546e-40
44	0x80055ca8	-4.92416e-40
45	0x000490b2	4.19249e-40
46	0x00044529	3.92152e-40
47	0x80057ee1	-5.04693e-40
48	0x80057441	-5.00882e-40
49	0x800568b5	-4.96739e-40
50	0x00056e3f	4.98726e-40
51	0x0005599f	4.91327e-40
52	0x80056a59	-4.97328e-40
53	0x8004ffbb	-4.59081e-40
54	0x0004bc5b	4.34911e-40
55	0x0002a718	2.43613e-40
56	0x0005620f	4.94354e-40
57	0x800563cb	-4.94976e-40
58	0x80066f34	-5.90905e-40
59	0x00056c55	4.9804e-40
60	0x0005626e	4.94487e-40
61	0x8006587f	-5.8276e-40
62	0x800483e2	-4.14653e-40
63	0x80056d5d	-4.9841e-40
64	0x00057407	5.008e-40
65	0x0001c0a0	1.60936e-40
66	0x80055b46	-4.9192e-40
67	0x00033b1b	2.9671e-40
68	0x0002d84b	2.61262e-40
69	0x000569a1	4.9707e-40
70	0x000568da	4.96791e-40
71	0x80009b89	-5.5796e-41
72	0x80021842	-1.92373e-40
73	0x80056387	-4.94881e-40
74	0x00005ad7	3.2587e-41
75	0x00056270	4.9449e-40
76	0x80056b5e	-4.97694e-40
77	0x00055d1d	4.9258e-40
78	0x00057090	4.99557e-40
79	0x000532f0	4.7745e-40
80	0x80049544	-4.20888e-40
81	0x00044aaf	3.94133e-40
82	0x0005225f	4.71508e-40
83	0x0001109f	9.7798e-41
84	0x80056c63	-4.9806e-40
85	0x8000d02c	-7.4678e-41
86	0x00068c74	6.01398e-40
87	0x800564ed	-4.95383e-40
88	0x800564c7	-4.9533e-40
89	0x00062976	5.65886e-40
90	0x80057c94	-5.03868e-40
91	0x800484b5	-4.14948e-40
92	0x800451a5	-3.9663e-40
93	0x80055e0f	-4.9292e-40
94	0x0005610a	4.93989e-40
95	0x8000091b	-3.266e-42
96	0x00056819	4.9652e-40
97	0x80003526	-1.9066e-41
98	0x800565e2	-4.95726e-40
99	0x000016ee	8.226e-42
100	0x80049f71	-4.24539e-40
101	0x000139d5	1.12582e-40
102	0x800482eb	-4.14307e-40
103	0x00044d77	3.95131e-40
104	0x800577f0	-5.02203e-40
105	0x80033a2a	-2.96372e-40
106	0x80009b31	-5.5672e-41
107	0x00045156	3.9652e-40
108	0x80055b32	-4.91892e-40
109	0x0000c413	7.0338e-41
110	0x800185c6	-1.39824e-40
111	0x00057229	5.0013e-40
112	0x000572b0	5.0032e-40
113	0x800484bf	-4.14962e-40
114	0x8000fac9	-8.9965e-41
115	0x000361ea	3.10631e-40
116	0x00038c6b	3.25879e-40
117	0x0000be7f	6.8337e-41
118	0x80057cfd	-5.04015e-40
119	0x0005670d	4.96145e-40
120	0x0000055f	1.927e-42
121	0x8002f210	-2.70507e-40
122	0x00009f4f	5.7149e-41
123	0x8005718e	-4.99913e-40
124	0x0003528f	3.05123e-40
125	0x000566d6	4.96068e-40
126	0x80055968	-4.9125e-40
127	0x80055fe1	-4.93572e-40
128	0x00055f07	4.93267e-40
129	0x00056750	4.96239e-40
130	0x8000a5d2	-5.9485e-41
131	0x80056bf0	-4.97898e-40
132	0x0005697d	4.9702e-40
133	0x00056617	4.958e-40
134	0x00051fd5	4.70597e-40
135	0x00056a5d	4.97333e-40
136	0x00046ffe	4.07517e-40
137	0x8001b18e	-1.5553e-40
138	0x80055e3d	-4.92984e-40
139	0x0006b9b7	6.17635e-40
140	0x80057dd2	-5.04313e-40
141	0x00057edf	5.0469e-40
142	0x8002126e	-1.90282e-40
143	0x00055e2a	4.92957e-40
144	0x0006bc28	6.18511e-40
145	0x80056ea0	-4.98862e-40
146	0x8002b98f	-2.50237e-40
147	0x000577d1	5.0216e-40
148	0x0005a9f4	5.20145e-40
149	0x0002705a	2.23975e-40
150	0x8003b282	-3.39543e-40
151	0x8001a0d4	-1.4953e-40
152	0x8003b9b7	-3.42128e-40
153	0x800285b8	-2.3164e-40
154	0x00055981	4.91285e-40
155	0x80019545	-1.45383e-40
156	0x800564be	-4.95317e-40
157	0x800575f0	-5.01485e-40
158	0x80026b61	-2.22191e-40
159	0x800547b4	-4.849e-40
160	0x8000b737	-6.5725e-41
161	0x00055793	4.90593e-40
162	0x000558bf	4.91014e-40
163	0x8002f869	-2.72784e-40
164	0x8004f42a	-4.54932e-40
165	0x80056018	-4.9365e-40
166	0x000572b1	5.00321e-40
167	0x8005782f	-5.02291e-40
168	0x80042a90	-3.8261e-40
169	0x8001ab00	-1.53179e-40
170	0x00041a11	3.76693e-40
171	0x80056dd6	-4.98579e-40
172	0x00013665	1.11349e-40
173	0x0001cdd5	1.65674e-40
174	0x80055c80	-4.9236e-40
175	0x00044922	3.93577e-40
176	0x8003fb22	-3.65596e-40
177	0x000468f3	4.0499e-40
178	0x8004f0d3	-4.53733e-40
179	0x8005777f	-5.02045e-40
180	0x8000da22	-7.8251e-41
181	0x0005582a	4.90805e-40
182	0x00049e21	4.24068e-40
183	0x0001d160	1.66945e-40
184	0x0002fbaf	2.73958e-40
185	0x00066c42	5.89849e-40
186	0x0000da4d	7.8312e-41
187	0x00057766	5.0201e-40
188	0x00056562	4.95547e-40
189	0x0004a838	4.27688e-40
190	0x80013973	-1.12444e-40
191	0x000569db	4.97151e-40
192	0x80055c00	-4.92181e-40
193	0x80054632	-4.84359e-40
194	0x00057039	4.99435e-40
195	0x80056941	-4.96935e-40
196	0x00057167	4.99859e-40
197	0x8000e5cd	-8.2437e-41
198	0x8005658f	-4.9561e-40
199	0x8005720f	-5.00094e-40
200	0x0005690e	4.96864e-40
201	0x8006375c	-5.70872e-40
202	0x8005e6cc	-5.41972e-40
203	0x0000af21	6.2824e-41
204	0x80040ce7	-3.7197e-40
205	0x00056a8f	4.97404e-40
206	0x00055f89	4.93449e-40
207	0x800561f5	-4.94318e-40
208	0x8000b8d8	-6.631e-41
209	0x80068072	-5.9709e-40
210	0x0003e661	3.58151e-40
211	0x80055940	-4.91194e-40
212	0x000478fe	4.10746e-40
213	0x0004b7fc	4.33343e-40
214	0x80028978	-2.32985e-40
215	0x0003bc08	3.4296e-40
216	0x0000f69b	8.8465e-41
217	0x00005522	3.054e-41
218	0x0002e837	2.66974e-40
219	0x00057d02	5.04022e-40
220	0x0004e37c	4.48948e-40
221	0x80001d60	-1.0538e-41
222	0x00056d60	4.98414e-40
223	0x80057172	-4.99874e-40
224	0x00009d40	5.641e-41
225	0x80049979	-4.22398e-40
226	0x800560e9	-4.93942e-40
227	0x000410b7	3.73338e-40
228	0x800558fb	-4.91098e-40
229	0x8002cc43	-2.56946e-40
230	0x00057142	4.99807e-40
231	0x8005726b	-5.00223e-40
232	0x8001d6c6	-1.68882e-40
233	0x00044442	3.91828e-40
234	0x000365c7	3.12017e-40
235	0x00004e6b	2.8131e-41
236	0x80057dd7	-5.0432e-40
237	0x00056d11	4.98303e-40
238	0x8005576c	-4.90539e-40
239	0x00020d97	1.88546e-40
240	0x80057914	-5.02612e-40
241	0x80021aae	-1.93242e-40
242	0x00048151	4.13732e-40
243	0x800493cf	-4.20366e-40
244	0x00045b32	4.00057e-40
245	0x0003463f	3.00706e-40
246	0x80055b00	-4.91822e-40
247	0x80057b0c	-5.03318e-40
248	0x000571f0	5.0005e-40
249	0x80056f7e	-4.99173e-40
250	0x8003d3f7	-3.51545e-40
251	0x0000301f	1.7263e-41
252	0x00056b6c	4.97713e-40
253	0x80047b10	-4.11488e-40
254	0x80038c04	-3.25735e-40
255	0x80017ecc	-1.37322e-40

rnn.bias_ih_l0 f4 [48]
0	0xbe41ca42	-0.18924811
1	0xbe15d549	-0.14632143
2	0x3e3c326f	0.18378614
3	0xbe6384b3	-0.2221859
4	0x3e975b1f	0.29561707
5	0x3e87fc3b	0.26559624
6	0xbe19d033	-0.15020828
7	0x3dfcb2f6	0.123388216
8	0x3e263908	0.16232693
9	0xbd61a593	-0.055089545
10	0xbcc0ae39	-0.023520576
11	0x3d07b894	0.03313501
12	0x800325ff	-2.89137e-40
13	0x0000f5da	8.8195e-41
14	0x8000db4a	-7.8666e-41
15	0x0002efee	2.69742e-40
16	0x80057d81	-5.042e-40
17	0x00055ada	4.91769e-40
18	0x00055788	4.90578e-40
19	0x000096c8	5.409e-41
20	0x800557d9	-4.90691e-40
21	0x0002b6af	2.49206e-40
22	0x0005da97	5.37593e-40
23	0x80056958	-4.96968e-40
24	0xbdcb406e	-0.09924398
25	0xbe322977	-0.1739863
26	0x3d4baa8c	0.049723193
27	0x3d7bf833	0.061515998
28	0x3e65c0b6	0.22436795
29	0x3d1fd02f	0.0390169
30	0xbbc2a203	-0.0059397235
31	0xbdce400e	-0.10070811
32	0x3e994ec1	0.29942897
33	0xbc9444e5	-0.018099258
34	0xbe4e93b0	-0.20173526
35	0xbd840b43	-0.064474605
36	0xbc0b839d	-0.008515266
37	0xbe2068bc	-0.15664953
38	0x3dec9b1a	0.11553021
39	0xbe19b2bb	-0.15009587
40	0x3e1b2ab0	0.15153003
41	0x3da1859c	0.07886812
42	0x3e1448e1	0.14480926
43	0x3bdf8263	0.006820963
44	0x3d1320d0	0.035919964
45	0x3e894860	0.2681303
46	0xbdff42cd	-0.12463913
47	0xbd621c17	-0.05520257

rnn.bias_hh_l0 f4 [48]
0	0x3e548ea6	0.20757541
1	0xbe4a5c97	-0.19761883
2	0x3d2def56	0.042464577
3	0x3e27a0b3	0.16369896
4	0x3db5ef15	0.08883492
5	0xbd50312f	-0.050828155
6	0x3e02b1c4	0.12763125
7	0x3dfd8b56	0.12380092
8	0xbda80408	-0.08203894
9	0x3e9c82e7	0.3056862
10	0x3e02bb26	0.12766704
11	0x3eac5322	0.33657175
12	0x0001b6be	1.57391e-40
13	0x80047fbc	-4.13164e-40
14	0x80055f98	-4.9347e-40
15	0x0000321a	1.7973e-41
16	0x000561ec	4.94305e-40
17	0x8005321e	-4.77156e-40
18	0x80024dd4	-2.1159e-40
19	0x00057d39	5.04099e-40
20	0x0005751d	5.0119e-40
21	0x0000e128	8.0771e-41
22	0x80012ed0	-1.08629e-40
23	0x0004685d	4.0478e-40
24	0xbe81857e	-0.2529716
25	0xbdcf734d	-0.10129414
26	0x3d9ecc3c	0.07753798
27	0xbe1e1799	-0.1543869
28	0x3eb7341c	0.35781944
29	0x3e0fa9d4	0.14029628
30	0xbc8619cc	-0.016369723
31	0x3e4c0304	0.19923025
32	0xbd8421af	-0.06451737
33	0x3eba77e1	0.36419585
34	0xbea53b0e	-0.32271618
35	0x3e4c09ab	0.19925563
36	0x3e461935	0.19345553
37	0xbd76f678	-0.060293645
38	0x3dfbc0da	0.12292643
39	0x3e64c8e3	0.22342257
40	0x3dffdde8	0.12493497
41	0x3e24d1b1	0.16095616
42	0xbe4dba68	-0.2009064
43	0x3d584a45	0.052805204
44	0xbe277677	-0.16353785
45	0x3eb20507	0.3476946
46	0x3d5ab918	0.053399175
47	0x3e79ba36	0.2438744

fc_output.weight f4 [1, 12]
0	0x3e8418cc	0.2580017
1	0x3e262766	0.16225967
2	0x3e903fd4	0.28173697
3	0x3e3ebc93	0.18626623
4	0xbd5019ce	-0.05080586
5	0xbdc1b218	-0.09457797
6	0xbdce2533	-0.10065689
7	0xbd9211c5	-0.071322955
8	0xbe0a310e	-0.13495275
9	0xbd49a733	-0.04923172
10	0xbe097e95	-0.13427193
11	0x3e24f33d	0.16108413
